…
local rank 7 / global rank 7 successfully build val dataset
local rank 5 / global rank 5 successfully build val dataset
local rank 6 / global rank 6 successfully build val dataset
local rank 2 / global rank 2 successfully build val dataset
local rank 0 / global rank 0 successfully build val dataset
[32m[2024-06-03 10:40:28 VCNUs_ab_tiny_224_ab1_perception3579][0m[33m(main.py 108)[0m: INFO Creating model:VCNUs_ab/VCNUs_ab_tiny_224_ab1_perception3579
[32m[2024-06-03 10:40:28 VCNUs_ab_tiny_224_ab1_perception3579][0m[33m(main.py 110)[0m: INFO VCNUs_ab(
  (patch_embed): PatchEmbed(
    (conv): Sequential(
      (0): Conv2d(3, 96, kernel_size=(7, 7), stride=(2, 2), padding=(3, 3), bias=False)
      (1): BatchNorm2d(96, eps=1e-05, momentum=0.1, affine=True, track_running_stats=True)
      (2): ReLU(inplace=True)
      (3): Conv2d(96, 96, kernel_size=(2, 2), stride=(2, 2))
    )
    (norm): BatchNorm2d(96, eps=1e-05, momentum=0.1, affine=True, track_running_stats=True)
  )
  (pos_drop): Identity()
  (layers): ModuleList(
    (0): BasicLayer(
      dim=96, memory_dim=14, depth=3
      (blocks): ModuleList(
        (0): VCNUsBlock(
          dim=96, memory_dim=14, mlp_ratio=4.0, norm_name=BN
          (drop_path): Identity()
          (norm1): BatchNorm2d(96, eps=1e-05, momentum=0.1, affine=True, track_running_stats=True)
          (vcnu): VisionCognitiveNeuralUnit(
            ab_aggregation_attn=add, ab_aggregation_ltm=add,ab_norm_attn_=False, ab_norm_ltm_=False,ab_norm_attn_name=BN, ab_norm_ltm_name=BN,
            (activation): GELU()
            (linear_map): Conv2d(96, 96, kernel_size=(1, 1), stride=(1, 1))
            (multiscale_conv_1): Conv2d(24, 24, kernel_size=(3, 3), stride=(1, 1), padding=(1, 1), groups=24)
            (multiscale_conv_2): Conv2d(24, 24, kernel_size=(5, 5), stride=(1, 1), padding=(2, 2), groups=24)
            (multiscale_conv_3): Conv2d(24, 24, kernel_size=(7, 7), stride=(1, 1), padding=(3, 3), groups=24)
            (multiscale_conv_4): Conv2d(24, 24, kernel_size=(9, 9), stride=(1, 1), padding=(4, 4), groups=24)
            (wm): Conv2d(14, 96, kernel_size=(1, 1), stride=(1, 1))
            (attn): Identity()
            (update_ltm): Conv2d(96, 14, kernel_size=(1, 1), stride=(1, 1))
            (aggregation_update_ltm): Identity()
            (norm_attn): Identity()
            (norm_ltm): Identity()
            (proj_drop): Dropout(p=0.0, inplace=False)
          )
        )
        (1): VCNUsBlock(
          dim=96, memory_dim=14, mlp_ratio=4.0, norm_name=BN
          (drop_path): DropPath(Droprate=0.0058823530562222)
          (norm1): BatchNorm2d(96, eps=1e-05, momentum=0.1, affine=True, track_running_stats=True)
          (vcnu): VisionCognitiveNeuralUnit(
            ab_aggregation_attn=add, ab_aggregation_ltm=add,ab_norm_attn_=False, ab_norm_ltm_=False,ab_norm_attn_name=BN, ab_norm_ltm_name=BN,
            (activation): GELU()
            (linear_map): Conv2d(96, 96, kernel_size=(1, 1), stride=(1, 1))
            (multiscale_conv_1): Conv2d(24, 24, kernel_size=(3, 3), stride=(1, 1), padding=(1, 1), groups=24)
            (multiscale_conv_2): Conv2d(24, 24, kernel_size=(5, 5), stride=(1, 1), padding=(2, 2), groups=24)
            (multiscale_conv_3): Conv2d(24, 24, kernel_size=(7, 7), stride=(1, 1), padding=(3, 3), groups=24)
            (multiscale_conv_4): Conv2d(24, 24, kernel_size=(9, 9), stride=(1, 1), padding=(4, 4), groups=24)
            (wm): Conv2d(14, 96, kernel_size=(1, 1), stride=(1, 1))
            (attn): Identity()
            (update_ltm): Conv2d(96, 14, kernel_size=(1, 1), stride=(1, 1))
            (aggregation_update_ltm): Identity()
            (norm_attn): Identity()
            (norm_ltm): Identity()
            (proj_drop): Dropout(p=0.0, inplace=False)
          )
        )
        (2): VCNUsBlock(
          dim=96, memory_dim=14, mlp_ratio=4.0, norm_name=BN
          (drop_path): DropPath(Droprate=0.0117647061124444)
          (norm1): BatchNorm2d(96, eps=1e-05, momentum=0.1, affine=True, track_running_stats=True)
          (vcnu): VisionCognitiveNeuralUnit(
            ab_aggregation_attn=add, ab_aggregation_ltm=add,ab_norm_attn_=False, ab_norm_ltm_=False,ab_norm_attn_name=BN, ab_norm_ltm_name=BN,
            (activation): GELU()
            (linear_map): Conv2d(96, 96, kernel_size=(1, 1), stride=(1, 1))
            (multiscale_conv_1): Conv2d(24, 24, kernel_size=(3, 3), stride=(1, 1), padding=(1, 1), groups=24)
            (multiscale_conv_2): Conv2d(24, 24, kernel_size=(5, 5), stride=(1, 1), padding=(2, 2), groups=24)
            (multiscale_conv_3): Conv2d(24, 24, kernel_size=(7, 7), stride=(1, 1), padding=(3, 3), groups=24)
            (multiscale_conv_4): Conv2d(24, 24, kernel_size=(9, 9), stride=(1, 1), padding=(4, 4), groups=24)
            (wm): Conv2d(14, 96, kernel_size=(1, 1), stride=(1, 1))
            (attn): Identity()
            (update_ltm): Conv2d(96, 14, kernel_size=(1, 1), stride=(1, 1))
            (aggregation_update_ltm): Identity()
            (norm_attn): Identity()
            (norm_ltm): Identity()
            (proj_drop): Dropout(p=0.0, inplace=False)
          )
        )
      )
      (downsample): OverlapPatchEmbed(
        memory origin dim=14memory input dim=14
        (proj): Conv2d(96, 192, kernel_size=(2, 2), stride=(2, 2), bias=False)
        (norm): BatchNorm2d(192, eps=1e-05, momentum=0.1, affine=True, track_running_stats=True)
        (down_sampling): AvgPool2d(kernel_size=2, stride=2, padding=0)
        (memory_norm): Identity()
      )
    )
    (1): BasicLayer(
      dim=192, memory_dim=14, depth=3
      (blocks): ModuleList(
        (0): VCNUsBlock(
          dim=192, memory_dim=14, mlp_ratio=4.0, norm_name=BN
          (drop_path): DropPath(Droprate=0.01764705963432789)
          (norm1): BatchNorm2d(192, eps=1e-05, momentum=0.1, affine=True, track_running_stats=True)
          (vcnu): VisionCognitiveNeuralUnit(
            ab_aggregation_attn=add, ab_aggregation_ltm=add,ab_norm_attn_=False, ab_norm_ltm_=False,ab_norm_attn_name=BN, ab_norm_ltm_name=BN,
            (activation): GELU()
            (linear_map): Conv2d(192, 192, kernel_size=(1, 1), stride=(1, 1))
            (multiscale_conv_1): Conv2d(48, 48, kernel_size=(3, 3), stride=(1, 1), padding=(1, 1), groups=48)
            (multiscale_conv_2): Conv2d(48, 48, kernel_size=(5, 5), stride=(1, 1), padding=(2, 2), groups=48)
            (multiscale_conv_3): Conv2d(48, 48, kernel_size=(7, 7), stride=(1, 1), padding=(3, 3), groups=48)
            (multiscale_conv_4): Conv2d(48, 48, kernel_size=(9, 9), stride=(1, 1), padding=(4, 4), groups=48)
            (wm): Conv2d(14, 192, kernel_size=(1, 1), stride=(1, 1))
            (attn): Identity()
            (update_ltm): Conv2d(192, 14, kernel_size=(1, 1), stride=(1, 1))
            (aggregation_update_ltm): Identity()
            (norm_attn): Identity()
            (norm_ltm): Identity()
            (proj_drop): Dropout(p=0.0, inplace=False)
          )
        )
        (1): VCNUsBlock(
          dim=192, memory_dim=14, mlp_ratio=4.0, norm_name=BN
          (drop_path): DropPath(Droprate=0.0235294122248888)
          (norm1): BatchNorm2d(192, eps=1e-05, momentum=0.1, affine=True, track_running_stats=True)
          (vcnu): VisionCognitiveNeuralUnit(
            ab_aggregation_attn=add, ab_aggregation_ltm=add,ab_norm_attn_=False, ab_norm_ltm_=False,ab_norm_attn_name=BN, ab_norm_ltm_name=BN,
            (activation): GELU()
            (linear_map): Conv2d(192, 192, kernel_size=(1, 1), stride=(1, 1))
            (multiscale_conv_1): Conv2d(48, 48, kernel_size=(3, 3), stride=(1, 1), padding=(1, 1), groups=48)
            (multiscale_conv_2): Conv2d(48, 48, kernel_size=(5, 5), stride=(1, 1), padding=(2, 2), groups=48)
            (multiscale_conv_3): Conv2d(48, 48, kernel_size=(7, 7), stride=(1, 1), padding=(3, 3), groups=48)
            (multiscale_conv_4): Conv2d(48, 48, kernel_size=(9, 9), stride=(1, 1), padding=(4, 4), groups=48)
            (wm): Conv2d(14, 192, kernel_size=(1, 1), stride=(1, 1))
            (attn): Identity()
            (update_ltm): Conv2d(192, 14, kernel_size=(1, 1), stride=(1, 1))
            (aggregation_update_ltm): Identity()
            (norm_attn): Identity()
            (norm_ltm): Identity()
            (proj_drop): Dropout(p=0.0, inplace=False)
          )
        )
        (2): VCNUsBlock(
          dim=192, memory_dim=14, mlp_ratio=4.0, norm_name=BN
          (drop_path): DropPath(Droprate=0.029411764815449715)
          (norm1): BatchNorm2d(192, eps=1e-05, momentum=0.1, affine=True, track_running_stats=True)
          (vcnu): VisionCognitiveNeuralUnit(
            ab_aggregation_attn=add, ab_aggregation_ltm=add,ab_norm_attn_=False, ab_norm_ltm_=False,ab_norm_attn_name=BN, ab_norm_ltm_name=BN,
            (activation): GELU()
            (linear_map): Conv2d(192, 192, kernel_size=(1, 1), stride=(1, 1))
            (multiscale_conv_1): Conv2d(48, 48, kernel_size=(3, 3), stride=(1, 1), padding=(1, 1), groups=48)
            (multiscale_conv_2): Conv2d(48, 48, kernel_size=(5, 5), stride=(1, 1), padding=(2, 2), groups=48)
            (multiscale_conv_3): Conv2d(48, 48, kernel_size=(7, 7), stride=(1, 1), padding=(3, 3), groups=48)
            (multiscale_conv_4): Conv2d(48, 48, kernel_size=(9, 9), stride=(1, 1), padding=(4, 4), groups=48)
            (wm): Conv2d(14, 192, kernel_size=(1, 1), stride=(1, 1))
            (attn): Identity()
            (update_ltm): Conv2d(192, 14, kernel_size=(1, 1), stride=(1, 1))
            (aggregation_update_ltm): Identity()
            (norm_attn): Identity()
            (norm_ltm): Identity()
            (proj_drop): Dropout(p=0.0, inplace=False)
          )
        )
      )
      (downsample): OverlapPatchEmbed(
        memory origin dim=14memory input dim=14
        (proj): Conv2d(192, 384, kernel_size=(2, 2), stride=(2, 2), bias=False)
        (norm): BatchNorm2d(384, eps=1e-05, momentum=0.1, affine=True, track_running_stats=True)
        (down_sampling): AvgPool2d(kernel_size=2, stride=2, padding=0)
        (memory_norm): Identity()
      )
    )
    (2): BasicLayer(
      dim=384, memory_dim=14, depth=9
      (blocks): ModuleList(
        (0): VCNUsBlock(
          dim=384, memory_dim=14, mlp_ratio=4.0, norm_name=BN
          (drop_path): DropPath(Droprate=0.03529411926865578)
          (norm1): BatchNorm2d(384, eps=1e-05, momentum=0.1, affine=True, track_running_stats=True)
          (vcnu): VisionCognitiveNeuralUnit(
            ab_aggregation_attn=add, ab_aggregation_ltm=add,ab_norm_attn_=False, ab_norm_ltm_=False,ab_norm_attn_name=BN, ab_norm_ltm_name=BN,
            (activation): GELU()
            (linear_map): Conv2d(384, 384, kernel_size=(1, 1), stride=(1, 1))
            (multiscale_conv_1): Conv2d(96, 96, kernel_size=(3, 3), stride=(1, 1), padding=(1, 1), groups=96)
            (multiscale_conv_2): Conv2d(96, 96, kernel_size=(5, 5), stride=(1, 1), padding=(2, 2), groups=96)
            (multiscale_conv_3): Conv2d(96, 96, kernel_size=(7, 7), stride=(1, 1), padding=(3, 3), groups=96)
            (multiscale_conv_4): Conv2d(96, 96, kernel_size=(9, 9), stride=(1, 1), padding=(4, 4), groups=96)
            (wm): Conv2d(14, 384, kernel_size=(1, 1), stride=(1, 1))
            (attn): Identity()
            (update_ltm): Conv2d(384, 14, kernel_size=(1, 1), stride=(1, 1))
            (aggregation_update_ltm): Identity()
            (norm_attn): Identity()
            (norm_ltm): Identity()
            (proj_drop): Dropout(p=0.0, inplace=False)
          )
        )
        (1): VCNUsBlock(
          dim=384, memory_dim=14, mlp_ratio=4.0, norm_name=BN
          (drop_path): DropPath(Droprate=0.04117647185921669)
          (norm1): BatchNorm2d(384, eps=1e-05, momentum=0.1, affine=True, track_running_stats=True)
          (vcnu): VisionCognitiveNeuralUnit(
            ab_aggregation_attn=add, ab_aggregation_ltm=add,ab_norm_attn_=False, ab_norm_ltm_=False,ab_norm_attn_name=BN, ab_norm_ltm_name=BN,
            (activation): GELU()
            (linear_map): Conv2d(384, 384, kernel_size=(1, 1), stride=(1, 1))
            (multiscale_conv_1): Conv2d(96, 96, kernel_size=(3, 3), stride=(1, 1), padding=(1, 1), groups=96)
            (multiscale_conv_2): Conv2d(96, 96, kernel_size=(5, 5), stride=(1, 1), padding=(2, 2), groups=96)
            (multiscale_conv_3): Conv2d(96, 96, kernel_size=(7, 7), stride=(1, 1), padding=(3, 3), groups=96)
            (multiscale_conv_4): Conv2d(96, 96, kernel_size=(9, 9), stride=(1, 1), padding=(4, 4), groups=96)
            (wm): Conv2d(14, 384, kernel_size=(1, 1), stride=(1, 1))
            (attn): Identity()
            (update_ltm): Conv2d(384, 14, kernel_size=(1, 1), stride=(1, 1))
            (aggregation_update_ltm): Identity()
            (norm_attn): Identity()
            (norm_ltm): Identity()
            (proj_drop): Dropout(p=0.0, inplace=False)
          )
        )
        (2): VCNUsBlock(
          dim=384, memory_dim=14, mlp_ratio=4.0, norm_name=BN
          (drop_path): DropPath(Droprate=0.0470588244497776)
          (norm1): BatchNorm2d(384, eps=1e-05, momentum=0.1, affine=True, track_running_stats=True)
          (vcnu): VisionCognitiveNeuralUnit(
            ab_aggregation_attn=add, ab_aggregation_ltm=add,ab_norm_attn_=False, ab_norm_ltm_=False,ab_norm_attn_name=BN, ab_norm_ltm_name=BN,
            (activation): GELU()
            (linear_map): Conv2d(384, 384, kernel_size=(1, 1), stride=(1, 1))
            (multiscale_conv_1): Conv2d(96, 96, kernel_size=(3, 3), stride=(1, 1), padding=(1, 1), groups=96)
            (multiscale_conv_2): Conv2d(96, 96, kernel_size=(5, 5), stride=(1, 1), padding=(2, 2), groups=96)
            (multiscale_conv_3): Conv2d(96, 96, kernel_size=(7, 7), stride=(1, 1), padding=(3, 3), groups=96)
            (multiscale_conv_4): Conv2d(96, 96, kernel_size=(9, 9), stride=(1, 1), padding=(4, 4), groups=96)
            (wm): Conv2d(14, 384, kernel_size=(1, 1), stride=(1, 1))
            (attn): Identity()
            (update_ltm): Conv2d(384, 14, kernel_size=(1, 1), stride=(1, 1))
            (aggregation_update_ltm): Identity()
            (norm_attn): Identity()
            (norm_ltm): Identity()
            (proj_drop): Dropout(p=0.0, inplace=False)
          )
        )
        (3): VCNUsBlock(
          dim=384, memory_dim=14, mlp_ratio=4.0, norm_name=BN
          (drop_path): DropPath(Droprate=0.052941177040338516)
          (norm1): BatchNorm2d(384, eps=1e-05, momentum=0.1, affine=True, track_running_stats=True)
          (vcnu): VisionCognitiveNeuralUnit(
            ab_aggregation_attn=add, ab_aggregation_ltm=add,ab_norm_attn_=False, ab_norm_ltm_=False,ab_norm_attn_name=BN, ab_norm_ltm_name=BN,
            (activation): GELU()
            (linear_map): Conv2d(384, 384, kernel_size=(1, 1), stride=(1, 1))
            (multiscale_conv_1): Conv2d(96, 96, kernel_size=(3, 3), stride=(1, 1), padding=(1, 1), groups=96)
            (multiscale_conv_2): Conv2d(96, 96, kernel_size=(5, 5), stride=(1, 1), padding=(2, 2), groups=96)
            (multiscale_conv_3): Conv2d(96, 96, kernel_size=(7, 7), stride=(1, 1), padding=(3, 3), groups=96)
            (multiscale_conv_4): Conv2d(96, 96, kernel_size=(9, 9), stride=(1, 1), padding=(4, 4), groups=96)
            (wm): Conv2d(14, 384, kernel_size=(1, 1), stride=(1, 1))
            (attn): Identity()
            (update_ltm): Conv2d(384, 14, kernel_size=(1, 1), stride=(1, 1))
            (aggregation_update_ltm): Identity()
            (norm_attn): Identity()
            (norm_ltm): Identity()
            (proj_drop): Dropout(p=0.0, inplace=False)
          )
        )
        (4): VCNUsBlock(
          dim=384, memory_dim=14, mlp_ratio=4.0, norm_name=BN
          (drop_path): DropPath(Droprate=0.05882352963089943)
          (norm1): BatchNorm2d(384, eps=1e-05, momentum=0.1, affine=True, track_running_stats=True)
          (vcnu): VisionCognitiveNeuralUnit(
            ab_aggregation_attn=add, ab_aggregation_ltm=add,ab_norm_attn_=False, ab_norm_ltm_=False,ab_norm_attn_name=BN, ab_norm_ltm_name=BN,
            (activation): GELU()
            (linear_map): Conv2d(384, 384, kernel_size=(1, 1), stride=(1, 1))
            (multiscale_conv_1): Conv2d(96, 96, kernel_size=(3, 3), stride=(1, 1), padding=(1, 1), groups=96)
            (multiscale_conv_2): Conv2d(96, 96, kernel_size=(5, 5), stride=(1, 1), padding=(2, 2), groups=96)
            (multiscale_conv_3): Conv2d(96, 96, kernel_size=(7, 7), stride=(1, 1), padding=(3, 3), groups=96)
            (multiscale_conv_4): Conv2d(96, 96, kernel_size=(9, 9), stride=(1, 1), padding=(4, 4), groups=96)
            (wm): Conv2d(14, 384, kernel_size=(1, 1), stride=(1, 1))
            (attn): Identity()
            (update_ltm): Conv2d(384, 14, kernel_size=(1, 1), stride=(1, 1))
            (aggregation_update_ltm): Identity()
            (norm_attn): Identity()
            (norm_ltm): Identity()
            (proj_drop): Dropout(p=0.0, inplace=False)
          )
        )
        (5): VCNUsBlock(
          dim=384, memory_dim=14, mlp_ratio=4.0, norm_name=BN
          (drop_path): DropPath(Droprate=0.06470588594675064)
          (norm1): BatchNorm2d(384, eps=1e-05, momentum=0.1, affine=True, track_running_stats=True)
          (vcnu): VisionCognitiveNeuralUnit(
            ab_aggregation_attn=add, ab_aggregation_ltm=add,ab_norm_attn_=False, ab_norm_ltm_=False,ab_norm_attn_name=BN, ab_norm_ltm_name=BN,
            (activation): GELU()
            (linear_map): Conv2d(384, 384, kernel_size=(1, 1), stride=(1, 1))
            (multiscale_conv_1): Conv2d(96, 96, kernel_size=(3, 3), stride=(1, 1), padding=(1, 1), groups=96)
            (multiscale_conv_2): Conv2d(96, 96, kernel_size=(5, 5), stride=(1, 1), padding=(2, 2), groups=96)
            (multiscale_conv_3): Conv2d(96, 96, kernel_size=(7, 7), stride=(1, 1), padding=(3, 3), groups=96)
            (multiscale_conv_4): Conv2d(96, 96, kernel_size=(9, 9), stride=(1, 1), padding=(4, 4), groups=96)
            (wm): Conv2d(14, 384, kernel_size=(1, 1), stride=(1, 1))
            (attn): Identity()
            (update_ltm): Conv2d(384, 14, kernel_size=(1, 1), stride=(1, 1))
            (aggregation_update_ltm): Identity()
            (norm_attn): Identity()
            (norm_ltm): Identity()
            (proj_drop): Dropout(p=0.0, inplace=False)
          )
        )
        (6): VCNUsBlock(
          dim=384, memory_dim=14, mlp_ratio=4.0, norm_name=BN
          (drop_path): DropPath(Droprate=0.07058823853731155)
          (norm1): BatchNorm2d(384, eps=1e-05, momentum=0.1, affine=True, track_running_stats=True)
          (vcnu): VisionCognitiveNeuralUnit(
            ab_aggregation_attn=add, ab_aggregation_ltm=add,ab_norm_attn_=False, ab_norm_ltm_=False,ab_norm_attn_name=BN, ab_norm_ltm_name=BN,
            (activation): GELU()
            (linear_map): Conv2d(384, 384, kernel_size=(1, 1), stride=(1, 1))
            (multiscale_conv_1): Conv2d(96, 96, kernel_size=(3, 3), stride=(1, 1), padding=(1, 1), groups=96)
            (multiscale_conv_2): Conv2d(96, 96, kernel_size=(5, 5), stride=(1, 1), padding=(2, 2), groups=96)
            (multiscale_conv_3): Conv2d(96, 96, kernel_size=(7, 7), stride=(1, 1), padding=(3, 3), groups=96)
            (multiscale_conv_4): Conv2d(96, 96, kernel_size=(9, 9), stride=(1, 1), padding=(4, 4), groups=96)
            (wm): Conv2d(14, 384, kernel_size=(1, 1), stride=(1, 1))
            (attn): Identity()
            (update_ltm): Conv2d(384, 14, kernel_size=(1, 1), stride=(1, 1))
            (aggregation_update_ltm): Identity()
            (norm_attn): Identity()
            (norm_ltm): Identity()
            (proj_drop): Dropout(p=0.0, inplace=False)
          )
        )
        (7): VCNUsBlock(
          dim=384, memory_dim=14, mlp_ratio=4.0, norm_name=BN
          (drop_path): DropPath(Droprate=0.07647059112787247)
          (norm1): BatchNorm2d(384, eps=1e-05, momentum=0.1, affine=True, track_running_stats=True)
          (vcnu): VisionCognitiveNeuralUnit(
            ab_aggregation_attn=add, ab_aggregation_ltm=add,ab_norm_attn_=False, ab_norm_ltm_=False,ab_norm_attn_name=BN, ab_norm_ltm_name=BN,
            (activation): GELU()
            (linear_map): Conv2d(384, 384, kernel_size=(1, 1), stride=(1, 1))
            (multiscale_conv_1): Conv2d(96, 96, kernel_size=(3, 3), stride=(1, 1), padding=(1, 1), groups=96)
            (multiscale_conv_2): Conv2d(96, 96, kernel_size=(5, 5), stride=(1, 1), padding=(2, 2), groups=96)
            (multiscale_conv_3): Conv2d(96, 96, kernel_size=(7, 7), stride=(1, 1), padding=(3, 3), groups=96)
            (multiscale_conv_4): Conv2d(96, 96, kernel_size=(9, 9), stride=(1, 1), padding=(4, 4), groups=96)
            (wm): Conv2d(14, 384, kernel_size=(1, 1), stride=(1, 1))
            (attn): Identity()
            (update_ltm): Conv2d(384, 14, kernel_size=(1, 1), stride=(1, 1))
            (aggregation_update_ltm): Identity()
            (norm_attn): Identity()
            (norm_ltm): Identity()
            (proj_drop): Dropout(p=0.0, inplace=False)
          )
        )
        (8): VCNUsBlock(
          dim=384, memory_dim=14, mlp_ratio=4.0, norm_name=BN
          (drop_path): DropPath(Droprate=0.08235294371843338)
          (norm1): BatchNorm2d(384, eps=1e-05, momentum=0.1, affine=True, track_running_stats=True)
          (vcnu): VisionCognitiveNeuralUnit(
            ab_aggregation_attn=add, ab_aggregation_ltm=add,ab_norm_attn_=False, ab_norm_ltm_=False,ab_norm_attn_name=BN, ab_norm_ltm_name=BN,
            (activation): GELU()
            (linear_map): Conv2d(384, 384, kernel_size=(1, 1), stride=(1, 1))
            (multiscale_conv_1): Conv2d(96, 96, kernel_size=(3, 3), stride=(1, 1), padding=(1, 1), groups=96)
            (multiscale_conv_2): Conv2d(96, 96, kernel_size=(5, 5), stride=(1, 1), padding=(2, 2), groups=96)
            (multiscale_conv_3): Conv2d(96, 96, kernel_size=(7, 7), stride=(1, 1), padding=(3, 3), groups=96)
            (multiscale_conv_4): Conv2d(96, 96, kernel_size=(9, 9), stride=(1, 1), padding=(4, 4), groups=96)
            (wm): Conv2d(14, 384, kernel_size=(1, 1), stride=(1, 1))
            (attn): Identity()
            (update_ltm): Conv2d(384, 14, kernel_size=(1, 1), stride=(1, 1))
            (aggregation_update_ltm): Identity()
            (norm_attn): Identity()
            (norm_ltm): Identity()
            (proj_drop): Dropout(p=0.0, inplace=False)
          )
        )
      )
      (downsample): OverlapPatchEmbed(
        memory origin dim=14memory input dim=14
        (proj): Conv2d(384, 768, kernel_size=(2, 2), stride=(2, 2), bias=False)
        (norm): BatchNorm2d(768, eps=1e-05, momentum=0.1, affine=True, track_running_stats=True)
        (down_sampling): AvgPool2d(kernel_size=2, stride=2, padding=0)
        (memory_norm): Identity()
      )
    )
    (3): BasicLayer(
      dim=768, memory_dim=14, depth=3
      (blocks): ModuleList(
        (0): VCNUsBlock(
          dim=768, memory_dim=14, mlp_ratio=4.0, norm_name=BN
          (drop_path): DropPath(Droprate=0.0882352963089943)
          (norm1): BatchNorm2d(768, eps=1e-05, momentum=0.1, affine=True, track_running_stats=True)
          (vcnu): VisionCognitiveNeuralUnit(
            ab_aggregation_attn=add, ab_aggregation_ltm=add,ab_norm_attn_=False, ab_norm_ltm_=False,ab_norm_attn_name=BN, ab_norm_ltm_name=BN,
            (activation): GELU()
            (linear_map): Conv2d(768, 768, kernel_size=(1, 1), stride=(1, 1))
            (multiscale_conv_1): Conv2d(192, 192, kernel_size=(3, 3), stride=(1, 1), padding=(1, 1), groups=192)
            (multiscale_conv_2): Conv2d(192, 192, kernel_size=(5, 5), stride=(1, 1), padding=(2, 2), groups=192)
            (multiscale_conv_3): Conv2d(192, 192, kernel_size=(7, 7), stride=(1, 1), padding=(3, 3), groups=192)
            (multiscale_conv_4): Conv2d(192, 192, kernel_size=(9, 9), stride=(1, 1), padding=(4, 4), groups=192)
            (wm): Conv2d(14, 768, kernel_size=(1, 1), stride=(1, 1))
            (attn): Identity()
            (update_ltm): Conv2d(768, 14, kernel_size=(1, 1), stride=(1, 1))
            (aggregation_update_ltm): Identity()
            (norm_attn): Identity()
            (norm_ltm): Identity()
            (proj_drop): Dropout(p=0.0, inplace=False)
          )
        )
        (1): VCNUsBlock(
          dim=768, memory_dim=14, mlp_ratio=4.0, norm_name=BN
          (drop_path): DropPath(Droprate=0.0941176488995552)
          (norm1): BatchNorm2d(768, eps=1e-05, momentum=0.1, affine=True, track_running_stats=True)
          (vcnu): VisionCognitiveNeuralUnit(
            ab_aggregation_attn=add, ab_aggregation_ltm=add,ab_norm_attn_=False, ab_norm_ltm_=False,ab_norm_attn_name=BN, ab_norm_ltm_name=BN,
            (activation): GELU()
            (linear_map): Conv2d(768, 768, kernel_size=(1, 1), stride=(1, 1))
            (multiscale_conv_1): Conv2d(192, 192, kernel_size=(3, 3), stride=(1, 1), padding=(1, 1), groups=192)
            (multiscale_conv_2): Conv2d(192, 192, kernel_size=(5, 5), stride=(1, 1), padding=(2, 2), groups=192)
            (multiscale_conv_3): Conv2d(192, 192, kernel_size=(7, 7), stride=(1, 1), padding=(3, 3), groups=192)
            (multiscale_conv_4): Conv2d(192, 192, kernel_size=(9, 9), stride=(1, 1), padding=(4, 4), groups=192)
            (wm): Conv2d(14, 768, kernel_size=(1, 1), stride=(1, 1))
            (attn): Identity()
            (update_ltm): Conv2d(768, 14, kernel_size=(1, 1), stride=(1, 1))
            (aggregation_update_ltm): Identity()
            (norm_attn): Identity()
            (norm_ltm): Identity()
            (proj_drop): Dropout(p=0.0, inplace=False)
          )
        )
        (2): VCNUsBlock(
          dim=768, memory_dim=14, mlp_ratio=4.0, norm_name=BN
          (drop_path): DropPath(Droprate=0.10000000149011612)
          (norm1): BatchNorm2d(768, eps=1e-05, momentum=0.1, affine=True, track_running_stats=True)
          (vcnu): VisionCognitiveNeuralUnit(
            ab_aggregation_attn=add, ab_aggregation_ltm=add,ab_norm_attn_=False, ab_norm_ltm_=False,ab_norm_attn_name=BN, ab_norm_ltm_name=BN,
            (activation): GELU()
            (linear_map): Conv2d(768, 768, kernel_size=(1, 1), stride=(1, 1))
            (multiscale_conv_1): Conv2d(192, 192, kernel_size=(3, 3), stride=(1, 1), padding=(1, 1), groups=192)
            (multiscale_conv_2): Conv2d(192, 192, kernel_size=(5, 5), stride=(1, 1), padding=(2, 2), groups=192)
            (multiscale_conv_3): Conv2d(192, 192, kernel_size=(7, 7), stride=(1, 1), padding=(3, 3), groups=192)
            (multiscale_conv_4): Conv2d(192, 192, kernel_size=(9, 9), stride=(1, 1), padding=(4, 4), groups=192)
            (wm): Conv2d(14, 768, kernel_size=(1, 1), stride=(1, 1))
            (attn): Identity()
            (update_ltm): Conv2d(768, 14, kernel_size=(1, 1), stride=(1, 1))
            (aggregation_update_ltm): Identity()
            (norm_attn): Identity()
            (norm_ltm): Identity()
            (proj_drop): Dropout(p=0.0, inplace=False)
          )
        )
      )
    )
  )
  (normhead): BatchNorm2d(768, eps=1e-05, momentum=0.1, affine=True, track_running_stats=True)
  (avgpool): AdaptiveAvgPool1d(output_size=1)
  (head): Linear(in_features=768, out_features=1000, bias=True)
)
[32m[2024-06-03 10:40:28 VCNUs_ab_tiny_224_ab1_perception3579][0m[33m(main.py 113)[0m: INFO number of params: 6098212
All checkpoints founded in pretrain/vcnu_ab/VCNUs_ab_tiny_224_ab1_perception3579/vcnu_tiny_ab1_4: []
All checkpoints founded in pretrain/vcnu_ab/VCNUs_ab_tiny_224_ab1_perception3579/vcnu_tiny_ab1_4: []All checkpoints founded in pretrain/vcnu_ab/VCNUs_ab_tiny_224_ab1_perception3579/vcnu_tiny_ab1_4: []
…
