…
iffusion_ft_conv_b_step_stage1", "eval": false, "throughput": false, "local_rank": 0, "fused_window_process": false, "fused_layernorm": false, "optim": null}
[2024-07-26 09:41:28 convnext_diffusion_finetune_base_224_22kto1k_finetune_step_stage_process1] (main.py 108): INFO Creating model:convnext_diffusion_finetune/convnext_diffusion_finetune_base_224_22kto1k_finetune_step_stage_process1
[2024-07-26 09:41:30 convnext_diffusion_finetune_base_224_22kto1k_finetune_step_stage_process1] (main.py 110): INFO ConvNeXt_Diffusion_Finetune(
  (downsample_layers): ModuleList(
    (0): Sequential(
      (0): Conv2d(3, 128, kernel_size=(4, 4), stride=(4, 4))
      (1): LayerNorm()
    )
    (1): Sequential(
      (0): LayerNorm()
      (1): Conv2d(128, 256, kernel_size=(2, 2), stride=(2, 2))
    )
    (2): Sequential(
      (0): LayerNorm()
      (1): Conv2d(256, 512, kernel_size=(2, 2), stride=(2, 2))
    )
    (3): Sequential(
      (0): LayerNorm()
      (1): Conv2d(512, 1024, kernel_size=(2, 2), stride=(2, 2))
    )
  )
  (stages): ModuleList(
    (0): Sequential(
      (0): Block(
        (dwconv): Conv2d(128, 128, kernel_size=(7, 7), stride=(1, 1), padding=(3, 3), groups=128)
        (norm): LayerNorm()
        (pwconv1): Linear(in_features=128, out_features=512, bias=True)
        (act): GELU()
        (pwconv2): Linear(in_features=512, out_features=128, bias=True)
        (drop_path): Identity()
      )
      (1): Block(
        (dwconv): Conv2d(128, 128, kernel_size=(7, 7), stride=(1, 1), padding=(3, 3), groups=128)
        (norm): LayerNorm()
        (pwconv1): Linear(in_features=128, out_features=512, bias=True)
        (act): GELU()
        (pwconv2): Linear(in_features=512, out_features=128, bias=True)
        (drop_path): DropPath()
      )
      (2): Block(
        (dwconv): Conv2d(128, 128, kernel_size=(7, 7), stride=(1, 1), padding=(3, 3), groups=128)
        (norm): LayerNorm()
        (pwconv1): Linear(in_features=128, out_features=512, bias=True)
        (act): GELU()
        (pwconv2): Linear(in_features=512, out_features=128, bias=True)
        (drop_path): DropPath()
      )
    )
    (1): Sequential(
      (0): Block(
        (dwconv): Conv2d(256, 256, kernel_size=(7, 7), stride=(1, 1), padding=(3, 3), groups=256)
        (norm): LayerNorm()
        (pwconv1): Linear(in_features=256, out_features=1024, bias=True)
        (act): GELU()
        (pwconv2): Linear(in_features=1024, out_features=256, bias=True)
        (drop_path): DropPath()
      )
      (1): Block(
        (dwconv): Conv2d(256, 256, kernel_size=(7, 7), stride=(1, 1), padding=(3, 3), groups=256)
        (norm): LayerNorm()
        (pwconv1): Linear(in_features=256, out_features=1024, bias=True)
        (act): GELU()
        (pwconv2): Linear(in_features=1024, out_features=256, bias=True)
        (drop_path): DropPath()
      )
      (2): Block(
        (dwconv): Conv2d(256, 256, kernel_size=(7, 7), stride=(1, 1), padding=(3, 3), groups=256)
        (norm): LayerNorm()
        (pwconv1): Linear(in_features=256, out_features=1024, bias=True)
        (act): GELU()
        (pwconv2): Linear(in_features=1024, out_features=256, bias=True)
        (drop_path): DropPath()
      )
    )
    (2): Sequential(
      (0): Block(
        (dwconv): Conv2d(512, 512, kernel_size=(7, 7), stride=(1, 1), padding=(3, 3), groups=512)
        (norm): LayerNorm()
        (pwconv1): Linear(in_features=512, out_features=2048, bias=True)
        (act): GELU()
        (pwconv2): Linear(in_features=2048, out_features=512, bias=True)
        (drop_path): DropPath()
      )
      (1): Block(
        (dwconv): Conv2d(512, 512, kernel_size=(7, 7), stride=(1, 1), padding=(3, 3), groups=512)
        (norm): LayerNorm()
        (pwconv1): Linear(in_features=512, out_features=2048, bias=True)
        (act): GELU()
        (pwconv2): Linear(in_features=2048, out_features=512, bias=True)
        (drop_path): DropPath()
      )
      (2): Block(
        (dwconv): Conv2d(512, 512, kernel_size=(7, 7), stride=(1, 1), padding=(3, 3), groups=512)
        (norm): LayerNorm()
        (pwconv1): Linear(in_features=512, out_features=2048, bias=True)
        (act): GELU()
        (pwconv2): Linear(in_features=2048, out_features=512, bias=True)
        (drop_path): DropPath()
      )
      (3): Block(
        (dwconv): Conv2d(512, 512, kernel_size=(7, 7), stride=(1, 1), padding=(3, 3), groups=512)
        (norm): LayerNorm()
        (pwconv1): Linear(in_features=512, out_features=2048, bias=True)
        (act): GELU()
        (pwconv2): Linear(in_features=2048, out_features=512, bias=True)
        (drop_path): DropPath()
      )
      (4): Block(
        (dwconv): Conv2d(512, 512, kernel_size=(7, 7), stride=(1, 1), padding=(3, 3), groups=512)
        (norm): LayerNorm()
        (pwconv1): Linear(in_features=512, out_features=2048, bias=True)
        (act): GELU()
        (pwconv2): Linear(in_features=2048, out_features=512, bias=True)
        (drop_path): DropPath()
      )
      (5): Block(
        (dwconv): Conv2d(512, 512, kernel_size=(7, 7), stride=(1, 1), padding=(3, 3), groups=512)
        (norm): LayerNorm()
        (pwconv1): Linear(in_features=512, out_features=2048, bias=True)
        (act): GELU()
        (pwconv2): Linear(in_features=2048, out_features=512, bias=True)
        (drop_path): DropPath()
      )
      (6): Block(
        (dwconv): Conv2d(512, 512, kernel_size=(7, 7), stride=(1, 1), padding=(3, 3), groups=512)
        (norm): LayerNorm()
        (pwconv1): Linear(in_features=512, out_features=2048, bias=True)
        (act): GELU()
        (pwconv2): Linear(in_features=2048, out_features=512, bias=True)
        (drop_path): DropPath()
      )
      (7): Block(
        (dwconv): Conv2d(512, 512, kernel_size=(7, 7), stride=(1, 1), padding=(3, 3), groups=512)
        (norm): LayerNorm()
        (pwconv1): Linear(in_features=512, out_features=2048, bias=True)
        (act): GELU()
        (pwconv2): Linear(in_features=2048, out_features=512, bias=True)
        (drop_path): DropPath()
      )
      (8): Block(
        (dwconv): Conv2d(512, 512, kernel_size=(7, 7), stride=(1, 1), padding=(3, 3), groups=512)
        (norm): LayerNorm()
        (pwconv1): Linear(in_features=512, out_features=2048, bias=True)
        (act): GELU()
        (pwconv2): Linear(in_features=2048, out_features=512, bias=True)
        (drop_path): DropPath()
      )
      (9): Block(
        (dwconv): Conv2d(512, 512, kernel_size=(7, 7), stride=(1, 1), padding=(3, 3), groups=512)
        (norm): LayerNorm()
        (pwconv1): Linear(in_features=512, out_features=2048, bias=True)
        (act): GELU()
        (pwconv2): Linear(in_features=2048, out_features=512, bias=True)
        (drop_path): DropPath()
      )
      (10): Block(
        (dwconv): Conv2d(512, 512, kernel_size=(7, 7), stride=(1, 1), padding=(3, 3), groups=512)
        (norm): LayerNorm()
        (pwconv1): Linear(in_features=512, out_features=2048, bias=True)
        (act): GELU()
        (pwconv2): Linear(in_features=2048, out_features=512, bias=True)
        (drop_path): DropPath()
      )
      (11): Block(
        (dwconv): Conv2d(512, 512, kernel_size=(7, 7), stride=(1, 1), padding=(3, 3), groups=512)
        (norm): LayerNorm()
        (pwconv1): Linear(in_features=512, out_features=2048, bias=True)
        (act): GELU()
        (pwconv2): Linear(in_features=2048, out_features=512, bias=True)
        (drop_path): DropPath()
      )
      (12): Block(
        (dwconv): Conv2d(512, 512, kernel_size=(7, 7), stride=(1, 1), padding=(3, 3), groups=512)
        (norm): LayerNorm()
        (pwconv1): Linear(in_features=512, out_features=2048, bias=True)
        (act): GELU()
        (pwconv2): Linear(in_features=2048, out_features=512, bias=True)
        (drop_path): DropPath()
      )
      (13): Block(
        (dwconv): Conv2d(512, 512, kernel_size=(7, 7), stride=(1, 1), padding=(3, 3), groups=512)
        (norm): LayerNorm()
        (pwconv1): Linear(in_features=512, out_features=2048, bias=True)
        (act): GELU()
        (pwconv2): Linear(in_features=2048, out_features=512, bias=True)
        (drop_path): DropPath()
      )
      (14): Block(
        (dwconv): Conv2d(512, 512, kernel_size=(7, 7), stride=(1, 1), padding=(3, 3), groups=512)
        (norm): LayerNorm()
        (pwconv1): Linear(in_features=512, out_features=2048, bias=True)
        (act): GELU()
        (pwconv2): Linear(in_features=2048, out_features=512, bias=True)
        (drop_path): DropPath()
      )
      (15): Block(
        (dwconv): Conv2d(512, 512, kernel_size=(7, 7), stride=(1, 1), padding=(3, 3), groups=512)
        (norm): LayerNorm()
        (pwconv1): Linear(in_features=512, out_features=2048, bias=True)
        (act): GELU()
        (pwconv2): Linear(in_features=2048, out_features=512, bias=True)
        (drop_path): DropPath()
      )
      (16): Block(
        (dwconv): Conv2d(512, 512, kernel_size=(7, 7), stride=(1, 1), padding=(3, 3), groups=512)
        (norm): LayerNorm()
        (pwconv1): Linear(in_features=512, out_features=2048, bias=True)
        (act): GELU()
        (pwconv2): Linear(in_features=2048, out_features=512, bias=True)
        (drop_path): DropPath()
      )
      (17): Block(
        (dwconv): Conv2d(512, 512, kernel_size=(7, 7), stride=(1, 1), padding=(3, 3), groups=512)
        (norm): LayerNorm()
        (pwconv1): Linear(in_features=512, out_features=2048, bias=True)
        (act): GELU()
        (pwconv2): Linear(in_features=2048, out_features=512, bias=True)
        (drop_path): DropPath()
      )
      (18): Block(
        (dwconv): Conv2d(512, 512, kernel_size=(7, 7), stride=(1, 1), padding=(3, 3), groups=512)
        (norm): LayerNorm()
        (pwconv1): Linear(in_features=512, out_features=2048, bias=True)
        (act): GELU()
        (pwconv2): Linear(in_features=2048, out_features=512, bias=True)
        (drop_path): DropPath()
      )
      (19): Block(
        (dwconv): Conv2d(512, 512, kernel_size=(7, 7), stride=(1, 1), padding=(3, 3), groups=512)
        (norm): LayerNorm()
        (pwconv1): Linear(in_features=512, out_features=2048, bias=True)
        (act): GELU()
        (pwconv2): Linear(in_features=2048, out_features=512, bias=True)
        (drop_path): DropPath()
      )
      (20): Block(
        (dwconv): Conv2d(512, 512, kernel_size=(7, 7), stride=(1, 1), padding=(3, 3), groups=512)
        (norm): LayerNorm()
        (pwconv1): Linear(in_features=512, out_features=2048, bias=True)
        (act): GELU()
        (pwconv2): Linear(in_features=2048, out_features=512, bias=True)
        (drop_path): DropPath()
      )
      (21): Block(
        (dwconv): Conv2d(512, 512, kernel_size=(7, 7), stride=(1, 1), padding=(3, 3), groups=512)
        (norm): LayerNorm()
        (pwconv1): Linear(in_features=512, out_features=2048, bias=True)
        (act): GELU()
        (pwconv2): Linear(in_features=2048, out_features=512, bias=True)
        (drop_path): DropPath()
      )
      (22): Block(
        (dwconv): Conv2d(512, 512, kernel_size=(7, 7), stride=(1, 1), padding=(3, 3), groups=512)
        (norm): LayerNorm()
        (pwconv1): Linear(in_features=512, out_features=2048, bias=True)
        (act): GELU()
        (pwconv2): Linear(in_features=2048, out_features=512, bias=True)
        (drop_path): DropPath()
      )
      (23): Block(
        (dwconv): Conv2d(512, 512, kernel_size=(7, 7), stride=(1, 1), padding=(3, 3), groups=512)
        (norm): LayerNorm()
        (pwconv1): Linear(in_features=512, out_features=2048, bias=True)
        (act): GELU()
        (pwconv2): Linear(in_features=2048, out_features=512, bias=True)
        (drop_path): DropPath()
      )
      (24): Block(
        (dwconv): Conv2d(512, 512, kernel_size=(7, 7), stride=(1, 1), padding=(3, 3), groups=512)
        (norm): LayerNorm()
        (pwconv1): Linear(in_features=512, out_features=2048, bias=True)
        (act): GELU()
        (pwconv2): Linear(in_features=2048, out_features=512, bias=True)
        (drop_path): DropPath()
      )
      (25): Block(
        (dwconv): Conv2d(512, 512, kernel_size=(7, 7), stride=(1, 1), padding=(3, 3), groups=512)
        (norm): LayerNorm()
        (pwconv1): Linear(in_features=512, out_features=2048, bias=True)
        (act): GELU()
        (pwconv2): Linear(in_features=2048, out_features=512, bias=True)
        (drop_path): DropPath()
      )
      (26): Block(
        (dwconv): Conv2d(512, 512, kernel_size=(7, 7), stride=(1, 1), padding=(3, 3), groups=512)
        (norm): LayerNorm()
        (pwconv1): Linear(in_features=512, out_features=2048, bias=True)
        (act): GELU()
        (pwconv2): Linear(in_features=2048, out_features=512, bias=True)
        (drop_path): DropPath()
      )
    )
    (3): Sequential(
      (0): Block(
        (dwconv): Conv2d(1024, 1024, kernel_size=(7, 7), stride=(1, 1), padding=(3, 3), groups=1024)
        (norm): LayerNorm()
        (pwconv1): Linear(in_features=1024, out_features=4096, bias=True)
        (act): GELU()
        (pwconv2): Linear(in_features=4096, out_features=1024, bias=True)
        (drop_path): DropPath()
      )
      (1): Block(
        (dwconv): Conv2d(1024, 1024, kernel_size=(7, 7), stride=(1, 1), padding=(3, 3), groups=1024)
        (norm): LayerNorm()
        (pwconv1): Linear(in_features=1024, out_features=4096, bias=True)
        (act): GELU()
        (pwconv2): Linear(in_features=4096, out_features=1024, bias=True)
        (drop_path): DropPath()
      )
      (2): Block(
        (dwconv): Conv2d(1024, 1024, kernel_size=(7, 7), stride=(1, 1), padding=(3, 3), groups=1024)
        (norm): LayerNorm()
        (pwconv1): Linear(in_features=1024, out_features=4096, bias=True)
        (act): GELU()
        (pwconv2): Linear(in_features=4096, out_features=1024, bias=True)
        (drop_path): DropPath()
      )
    )
  )
  (norm): LayerNorm((1024,), eps=1e-06, elementwise_affine=True)
  (head): Linear(in_features=1024, out_features=1000, bias=True)
)
[2024-07-26 09:41:30 convnext_diffusion_finetune_base_224_22kto1k_finetune_step_stage_process1] (main.py 113): INFO number of params: 3176296
[2024-07-26 09:41:30 convnext_diffusion_finetune_base_224_22kto1k_finetune_step_stage_process1] (main.py 150): INFO no checkpoint found in pretrain/diffusion-ft/convnext_diffusion_finetune_base_224_22kto1k_finetune_step_stage_process1/diffusion_ft_conv_b_step_stage1, ignoring auto resume
…
