…
amp": false, "amp_opt_level": null, "output": "/mnt/data/pretrain_weights/swin-mam/", "tag": "swin_mam_v2_large_p4_w7_224_22kto1k", "eval": false, "throughput": false, "local_rank": 7, "fused_window_process": false, "fused_layernorm": false, "optim": null}
[2024-05-28 09:27:39 swin_mam_v2_large_patch4_window7_224_22kto1k_finetune_8x] (main.py 93): INFO Creating model:swin_mam_v2/swin_mam_v2_large_patch4_window7_224_22kto1k_finetune_8x
[2024-05-28 09:27:43 swin_mam_v2_large_patch4_window7_224_22kto1k_finetune_8x] (main.py 95): INFO MemorySwinTransformerV2(
  (patch_embed): PatchEmbed(
    (proj): Conv2d(3, 192, kernel_size=(4, 4), stride=(4, 4))
    (norm): LayerNorm((192,), eps=1e-05, elementwise_affine=True)
  )
  (pos_drop): Dropout(p=0.0, inplace=False)
  (layers): ModuleList(
    (0): BasicLayer(
      dim=192, input_resolution=(56, 56), depth=2
      (blocks): ModuleList(
        (0): MemorySwinTransformerBlock(
          dim=192, input_resolution=(56, 56), num_heads=6, window_size=7, shift_size=0, mlp_ratio=4.0
          (norm1): LayerNorm((192,), eps=1e-05, elementwise_affine=True)
          (attn): MemoryWindowAttention(
            dim=192, window_size=(7, 7), num_heads=6
            (qkv): Linear(in_features=192, out_features=576, bias=True)
            (attn_drop): Dropout(p=0.0, inplace=False)
            (proj): Linear(in_features=192, out_features=192, bias=True)
            (proj_drop): Dropout(p=0.0, inplace=False)
            (proj_feature_to_latent_space): Linear(in_features=192, out_features=24, bias=True)
            (proj_latent_space_to_feature): Identity()
            (ltm_norm): Identity()
            (act): GELU()
            (softmax): Softmax(dim=-1)
          )
          (drop_path): Identity()
          (norm2): LayerNorm((192,), eps=1e-05, elementwise_affine=True)
          (mlp): Mlp(
            (fc1): Linear(in_features=192, out_features=768, bias=True)
            (act): GELU()
            (fc2): Linear(in_features=768, out_features=192, bias=True)
            (drop): Dropout(p=0.0, inplace=False)
          )
        )
        (1): MemorySwinTransformerBlock(
          dim=192, input_resolution=(56, 56), num_heads=6, window_size=7, shift_size=3, mlp_ratio=4.0
          (norm1): LayerNorm((192,), eps=1e-05, elementwise_affine=True)
          (attn): MemoryWindowAttention(
            dim=192, window_size=(7, 7), num_heads=6
            (qkv): Linear(in_features=192, out_features=576, bias=True)
            (attn_drop): Dropout(p=0.0, inplace=False)
            (proj): Linear(in_features=192, out_features=192, bias=True)
            (proj_drop): Dropout(p=0.0, inplace=False)
            (proj_feature_to_latent_space): Identity()
            (proj_latent_space_to_feature): Linear(in_features=24, out_features=192, bias=True)
            (ltm_norm): Identity()
            (act): GELU()
            (softmax): Softmax(dim=-1)
          )
          (drop_path): DropPath()
          (norm2): LayerNorm((192,), eps=1e-05, elementwise_affine=True)
          (mlp): Mlp(
            (fc1): Linear(in_features=192, out_features=768, bias=True)
            (act): GELU()
            (fc2): Linear(in_features=768, out_features=192, bias=True)
            (drop): Dropout(p=0.0, inplace=False)
          )
        )
      )
      (downsample): PatchMerging(
        input_resolution=(56, 56), dim=192
        (reduction): Linear(in_features=768, out_features=384, bias=False)
        (norm): LayerNorm((768,), eps=1e-05, elementwise_affine=True)
      )
    )
    (1): BasicLayer(
      dim=384, input_resolution=(28, 28), depth=2
      (blocks): ModuleList(
        (0): MemorySwinTransformerBlock(
          dim=384, input_resolution=(28, 28), num_heads=12, window_size=7, shift_size=0, mlp_ratio=4.0
          (norm1): LayerNorm((384,), eps=1e-05, elementwise_affine=True)
          (attn): MemoryWindowAttention(
            dim=384, window_size=(7, 7), num_heads=12
            (qkv): Linear(in_features=384, out_features=1152, bias=True)
            (attn_drop): Dropout(p=0.0, inplace=False)
            (proj): Linear(in_features=384, out_features=384, bias=True)
            (proj_drop): Dropout(p=0.0, inplace=False)
            (proj_feature_to_latent_space): Linear(in_features=384, out_features=48, bias=True)
            (proj_latent_space_to_feature): Identity()
            (ltm_norm): Identity()
            (act): GELU()
            (softmax): Softmax(dim=-1)
          )
          (drop_path): DropPath()
          (norm2): LayerNorm((384,), eps=1e-05, elementwise_affine=True)
          (mlp): Mlp(
            (fc1): Linear(in_features=384, out_features=1536, bias=True)
            (act): GELU()
            (fc2): Linear(in_features=1536, out_features=384, bias=True)
            (drop): Dropout(p=0.0, inplace=False)
          )
        )
        (1): MemorySwinTransformerBlock(
          dim=384, input_resolution=(28, 28), num_heads=12, window_size=7, shift_size=3, mlp_ratio=4.0
          (norm1): LayerNorm((384,), eps=1e-05, elementwise_affine=True)
          (attn): MemoryWindowAttention(
            dim=384, window_size=(7, 7), num_heads=12
            (qkv): Linear(in_features=384, out_features=1152, bias=True)
            (attn_drop): Dropout(p=0.0, inplace=False)
            (proj): Linear(in_features=384, out_features=384, bias=True)
            (proj_drop): Dropout(p=0.0, inplace=False)
            (proj_feature_to_latent_space): Identity()
            (proj_latent_space_to_feature): Linear(in_features=48, out_features=384, bias=True)
            (ltm_norm): Identity()
            (act): GELU()
            (softmax): Softmax(dim=-1)
          )
          (drop_path): DropPath()
          (norm2): LayerNorm((384,), eps=1e-05, elementwise_affine=True)
          (mlp): Mlp(
            (fc1): Linear(in_features=384, out_features=1536, bias=True)
            (act): GELU()
            (fc2): Linear(in_features=1536, out_features=384, bias=True)
            (drop): Dropout(p=0.0, inplace=False)
          )
        )
      )
      (downsample): PatchMerging(
        input_resolution=(28, 28), dim=384
        (reduction): Linear(in_features=1536, out_features=768, bias=False)
        (norm): LayerNorm((1536,), eps=1e-05, elementwise_affine=True)
      )
    )
    (2): BasicLayer(
      dim=768, input_resolution=(14, 14), depth=18
      (blocks): ModuleList(
        (0): MemorySwinTransformerBlock(
          dim=768, input_resolution=(14, 14), num_heads=24, window_size=7, shift_size=0, mlp_ratio=4.0
          (norm1): LayerNorm((768,), eps=1e-05, elementwise_affine=True)
          (attn): MemoryWindowAttention(
            dim=768, window_size=(7, 7), num_heads=24
            (qkv): Linear(in_features=768, out_features=2304, bias=True)
            (attn_drop): Dropout(p=0.0, inplace=False)
            (proj): Linear(in_features=768, out_features=768, bias=True)
            (proj_drop): Dropout(p=0.0, inplace=False)
            (proj_feature_to_latent_space): Linear(in_features=768, out_features=96, bias=True)
            (proj_latent_space_to_feature): Identity()
            (ltm_norm): Identity()
            (act): GELU()
            (softmax): Softmax(dim=-1)
          )
          (drop_path): DropPath()
          (norm2): LayerNorm((768,), eps=1e-05, elementwise_affine=True)
          (mlp): Mlp(
            (fc1): Linear(in_features=768, out_features=3072, bias=True)
            (act): GELU()
            (fc2): Linear(in_features=3072, out_features=768, bias=True)
            (drop): Dropout(p=0.0, inplace=False)
          )
        )
        (1): MemorySwinTransformerBlock(
          dim=768, input_resolution=(14, 14), num_heads=24, window_size=7, shift_size=3, mlp_ratio=4.0
          (norm1): LayerNorm((768,), eps=1e-05, elementwise_affine=True)
          (attn): MemoryWindowAttention(
            dim=768, window_size=(7, 7), num_heads=24
            (qkv): Linear(in_features=768, out_features=2304, bias=True)
            (attn_drop): Dropout(p=0.0, inplace=False)
            (proj): Linear(in_features=768, out_features=768, bias=True)
            (proj_drop): Dropout(p=0.0, inplace=False)
            (proj_feature_to_latent_space): Linear(in_features=768, out_features=96, bias=True)
            (proj_latent_space_to_feature): Linear(in_features=96, out_features=768, bias=True)
            (ltm_norm): Identity()
            (act): GELU()
            (softmax): Softmax(dim=-1)
          )
          (drop_path): DropPath()
          (norm2): LayerNorm((768,), eps=1e-05, elementwise_affine=True)
          (mlp): Mlp(
            (fc1): Linear(in_features=768, out_features=3072, bias=True)
            (act): GELU()
            (fc2): Linear(in_features=3072, out_features=768, bias=True)
            (drop): Dropout(p=0.0, inplace=False)
          )
        )
        (2): MemorySwinTransformerBlock(
          dim=768, input_resolution=(14, 14), num_heads=24, window_size=7, shift_size=0, mlp_ratio=4.0
          (norm1): LayerNorm((768,), eps=1e-05, elementwise_affine=True)
          (attn): MemoryWindowAttention(
            dim=768, window_size=(7, 7), num_heads=24
            (qkv): Linear(in_features=768, out_features=2304, bias=True)
            (attn_drop): Dropout(p=0.0, inplace=False)
            (proj): Linear(in_features=768, out_features=768, bias=True)
            (proj_drop): Dropout(p=0.0, inplace=False)
            (proj_feature_to_latent_space): Linear(in_features=768, out_features=96, bias=True)
            (proj_latent_space_to_feature): Linear(in_features=96, out_features=768, bias=True)
            (ltm_norm): Identity()
            (act): GELU()
            (softmax): Softmax(dim=-1)
          )
          (drop_path): DropPath()
          (norm2): LayerNorm((768,), eps=1e-05, elementwise_affine=True)
          (mlp): Mlp(
            (fc1): Linear(in_features=768, out_features=3072, bias=True)
            (act): GELU()
            (fc2): Linear(in_features=3072, out_features=768, bias=True)
            (drop): Dropout(p=0.0, inplace=False)
          )
        )
        (3): MemorySwinTransformerBlock(
          dim=768, input_resolution=(14, 14), num_heads=24, window_size=7, shift_size=3, mlp_ratio=4.0
          (norm1): LayerNorm((768,), eps=1e-05, elementwise_affine=True)
          (attn): MemoryWindowAttention(
            dim=768, window_size=(7, 7), num_heads=24
            (qkv): Linear(in_features=768, out_features=2304, bias=True)
            (attn_drop): Dropout(p=0.0, inplace=False)
            (proj): Linear(in_features=768, out_features=768, bias=True)
            (proj_drop): Dropout(p=0.0, inplace=False)
            (proj_feature_to_latent_space): Linear(in_features=768, out_features=96, bias=True)
            (proj_latent_space_to_feature): Linear(in_features=96, out_features=768, bias=True)
            (ltm_norm): Identity()
            (act): GELU()
            (softmax): Softmax(dim=-1)
          )
          (drop_path): DropPath()
          (norm2): LayerNorm((768,), eps=1e-05, elementwise_affine=True)
          (mlp): Mlp(
            (fc1): Linear(in_features=768, out_features=3072, bias=True)
            (act): GELU()
            (fc2): Linear(in_features=3072, out_features=768, bias=True)
            (drop): Dropout(p=0.0, inplace=False)
          )
        )
        (4): MemorySwinTransformerBlock(
          dim=768, input_resolution=(14, 14), num_heads=24, window_size=7, shift_size=0, mlp_ratio=4.0
          (norm1): LayerNorm((768,), eps=1e-05, elementwise_affine=True)
          (attn): MemoryWindowAttention(
            dim=768, window_size=(7, 7), num_heads=24
            (qkv): Linear(in_features=768, out_features=2304, bias=True)
            (attn_drop): Dropout(p=0.0, inplace=False)
            (proj): Linear(in_features=768, out_features=768, bias=True)
            (proj_drop): Dropout(p=0.0, inplace=False)
            (proj_feature_to_latent_space): Linear(in_features=768, out_features=96, bias=True)
            (proj_latent_space_to_feature): Linear(in_features=96, out_features=768, bias=True)
            (ltm_norm): Identity()
            (act): GELU()
            (softmax): Softmax(dim=-1)
          )
          (drop_path): DropPath()
          (norm2): LayerNorm((768,), eps=1e-05, elementwise_affine=True)
          (mlp): Mlp(
            (fc1): Linear(in_features=768, out_features=3072, bias=True)
            (act): GELU()
            (fc2): Linear(in_features=3072, out_features=768, bias=True)
            (drop): Dropout(p=0.0, inplace=False)
          )
        )
        (5): MemorySwinTransformerBlock(
          dim=768, input_resolution=(14, 14), num_heads=24, window_size=7, shift_size=3, mlp_ratio=4.0
          (norm1): LayerNorm((768,), eps=1e-05, elementwise_affine=True)
          (attn): MemoryWindowAttention(
            dim=768, window_size=(7, 7), num_heads=24
            (qkv): Linear(in_features=768, out_features=2304, bias=True)
            (attn_drop): Dropout(p=0.0, inplace=False)
            (proj): Linear(in_features=768, out_features=768, bias=True)
            (proj_drop): Dropout(p=0.0, inplace=False)
            (proj_feature_to_latent_space): Linear(in_features=768, out_features=96, bias=True)
            (proj_latent_space_to_feature): Linear(in_features=96, out_features=768, bias=True)
            (ltm_norm): Identity()
            (act): GELU()
            (softmax): Softmax(dim=-1)
          )
          (drop_path): DropPath()
          (norm2): LayerNorm((768,), eps=1e-05, elementwise_affine=True)
          (mlp): Mlp(
            (fc1): Linear(in_features=768, out_features=3072, bias=True)
            (act): GELU()
            (fc2): Linear(in_features=3072, out_features=768, bias=True)
            (drop): Dropout(p=0.0, inplace=False)
          )
        )
        (6): MemorySwinTransformerBlock(
          dim=768, input_resolution=(14, 14), num_heads=24, window_size=7, shift_size=0, mlp_ratio=4.0
          (norm1): LayerNorm((768,), eps=1e-05, elementwise_affine=True)
          (attn): MemoryWindowAttention(
            dim=768, window_size=(7, 7), num_heads=24
            (qkv): Linear(in_features=768, out_features=2304, bias=True)
            (attn_drop): Dropout(p=0.0, inplace=False)
            (proj): Linear(in_features=768, out_features=768, bias=True)
            (proj_drop): Dropout(p=0.0, inplace=False)
            (proj_feature_to_latent_space): Linear(in_features=768, out_features=96, bias=True)
            (proj_latent_space_to_feature): Linear(in_features=96, out_features=768, bias=True)
            (ltm_norm): Identity()
            (act): GELU()
            (softmax): Softmax(dim=-1)
          )
          (drop_path): DropPath()
          (norm2): LayerNorm((768,), eps=1e-05, elementwise_affine=True)
          (mlp): Mlp(
            (fc1): Linear(in_features=768, out_features=3072, bias=True)
            (act): GELU()
            (fc2): Linear(in_features=3072, out_features=768, bias=True)
            (drop): Dropout(p=0.0, inplace=False)
          )
        )
        (7): MemorySwinTransformerBlock(
          dim=768, input_resolution=(14, 14), num_heads=24, window_size=7, shift_size=3, mlp_ratio=4.0
          (norm1): LayerNorm((768,), eps=1e-05, elementwise_affine=True)
          (attn): MemoryWindowAttention(
            dim=768, window_size=(7, 7), num_heads=24
            (qkv): Linear(in_features=768, out_features=2304, bias=True)
            (attn_drop): Dropout(p=0.0, inplace=False)
            (proj): Linear(in_features=768, out_features=768, bias=True)
            (proj_drop): Dropout(p=0.0, inplace=False)
            (proj_feature_to_latent_space): Linear(in_features=768, out_features=96, bias=True)
            (proj_latent_space_to_feature): Linear(in_features=96, out_features=768, bias=True)
            (ltm_norm): Identity()
            (act): GELU()
            (softmax): Softmax(dim=-1)
          )
          (drop_path): DropPath()
          (norm2): LayerNorm((768,), eps=1e-05, elementwise_affine=True)
          (mlp): Mlp(
            (fc1): Linear(in_features=768, out_features=3072, bias=True)
            (act): GELU()
            (fc2): Linear(in_features=3072, out_features=768, bias=True)
            (drop): Dropout(p=0.0, inplace=False)
          )
        )
        (8): MemorySwinTransformerBlock(
          dim=768, input_resolution=(14, 14), num_heads=24, window_size=7, shift_size=0, mlp_ratio=4.0
          (norm1): LayerNorm((768,), eps=1e-05, elementwise_affine=True)
          (attn): MemoryWindowAttention(
            dim=768, window_size=(7, 7), num_heads=24
            (qkv): Linear(in_features=768, out_features=2304, bias=True)
            (attn_drop): Dropout(p=0.0, inplace=False)
            (proj): Linear(in_features=768, out_features=768, bias=True)
            (proj_drop): Dropout(p=0.0, inplace=False)
            (proj_feature_to_latent_space): Linear(in_features=768, out_features=96, bias=True)
            (proj_latent_space_to_feature): Linear(in_features=96, out_features=768, bias=True)
            (ltm_norm): Identity()
            (act): GELU()
            (softmax): Softmax(dim=-1)
          )
          (drop_path): DropPath()
          (norm2): LayerNorm((768,), eps=1e-05, elementwise_affine=True)
          (mlp): Mlp(
            (fc1): Linear(in_features=768, out_features=3072, bias=True)
            (act): GELU()
            (fc2): Linear(in_features=3072, out_features=768, bias=True)
            (drop): Dropout(p=0.0, inplace=False)
          )
        )
        (9): MemorySwinTransformerBlock(
          dim=768, input_resolution=(14, 14), num_heads=24, window_size=7, shift_size=3, mlp_ratio=4.0
          (norm1): LayerNorm((768,), eps=1e-05, elementwise_affine=True)
          (attn): MemoryWindowAttention(
            dim=768, window_size=(7, 7), num_heads=24
            (qkv): Linear(in_features=768, out_features=2304, bias=True)
            (attn_drop): Dropout(p=0.0, inplace=False)
            (proj): Linear(in_features=768, out_features=768, bias=True)
            (proj_drop): Dropout(p=0.0, inplace=False)
            (proj_feature_to_latent_space): Linear(in_features=768, out_features=96, bias=True)
            (proj_latent_space_to_feature): Linear(in_features=96, out_features=768, bias=True)
            (ltm_norm): Identity()
            (act): GELU()
            (softmax): Softmax(dim=-1)
          )
          (drop_path): DropPath()
          (norm2): LayerNorm((768,), eps=1e-05, elementwise_affine=True)
          (mlp): Mlp(
            (fc1): Linear(in_features=768, out_features=3072, bias=True)
            (act): GELU()
            (fc2): Linear(in_features=3072, out_features=768, bias=True)
            (drop): Dropout(p=0.0, inplace=False)
          )
        )
        (10): MemorySwinTransformerBlock(
          dim=768, input_resolution=(14, 14), num_heads=24, window_size=7, shift_size=0, mlp_ratio=4.0
          (norm1): LayerNorm((768,), eps=1e-05, elementwise_affine=True)
          (attn): MemoryWindowAttention(
            dim=768, window_size=(7, 7), num_heads=24
            (qkv): Linear(in_features=768, out_features=2304, bias=True)
            (attn_drop): Dropout(p=0.0, inplace=False)
            (proj): Linear(in_features=768, out_features=768, bias=True)
            (proj_drop): Dropout(p=0.0, inplace=False)
            (proj_feature_to_latent_space): Linear(in_features=768, out_features=96, bias=True)
            (proj_latent_space_to_feature): Linear(in_features=96, out_features=768, bias=True)
            (ltm_norm): Identity()
            (act): GELU()
            (softmax): Softmax(dim=-1)
          )
          (drop_path): DropPath()
          (norm2): LayerNorm((768,), eps=1e-05, elementwise_affine=True)
          (mlp): Mlp(
            (fc1): Linear(in_features=768, out_features=3072, bias=True)
            (act): GELU()
            (fc2): Linear(in_features=3072, out_features=768, bias=True)
            (drop): Dropout(p=0.0, inplace=False)
          )
        )
        (11): MemorySwinTransformerBlock(
          dim=768, input_resolution=(14, 14), num_heads=24, window_size=7, shift_size=3, mlp_ratio=4.0
          (norm1): LayerNorm((768,), eps=1e-05, elementwise_affine=True)
          (attn): MemoryWindowAttention(
            dim=768, window_size=(7, 7), num_heads=24
            (qkv): Linear(in_features=768, out_features=2304, bias=True)
            (attn_drop): Dropout(p=0.0, inplace=False)
            (proj): Linear(in_features=768, out_features=768, bias=True)
            (proj_drop): Dropout(p=0.0, inplace=False)
            (proj_feature_to_latent_space): Linear(in_features=768, out_features=96, bias=True)
            (proj_latent_space_to_feature): Linear(in_features=96, out_features=768, bias=True)
            (ltm_norm): Identity()
            (act): GELU()
            (softmax): Softmax(dim=-1)
          )
          (drop_path): DropPath()
          (norm2): LayerNorm((768,), eps=1e-05, elementwise_affine=True)
          (mlp): Mlp(
            (fc1): Linear(in_features=768, out_features=3072, bias=True)
            (act): GELU()
            (fc2): Linear(in_features=3072, out_features=768, bias=True)
            (drop): Dropout(p=0.0, inplace=False)
          )
        )
        (12): MemorySwinTransformerBlock(
          dim=768, input_resolution=(14, 14), num_heads=24, window_size=7, shift_size=0, mlp_ratio=4.0
          (norm1): LayerNorm((768,), eps=1e-05, elementwise_affine=True)
          (attn): MemoryWindowAttention(
            dim=768, window_size=(7, 7), num_heads=24
            (qkv): Linear(in_features=768, out_features=2304, bias=True)
            (attn_drop): Dropout(p=0.0, inplace=False)
            (proj): Linear(in_features=768, out_features=768, bias=True)
            (proj_drop): Dropout(p=0.0, inplace=False)
            (proj_feature_to_latent_space): Linear(in_features=768, out_features=96, bias=True)
            (proj_latent_space_to_feature): Linear(in_features=96, out_features=768, bias=True)
            (ltm_norm): Identity()
            (act): GELU()
            (softmax): Softmax(dim=-1)
          )
          (drop_path): DropPath()
          (norm2): LayerNorm((768,), eps=1e-05, elementwise_affine=True)
          (mlp): Mlp(
            (fc1): Linear(in_features=768, out_features=3072, bias=True)
            (act): GELU()
            (fc2): Linear(in_features=3072, out_features=768, bias=True)
            (drop): Dropout(p=0.0, inplace=False)
          )
        )
        (13): MemorySwinTransformerBlock(
          dim=768, input_resolution=(14, 14), num_heads=24, window_size=7, shift_size=3, mlp_ratio=4.0
          (norm1): LayerNorm((768,), eps=1e-05, elementwise_affine=True)
          (attn): MemoryWindowAttention(
            dim=768, window_size=(7, 7), num_heads=24
            (qkv): Linear(in_features=768, out_features=2304, bias=True)
            (attn_drop): Dropout(p=0.0, inplace=False)
            (proj): Linear(in_features=768, out_features=768, bias=True)
            (proj_drop): Dropout(p=0.0, inplace=False)
            (proj_feature_to_latent_space): Linear(in_features=768, out_features=96, bias=True)
            (proj_latent_space_to_feature): Linear(in_features=96, out_features=768, bias=True)
            (ltm_norm): Identity()
            (act): GELU()
            (softmax): Softmax(dim=-1)
          )
          (drop_path): DropPath()
          (norm2): LayerNorm((768,), eps=1e-05, elementwise_affine=True)
          (mlp): Mlp(
            (fc1): Linear(in_features=768, out_features=3072, bias=True)
            (act): GELU()
            (fc2): Linear(in_features=3072, out_features=768, bias=True)
            (drop): Dropout(p=0.0, inplace=False)
          )
        )
        (14): MemorySwinTransformerBlock(
          dim=768, input_resolution=(14, 14), num_heads=24, window_size=7, shift_size=0, mlp_ratio=4.0
          (norm1): LayerNorm((768,), eps=1e-05, elementwise_affine=True)
          (attn): MemoryWindowAttention(
            dim=768, window_size=(7, 7), num_heads=24
            (qkv): Linear(in_features=768, out_features=2304, bias=True)
            (attn_drop): Dropout(p=0.0, inplace=False)
            (proj): Linear(in_features=768, out_features=768, bias=True)
            (proj_drop): Dropout(p=0.0, inplace=False)
            (proj_feature_to_latent_space): Linear(in_features=768, out_features=96, bias=True)
            (proj_latent_space_to_feature): Linear(in_features=96, out_features=768, bias=True)
            (ltm_norm): Identity()
            (act): GELU()
            (softmax): Softmax(dim=-1)
          )
          (drop_path): DropPath()
          (norm2): LayerNorm((768,), eps=1e-05, elementwise_affine=True)
          (mlp): Mlp(
            (fc1): Linear(in_features=768, out_features=3072, bias=True)
            (act): GELU()
            (fc2): Linear(in_features=3072, out_features=768, bias=True)
            (drop): Dropout(p=0.0, inplace=False)
          )
        )
        (15): MemorySwinTransformerBlock(
          dim=768, input_resolution=(14, 14), num_heads=24, window_size=7, shift_size=3, mlp_ratio=4.0
          (norm1): LayerNorm((768,), eps=1e-05, elementwise_affine=True)
          (attn): MemoryWindowAttention(
            dim=768, window_size=(7, 7), num_heads=24
            (qkv): Linear(in_features=768, out_features=2304, bias=True)
            (attn_drop): Dropout(p=0.0, inplace=False)
            (proj): Linear(in_features=768, out_features=768, bias=True)
            (proj_drop): Dropout(p=0.0, inplace=False)
            (proj_feature_to_latent_space): Linear(in_features=768, out_features=96, bias=True)
            (proj_latent_space_to_feature): Linear(in_features=96, out_features=768, bias=True)
            (ltm_norm): Identity()
            (act): GELU()
            (softmax): Softmax(dim=-1)
          )
          (drop_path): DropPath()
          (norm2): LayerNorm((768,), eps=1e-05, elementwise_affine=True)
          (mlp): Mlp(
            (fc1): Linear(in_features=768, out_features=3072, bias=True)
            (act): GELU()
            (fc2): Linear(in_features=3072, out_features=768, bias=True)
            (drop): Dropout(p=0.0, inplace=False)
          )
        )
        (16): MemorySwinTransformerBlock(
          dim=768, input_resolution=(14, 14), num_heads=24, window_size=7, shift_size=0, mlp_ratio=4.0
          (norm1): LayerNorm((768,), eps=1e-05, elementwise_affine=True)
          (attn): MemoryWindowAttention(
            dim=768, window_size=(7, 7), num_heads=24
            (qkv): Linear(in_features=768, out_features=2304, bias=True)
            (attn_drop): Dropout(p=0.0, inplace=False)
            (proj): Linear(in_features=768, out_features=768, bias=True)
            (proj_drop): Dropout(p=0.0, inplace=False)
            (proj_feature_to_latent_space): Linear(in_features=768, out_features=96, bias=True)
            (proj_latent_space_to_feature): Linear(in_features=96, out_features=768, bias=True)
            (ltm_norm): Identity()
            (act): GELU()
            (softmax): Softmax(dim=-1)
          )
          (drop_path): DropPath()
          (norm2): LayerNorm((768,), eps=1e-05, elementwise_affine=True)
          (mlp): Mlp(
            (fc1): Linear(in_features=768, out_features=3072, bias=True)
            (act): GELU()
            (fc2): Linear(in_features=3072, out_features=768, bias=True)
            (drop): Dropout(p=0.0, inplace=False)
          )
        )
        (17): MemorySwinTransformerBlock(
          dim=768, input_resolution=(14, 14), num_heads=24, window_size=7, shift_size=3, mlp_ratio=4.0
          (norm1): LayerNorm((768,), eps=1e-05, elementwise_affine=True)
          (attn): MemoryWindowAttention(
            dim=768, window_size=(7, 7), num_heads=24
            (qkv): Linear(in_features=768, out_features=2304, bias=True)
            (attn_drop): Dropout(p=0.0, inplace=False)
            (proj): Linear(in_features=768, out_features=768, bias=True)
            (proj_drop): Dropout(p=0.0, inplace=False)
            (proj_feature_to_latent_space): Identity()
            (proj_latent_space_to_feature): Linear(in_features=96, out_features=768, bias=True)
            (ltm_norm): Identity()
            (act): GELU()
            (softmax): Softmax(dim=-1)
          )
          (drop_path): DropPath()
          (norm2): LayerNorm((768,), eps=1e-05, elementwise_affine=True)
          (mlp): Mlp(
            (fc1): Linear(in_features=768, out_features=3072, bias=True)
            (act): GELU()
            (fc2): Linear(in_features=3072, out_features=768, bias=True)
            (drop): Dropout(p=0.0, inplace=False)
          )
        )
      )
      (downsample): PatchMerging(
        input_resolution=(14, 14), dim=768
        (reduction): Linear(in_features=3072, out_features=1536, bias=False)
        (norm): LayerNorm((3072,), eps=1e-05, elementwise_affine=True)
      )
    )
    (3): BasicLayer(
      dim=1536, input_resolution=(7, 7), depth=2
      (blocks): ModuleList(
        (0): MemorySwinTransformerBlock(
          dim=1536, input_resolution=(7, 7), num_heads=48, window_size=7, shift_size=0, mlp_ratio=4.0
          (norm1): LayerNorm((1536,), eps=1e-05, elementwise_affine=True)
          (attn): MemoryWindowAttention(
            dim=1536, window_size=(7, 7), num_heads=48
            (qkv): Linear(in_features=1536, out_features=4608, bias=True)
            (attn_drop): Dropout(p=0.0, inplace=False)
            (proj): Linear(in_features=1536, out_features=1536, bias=True)
            (proj_drop): Dropout(p=0.0, inplace=False)
            (proj_feature_to_latent_space): Linear(in_features=1536, out_features=192, bias=True)
            (proj_latent_space_to_feature): Identity()
            (ltm_norm): Identity()
            (act): GELU()
            (softmax): Softmax(dim=-1)
          )
          (drop_path): DropPath()
          (norm2): LayerNorm((1536,), eps=1e-05, elementwise_affine=True)
          (mlp): Mlp(
            (fc1): Linear(in_features=1536, out_features=6144, bias=True)
            (act): GELU()
            (fc2): Linear(in_features=6144, out_features=1536, bias=True)
            (drop): Dropout(p=0.0, inplace=False)
          )
        )
        (1): MemorySwinTransformerBlock(
          dim=1536, input_resolution=(7, 7), num_heads=48, window_size=7, shift_size=0, mlp_ratio=4.0
          (norm1): LayerNorm((1536,), eps=1e-05, elementwise_affine=True)
          (attn): MemoryWindowAttention(
            dim=1536, window_size=(7, 7), num_heads=48
            (qkv): Linear(in_features=1536, out_features=4608, bias=True)
            (attn_drop): Dropout(p=0.0, inplace=False)
            (proj): Linear(in_features=1536, out_features=1536, bias=True)
            (proj_drop): Dropout(p=0.0, inplace=False)
            (proj_feature_to_latent_space): Identity()
            (proj_latent_space_to_feature): Linear(in_features=192, out_features=1536, bias=True)
            (ltm_norm): Identity()
            (act): GELU()
            (softmax): Softmax(dim=-1)
          )
          (drop_path): DropPath()
          (norm2): LayerNorm((1536,), eps=1e-05, elementwise_affine=True)
          (mlp): Mlp(
            (fc1): Linear(in_features=1536, out_features=6144, bias=True)
            (act): GELU()
            (fc2): Linear(in_features=6144, out_features=1536, bias=True)
            (drop): Dropout(p=0.0, inplace=False)
          )
        )
      )
    )
  )
  (norm): LayerNorm((1536,), eps=1e-05, elementwise_affine=True)
  (avgpool): AdaptiveAvgPool1d(output_size=1)
  (head): Linear(in_features=1536, out_features=1000, bias=True)
)
[2024-05-28 09:27:43 swin_mam_v2_large_patch4_window7_224_22kto1k_finetune_8x] (main.py 98): INFO number of params: 199692196
[2024-05-28 09:27:43 swin_mam_v2_large_patch4_window7_224_22kto1k_finetune_8x] (main.py 101): INFO number of GFLOPs: 34.487049216
[2024-05-28 09:27:45 swin_mam_v2_large_patch4_window7_224_22kto1k_finetune_8x] (main.py 136): INFO no checkpoint found in /mnt/data/pretrain_weights/swin-mam/swin_mam_v2_large_patch4_window7_224_22kto1k_finetune_8x/swin_mam_v2_large_p4_w7_224_22kto1k, ignoring auto resume
…
