…
inetune_nonorm", "eval": false, "throughput": false, "local_rank": 0, "fused_window_process": false, "fused_layernorm": false, "optim": null}
[2024-07-01 20:21:50 vcnu_convnext_base_224_22kto1kto1k_finetune_nonorm] (main.py 108): INFO Creating model:vcnu_convnext/vcnu_convnext_base_224_22kto1kto1k_finetune_nonorm
[2024-07-01 20:21:52 vcnu_convnext_base_224_22kto1kto1k_finetune_nonorm] (main.py 110): INFO VCNU_ConvNeXt(
  (uma): UMA(filter_strategy1=23, filter_strategy2=7,ablation_strategy=UMA, use_sequencefunc=linear,fftscale=4,)
  (downsample_layers): ModuleList(
    (0): Sequential(
      (0): Conv2d(3, 128, kernel_size=(4, 4), stride=(4, 4))
      (1): LayerNorm()
    )
    (1): Sequential(
      (0): LayerNorm()
      (1): Conv2d(128, 256, kernel_size=(2, 2), stride=(2, 2))
    )
    (2): Sequential(
      (0): LayerNorm()
      (1): Conv2d(256, 512, kernel_size=(2, 2), stride=(2, 2))
    )
    (3): Sequential(
      (0): LayerNorm()
      (1): Conv2d(512, 1024, kernel_size=(2, 2), stride=(2, 2))
    )
  )
  (stages): ModuleList(
    (0): Sequential(
      (0): Block(
        (dwconv): Conv2d(128, 128, kernel_size=(7, 7), stride=(1, 1), padding=(3, 3), groups=128)
        (norm): LayerNorm()
        (pwconv1): Linear(in_features=128, out_features=512, bias=True)
        (act): GELU()
        (pwconv2): Linear(in_features=512, out_features=128, bias=True)
        (drop_path): Identity()
        (t2d_memory_attention): Memory(
          dim=128, memory_dim=30, model_style=trans, ab_norm_attn_=False, ab_norm_ltm_=False,
          (activation): GELU()
          (wm): Linear(in_features=30, out_features=128, bias=True)
          (attn): Linear(in_features=256, out_features=128, bias=True)
          (update_ltm): Linear(in_features=128, out_features=30, bias=True)
          (norm_attn): Identity()
          (norm_ltm): Identity()
          (proj_drop): Dropout(p=0.0, inplace=False)
        )
      )
      (1): Block(
        (dwconv): Conv2d(128, 128, kernel_size=(7, 7), stride=(1, 1), padding=(3, 3), groups=128)
        (norm): LayerNorm()
        (pwconv1): Linear(in_features=128, out_features=512, bias=True)
        (act): GELU()
        (pwconv2): Linear(in_features=512, out_features=128, bias=True)
        (drop_path): DropPath()
        (t2d_memory_attention): Memory(
          dim=128, memory_dim=30, model_style=trans, ab_norm_attn_=False, ab_norm_ltm_=False,
          (activation): GELU()
          (wm): Linear(in_features=30, out_features=128, bias=True)
          (attn): Linear(in_features=256, out_features=128, bias=True)
          (update_ltm): Linear(in_features=128, out_features=30, bias=True)
          (norm_attn): Identity()
          (norm_ltm): Identity()
          (proj_drop): Dropout(p=0.0, inplace=False)
        )
      )
      (2): Block(
        (dwconv): Conv2d(128, 128, kernel_size=(7, 7), stride=(1, 1), padding=(3, 3), groups=128)
        (norm): LayerNorm()
        (pwconv1): Linear(in_features=128, out_features=512, bias=True)
        (act): GELU()
        (pwconv2): Linear(in_features=512, out_features=128, bias=True)
        (drop_path): DropPath()
        (t2d_memory_attention): Memory(
          dim=128, memory_dim=30, model_style=trans, ab_norm_attn_=False, ab_norm_ltm_=False,
          (activation): GELU()
          (wm): Linear(in_features=30, out_features=128, bias=True)
          (attn): Linear(in_features=256, out_features=128, bias=True)
          (update_ltm): Linear(in_features=128, out_features=30, bias=True)
          (norm_attn): Identity()
          (norm_ltm): Identity()
          (proj_drop): Dropout(p=0.0, inplace=False)
        )
      )
    )
    (1): Sequential(
      (0): Block(
        (dwconv): Conv2d(256, 256, kernel_size=(7, 7), stride=(1, 1), padding=(3, 3), groups=256)
        (norm): LayerNorm()
        (pwconv1): Linear(in_features=256, out_features=1024, bias=True)
        (act): GELU()
        (pwconv2): Linear(in_features=1024, out_features=256, bias=True)
        (drop_path): DropPath()
        (t2d_memory_attention): Memory(
          dim=256, memory_dim=30, model_style=trans, ab_norm_attn_=False, ab_norm_ltm_=False,
          (activation): GELU()
          (wm): Linear(in_features=30, out_features=256, bias=True)
          (attn): Linear(in_features=512, out_features=256, bias=True)
          (update_ltm): Linear(in_features=256, out_features=30, bias=True)
          (norm_attn): Identity()
          (norm_ltm): Identity()
          (proj_drop): Dropout(p=0.0, inplace=False)
        )
      )
      (1): Block(
        (dwconv): Conv2d(256, 256, kernel_size=(7, 7), stride=(1, 1), padding=(3, 3), groups=256)
        (norm): LayerNorm()
        (pwconv1): Linear(in_features=256, out_features=1024, bias=True)
        (act): GELU()
        (pwconv2): Linear(in_features=1024, out_features=256, bias=True)
        (drop_path): DropPath()
        (t2d_memory_attention): Memory(
          dim=256, memory_dim=30, model_style=trans, ab_norm_attn_=False, ab_norm_ltm_=False,
          (activation): GELU()
          (wm): Linear(in_features=30, out_features=256, bias=True)
          (attn): Linear(in_features=512, out_features=256, bias=True)
          (update_ltm): Linear(in_features=256, out_features=30, bias=True)
          (norm_attn): Identity()
          (norm_ltm): Identity()
          (proj_drop): Dropout(p=0.0, inplace=False)
        )
      )
      (2): Block(
        (dwconv): Conv2d(256, 256, kernel_size=(7, 7), stride=(1, 1), padding=(3, 3), groups=256)
        (norm): LayerNorm()
        (pwconv1): Linear(in_features=256, out_features=1024, bias=True)
        (act): GELU()
        (pwconv2): Linear(in_features=1024, out_features=256, bias=True)
        (drop_path): DropPath()
        (t2d_memory_attention): Memory(
          dim=256, memory_dim=30, model_style=trans, ab_norm_attn_=False, ab_norm_ltm_=False,
          (activation): GELU()
          (wm): Linear(in_features=30, out_features=256, bias=True)
          (attn): Linear(in_features=512, out_features=256, bias=True)
          (update_ltm): Linear(in_features=256, out_features=30, bias=True)
          (norm_attn): Identity()
          (norm_ltm): Identity()
          (proj_drop): Dropout(p=0.0, inplace=False)
        )
      )
    )
    (2): Sequential(
      (0): Block(
        (dwconv): Conv2d(512, 512, kernel_size=(7, 7), stride=(1, 1), padding=(3, 3), groups=512)
        (norm): LayerNorm()
        (pwconv1): Linear(in_features=512, out_features=2048, bias=True)
        (act): GELU()
        (pwconv2): Linear(in_features=2048, out_features=512, bias=True)
        (drop_path): DropPath()
        (t2d_memory_attention): Memory(
          dim=512, memory_dim=30, model_style=trans, ab_norm_attn_=False, ab_norm_ltm_=False,
          (activation): GELU()
          (wm): Linear(in_features=30, out_features=512, bias=True)
          (attn): Linear(in_features=1024, out_features=512, bias=True)
          (update_ltm): Linear(in_features=512, out_features=30, bias=True)
          (norm_attn): Identity()
          (norm_ltm): Identity()
          (proj_drop): Dropout(p=0.0, inplace=False)
        )
      )
      (1): Block(
        (dwconv): Conv2d(512, 512, kernel_size=(7, 7), stride=(1, 1), padding=(3, 3), groups=512)
        (norm): LayerNorm()
        (pwconv1): Linear(in_features=512, out_features=2048, bias=True)
        (act): GELU()
        (pwconv2): Linear(in_features=2048, out_features=512, bias=True)
        (drop_path): DropPath()
        (t2d_memory_attention): Memory(
          dim=512, memory_dim=30, model_style=trans, ab_norm_attn_=False, ab_norm_ltm_=False,
          (activation): GELU()
          (wm): Linear(in_features=30, out_features=512, bias=True)
          (attn): Linear(in_features=1024, out_features=512, bias=True)
          (update_ltm): Linear(in_features=512, out_features=30, bias=True)
          (norm_attn): Identity()
          (norm_ltm): Identity()
          (proj_drop): Dropout(p=0.0, inplace=False)
        )
      )
      (2): Block(
        (dwconv): Conv2d(512, 512, kernel_size=(7, 7), stride=(1, 1), padding=(3, 3), groups=512)
        (norm): LayerNorm()
        (pwconv1): Linear(in_features=512, out_features=2048, bias=True)
        (act): GELU()
        (pwconv2): Linear(in_features=2048, out_features=512, bias=True)
        (drop_path): DropPath()
        (t2d_memory_attention): Memory(
          dim=512, memory_dim=30, model_style=trans, ab_norm_attn_=False, ab_norm_ltm_=False,
          (activation): GELU()
          (wm): Linear(in_features=30, out_features=512, bias=True)
          (attn): Linear(in_features=1024, out_features=512, bias=True)
          (update_ltm): Linear(in_features=512, out_features=30, bias=True)
          (norm_attn): Identity()
          (norm_ltm): Identity()
          (proj_drop): Dropout(p=0.0, inplace=False)
        )
      )
      (3): Block(
        (dwconv): Conv2d(512, 512, kernel_size=(7, 7), stride=(1, 1), padding=(3, 3), groups=512)
        (norm): LayerNorm()
        (pwconv1): Linear(in_features=512, out_features=2048, bias=True)
        (act): GELU()
        (pwconv2): Linear(in_features=2048, out_features=512, bias=True)
        (drop_path): DropPath()
        (t2d_memory_attention): Memory(
          dim=512, memory_dim=30, model_style=trans, ab_norm_attn_=False, ab_norm_ltm_=False,
          (activation): GELU()
          (wm): Linear(in_features=30, out_features=512, bias=True)
          (attn): Linear(in_features=1024, out_features=512, bias=True)
          (update_ltm): Linear(in_features=512, out_features=30, bias=True)
          (norm_attn): Identity()
          (norm_ltm): Identity()
          (proj_drop): Dropout(p=0.0, inplace=False)
        )
      )
      (4): Block(
        (dwconv): Conv2d(512, 512, kernel_size=(7, 7), stride=(1, 1), padding=(3, 3), groups=512)
        (norm): LayerNorm()
        (pwconv1): Linear(in_features=512, out_features=2048, bias=True)
        (act): GELU()
        (pwconv2): Linear(in_features=2048, out_features=512, bias=True)
        (drop_path): DropPath()
        (t2d_memory_attention): Memory(
          dim=512, memory_dim=30, model_style=trans, ab_norm_attn_=False, ab_norm_ltm_=False,
          (activation): GELU()
          (wm): Linear(in_features=30, out_features=512, bias=True)
          (attn): Linear(in_features=1024, out_features=512, bias=True)
          (update_ltm): Linear(in_features=512, out_features=30, bias=True)
          (norm_attn): Identity()
          (norm_ltm): Identity()
          (proj_drop): Dropout(p=0.0, inplace=False)
        )
      )
      (5): Block(
        (dwconv): Conv2d(512, 512, kernel_size=(7, 7), stride=(1, 1), padding=(3, 3), groups=512)
        (norm): LayerNorm()
        (pwconv1): Linear(in_features=512, out_features=2048, bias=True)
        (act): GELU()
        (pwconv2): Linear(in_features=2048, out_features=512, bias=True)
        (drop_path): DropPath()
        (t2d_memory_attention): Memory(
          dim=512, memory_dim=30, model_style=trans, ab_norm_attn_=False, ab_norm_ltm_=False,
          (activation): GELU()
          (wm): Linear(in_features=30, out_features=512, bias=True)
          (attn): Linear(in_features=1024, out_features=512, bias=True)
          (update_ltm): Linear(in_features=512, out_features=30, bias=True)
          (norm_attn): Identity()
          (norm_ltm): Identity()
          (proj_drop): Dropout(p=0.0, inplace=False)
        )
      )
      (6): Block(
        (dwconv): Conv2d(512, 512, kernel_size=(7, 7), stride=(1, 1), padding=(3, 3), groups=512)
        (norm): LayerNorm()
        (pwconv1): Linear(in_features=512, out_features=2048, bias=True)
        (act): GELU()
        (pwconv2): Linear(in_features=2048, out_features=512, bias=True)
        (drop_path): DropPath()
        (t2d_memory_attention): Memory(
          dim=512, memory_dim=30, model_style=trans, ab_norm_attn_=False, ab_norm_ltm_=False,
          (activation): GELU()
          (wm): Linear(in_features=30, out_features=512, bias=True)
          (attn): Linear(in_features=1024, out_features=512, bias=True)
          (update_ltm): Linear(in_features=512, out_features=30, bias=True)
          (norm_attn): Identity()
          (norm_ltm): Identity()
          (proj_drop): Dropout(p=0.0, inplace=False)
        )
      )
      (7): Block(
        (dwconv): Conv2d(512, 512, kernel_size=(7, 7), stride=(1, 1), padding=(3, 3), groups=512)
        (norm): LayerNorm()
        (pwconv1): Linear(in_features=512, out_features=2048, bias=True)
        (act): GELU()
        (pwconv2): Linear(in_features=2048, out_features=512, bias=True)
        (drop_path): DropPath()
        (t2d_memory_attention): Memory(
          dim=512, memory_dim=30, model_style=trans, ab_norm_attn_=False, ab_norm_ltm_=False,
          (activation): GELU()
          (wm): Linear(in_features=30, out_features=512, bias=True)
          (attn): Linear(in_features=1024, out_features=512, bias=True)
          (update_ltm): Linear(in_features=512, out_features=30, bias=True)
          (norm_attn): Identity()
          (norm_ltm): Identity()
          (proj_drop): Dropout(p=0.0, inplace=False)
        )
      )
      (8): Block(
        (dwconv): Conv2d(512, 512, kernel_size=(7, 7), stride=(1, 1), padding=(3, 3), groups=512)
        (norm): LayerNorm()
        (pwconv1): Linear(in_features=512, out_features=2048, bias=True)
        (act): GELU()
        (pwconv2): Linear(in_features=2048, out_features=512, bias=True)
        (drop_path): DropPath()
        (t2d_memory_attention): Memory(
          dim=512, memory_dim=30, model_style=trans, ab_norm_attn_=False, ab_norm_ltm_=False,
          (activation): GELU()
          (wm): Linear(in_features=30, out_features=512, bias=True)
          (attn): Linear(in_features=1024, out_features=512, bias=True)
          (update_ltm): Linear(in_features=512, out_features=30, bias=True)
          (norm_attn): Identity()
          (norm_ltm): Identity()
          (proj_drop): Dropout(p=0.0, inplace=False)
        )
      )
      (9): Block(
        (dwconv): Conv2d(512, 512, kernel_size=(7, 7), stride=(1, 1), padding=(3, 3), groups=512)
        (norm): LayerNorm()
        (pwconv1): Linear(in_features=512, out_features=2048, bias=True)
        (act): GELU()
        (pwconv2): Linear(in_features=2048, out_features=512, bias=True)
        (drop_path): DropPath()
        (t2d_memory_attention): Memory(
          dim=512, memory_dim=30, model_style=trans, ab_norm_attn_=False, ab_norm_ltm_=False,
          (activation): GELU()
          (wm): Linear(in_features=30, out_features=512, bias=True)
          (attn): Linear(in_features=1024, out_features=512, bias=True)
          (update_ltm): Linear(in_features=512, out_features=30, bias=True)
          (norm_attn): Identity()
          (norm_ltm): Identity()
          (proj_drop): Dropout(p=0.0, inplace=False)
        )
      )
      (10): Block(
        (dwconv): Conv2d(512, 512, kernel_size=(7, 7), stride=(1, 1), padding=(3, 3), groups=512)
        (norm): LayerNorm()
        (pwconv1): Linear(in_features=512, out_features=2048, bias=True)
        (act): GELU()
        (pwconv2): Linear(in_features=2048, out_features=512, bias=True)
        (drop_path): DropPath()
        (t2d_memory_attention): Memory(
          dim=512, memory_dim=30, model_style=trans, ab_norm_attn_=False, ab_norm_ltm_=False,
          (activation): GELU()
          (wm): Linear(in_features=30, out_features=512, bias=True)
          (attn): Linear(in_features=1024, out_features=512, bias=True)
          (update_ltm): Linear(in_features=512, out_features=30, bias=True)
          (norm_attn): Identity()
          (norm_ltm): Identity()
          (proj_drop): Dropout(p=0.0, inplace=False)
        )
      )
      (11): Block(
        (dwconv): Conv2d(512, 512, kernel_size=(7, 7), stride=(1, 1), padding=(3, 3), groups=512)
        (norm): LayerNorm()
        (pwconv1): Linear(in_features=512, out_features=2048, bias=True)
        (act): GELU()
        (pwconv2): Linear(in_features=2048, out_features=512, bias=True)
        (drop_path): DropPath()
        (t2d_memory_attention): Memory(
          dim=512, memory_dim=30, model_style=trans, ab_norm_attn_=False, ab_norm_ltm_=False,
          (activation): GELU()
          (wm): Linear(in_features=30, out_features=512, bias=True)
          (attn): Linear(in_features=1024, out_features=512, bias=True)
          (update_ltm): Linear(in_features=512, out_features=30, bias=True)
          (norm_attn): Identity()
          (norm_ltm): Identity()
          (proj_drop): Dropout(p=0.0, inplace=False)
        )
      )
      (12): Block(
        (dwconv): Conv2d(512, 512, kernel_size=(7, 7), stride=(1, 1), padding=(3, 3), groups=512)
        (norm): LayerNorm()
        (pwconv1): Linear(in_features=512, out_features=2048, bias=True)
        (act): GELU()
        (pwconv2): Linear(in_features=2048, out_features=512, bias=True)
        (drop_path): DropPath()
        (t2d_memory_attention): Memory(
          dim=512, memory_dim=30, model_style=trans, ab_norm_attn_=False, ab_norm_ltm_=False,
          (activation): GELU()
          (wm): Linear(in_features=30, out_features=512, bias=True)
          (attn): Linear(in_features=1024, out_features=512, bias=True)
          (update_ltm): Linear(in_features=512, out_features=30, bias=True)
          (norm_attn): Identity()
          (norm_ltm): Identity()
          (proj_drop): Dropout(p=0.0, inplace=False)
        )
      )
      (13): Block(
        (dwconv): Conv2d(512, 512, kernel_size=(7, 7), stride=(1, 1), padding=(3, 3), groups=512)
        (norm): LayerNorm()
        (pwconv1): Linear(in_features=512, out_features=2048, bias=True)
        (act): GELU()
        (pwconv2): Linear(in_features=2048, out_features=512, bias=True)
        (drop_path): DropPath()
        (t2d_memory_attention): Memory(
          dim=512, memory_dim=30, model_style=trans, ab_norm_attn_=False, ab_norm_ltm_=False,
          (activation): GELU()
          (wm): Linear(in_features=30, out_features=512, bias=True)
          (attn): Linear(in_features=1024, out_features=512, bias=True)
          (update_ltm): Linear(in_features=512, out_features=30, bias=True)
          (norm_attn): Identity()
          (norm_ltm): Identity()
          (proj_drop): Dropout(p=0.0, inplace=False)
        )
      )
      (14): Block(
        (dwconv): Conv2d(512, 512, kernel_size=(7, 7), stride=(1, 1), padding=(3, 3), groups=512)
        (norm): LayerNorm()
        (pwconv1): Linear(in_features=512, out_features=2048, bias=True)
        (act): GELU()
        (pwconv2): Linear(in_features=2048, out_features=512, bias=True)
        (drop_path): DropPath()
        (t2d_memory_attention): Memory(
          dim=512, memory_dim=30, model_style=trans, ab_norm_attn_=False, ab_norm_ltm_=False,
          (activation): GELU()
          (wm): Linear(in_features=30, out_features=512, bias=True)
          (attn): Linear(in_features=1024, out_features=512, bias=True)
          (update_ltm): Linear(in_features=512, out_features=30, bias=True)
          (norm_attn): Identity()
          (norm_ltm): Identity()
          (proj_drop): Dropout(p=0.0, inplace=False)
        )
      )
      (15): Block(
        (dwconv): Conv2d(512, 512, kernel_size=(7, 7), stride=(1, 1), padding=(3, 3), groups=512)
        (norm): LayerNorm()
        (pwconv1): Linear(in_features=512, out_features=2048, bias=True)
        (act): GELU()
        (pwconv2): Linear(in_features=2048, out_features=512, bias=True)
        (drop_path): DropPath()
        (t2d_memory_attention): Memory(
          dim=512, memory_dim=30, model_style=trans, ab_norm_attn_=False, ab_norm_ltm_=False,
          (activation): GELU()
          (wm): Linear(in_features=30, out_features=512, bias=True)
          (attn): Linear(in_features=1024, out_features=512, bias=True)
          (update_ltm): Linear(in_features=512, out_features=30, bias=True)
          (norm_attn): Identity()
          (norm_ltm): Identity()
          (proj_drop): Dropout(p=0.0, inplace=False)
        )
      )
      (16): Block(
        (dwconv): Conv2d(512, 512, kernel_size=(7, 7), stride=(1, 1), padding=(3, 3), groups=512)
        (norm): LayerNorm()
        (pwconv1): Linear(in_features=512, out_features=2048, bias=True)
        (act): GELU()
        (pwconv2): Linear(in_features=2048, out_features=512, bias=True)
        (drop_path): DropPath()
        (t2d_memory_attention): Memory(
          dim=512, memory_dim=30, model_style=trans, ab_norm_attn_=False, ab_norm_ltm_=False,
          (activation): GELU()
          (wm): Linear(in_features=30, out_features=512, bias=True)
          (attn): Linear(in_features=1024, out_features=512, bias=True)
          (update_ltm): Linear(in_features=512, out_features=30, bias=True)
          (norm_attn): Identity()
          (norm_ltm): Identity()
          (proj_drop): Dropout(p=0.0, inplace=False)
        )
      )
      (17): Block(
        (dwconv): Conv2d(512, 512, kernel_size=(7, 7), stride=(1, 1), padding=(3, 3), groups=512)
        (norm): LayerNorm()
        (pwconv1): Linear(in_features=512, out_features=2048, bias=True)
        (act): GELU()
        (pwconv2): Linear(in_features=2048, out_features=512, bias=True)
        (drop_path): DropPath()
        (t2d_memory_attention): Memory(
          dim=512, memory_dim=30, model_style=trans, ab_norm_attn_=False, ab_norm_ltm_=False,
          (activation): GELU()
          (wm): Linear(in_features=30, out_features=512, bias=True)
          (attn): Linear(in_features=1024, out_features=512, bias=True)
          (update_ltm): Linear(in_features=512, out_features=30, bias=True)
          (norm_attn): Identity()
          (norm_ltm): Identity()
          (proj_drop): Dropout(p=0.0, inplace=False)
        )
      )
      (18): Block(
        (dwconv): Conv2d(512, 512, kernel_size=(7, 7), stride=(1, 1), padding=(3, 3), groups=512)
        (norm): LayerNorm()
        (pwconv1): Linear(in_features=512, out_features=2048, bias=True)
        (act): GELU()
        (pwconv2): Linear(in_features=2048, out_features=512, bias=True)
        (drop_path): DropPath()
        (t2d_memory_attention): Memory(
          dim=512, memory_dim=30, model_style=trans, ab_norm_attn_=False, ab_norm_ltm_=False,
          (activation): GELU()
          (wm): Linear(in_features=30, out_features=512, bias=True)
          (attn): Linear(in_features=1024, out_features=512, bias=True)
          (update_ltm): Linear(in_features=512, out_features=30, bias=True)
          (norm_attn): Identity()
          (norm_ltm): Identity()
          (proj_drop): Dropout(p=0.0, inplace=False)
        )
      )
      (19): Block(
        (dwconv): Conv2d(512, 512, kernel_size=(7, 7), stride=(1, 1), padding=(3, 3), groups=512)
        (norm): LayerNorm()
        (pwconv1): Linear(in_features=512, out_features=2048, bias=True)
        (act): GELU()
        (pwconv2): Linear(in_features=2048, out_features=512, bias=True)
        (drop_path): DropPath()
        (t2d_memory_attention): Memory(
          dim=512, memory_dim=30, model_style=trans, ab_norm_attn_=False, ab_norm_ltm_=False,
          (activation): GELU()
          (wm): Linear(in_features=30, out_features=512, bias=True)
          (attn): Linear(in_features=1024, out_features=512, bias=True)
          (update_ltm): Linear(in_features=512, out_features=30, bias=True)
          (norm_attn): Identity()
          (norm_ltm): Identity()
          (proj_drop): Dropout(p=0.0, inplace=False)
        )
      )
      (20): Block(
        (dwconv): Conv2d(512, 512, kernel_size=(7, 7), stride=(1, 1), padding=(3, 3), groups=512)
        (norm): LayerNorm()
        (pwconv1): Linear(in_features=512, out_features=2048, bias=True)
        (act): GELU()
        (pwconv2): Linear(in_features=2048, out_features=512, bias=True)
        (drop_path): DropPath()
        (t2d_memory_attention): Memory(
          dim=512, memory_dim=30, model_style=trans, ab_norm_attn_=False, ab_norm_ltm_=False,
          (activation): GELU()
          (wm): Linear(in_features=30, out_features=512, bias=True)
          (attn): Linear(in_features=1024, out_features=512, bias=True)
          (update_ltm): Linear(in_features=512, out_features=30, bias=True)
          (norm_attn): Identity()
          (norm_ltm): Identity()
          (proj_drop): Dropout(p=0.0, inplace=False)
        )
      )
      (21): Block(
        (dwconv): Conv2d(512, 512, kernel_size=(7, 7), stride=(1, 1), padding=(3, 3), groups=512)
        (norm): LayerNorm()
        (pwconv1): Linear(in_features=512, out_features=2048, bias=True)
        (act): GELU()
        (pwconv2): Linear(in_features=2048, out_features=512, bias=True)
        (drop_path): DropPath()
        (t2d_memory_attention): Memory(
          dim=512, memory_dim=30, model_style=trans, ab_norm_attn_=False, ab_norm_ltm_=False,
          (activation): GELU()
          (wm): Linear(in_features=30, out_features=512, bias=True)
          (attn): Linear(in_features=1024, out_features=512, bias=True)
          (update_ltm): Linear(in_features=512, out_features=30, bias=True)
          (norm_attn): Identity()
          (norm_ltm): Identity()
          (proj_drop): Dropout(p=0.0, inplace=False)
        )
      )
      (22): Block(
        (dwconv): Conv2d(512, 512, kernel_size=(7, 7), stride=(1, 1), padding=(3, 3), groups=512)
        (norm): LayerNorm()
        (pwconv1): Linear(in_features=512, out_features=2048, bias=True)
        (act): GELU()
        (pwconv2): Linear(in_features=2048, out_features=512, bias=True)
        (drop_path): DropPath()
        (t2d_memory_attention): Memory(
          dim=512, memory_dim=30, model_style=trans, ab_norm_attn_=False, ab_norm_ltm_=False,
          (activation): GELU()
          (wm): Linear(in_features=30, out_features=512, bias=True)
          (attn): Linear(in_features=1024, out_features=512, bias=True)
          (update_ltm): Linear(in_features=512, out_features=30, bias=True)
          (norm_attn): Identity()
          (norm_ltm): Identity()
          (proj_drop): Dropout(p=0.0, inplace=False)
        )
      )
      (23): Block(
        (dwconv): Conv2d(512, 512, kernel_size=(7, 7), stride=(1, 1), padding=(3, 3), groups=512)
        (norm): LayerNorm()
        (pwconv1): Linear(in_features=512, out_features=2048, bias=True)
        (act): GELU()
        (pwconv2): Linear(in_features=2048, out_features=512, bias=True)
        (drop_path): DropPath()
        (t2d_memory_attention): Memory(
          dim=512, memory_dim=30, model_style=trans, ab_norm_attn_=False, ab_norm_ltm_=False,
          (activation): GELU()
          (wm): Linear(in_features=30, out_features=512, bias=True)
          (attn): Linear(in_features=1024, out_features=512, bias=True)
          (update_ltm): Linear(in_features=512, out_features=30, bias=True)
          (norm_attn): Identity()
          (norm_ltm): Identity()
          (proj_drop): Dropout(p=0.0, inplace=False)
        )
      )
      (24): Block(
        (dwconv): Conv2d(512, 512, kernel_size=(7, 7), stride=(1, 1), padding=(3, 3), groups=512)
        (norm): LayerNorm()
        (pwconv1): Linear(in_features=512, out_features=2048, bias=True)
        (act): GELU()
        (pwconv2): Linear(in_features=2048, out_features=512, bias=True)
        (drop_path): DropPath()
        (t2d_memory_attention): Memory(
          dim=512, memory_dim=30, model_style=trans, ab_norm_attn_=False, ab_norm_ltm_=False,
          (activation): GELU()
          (wm): Linear(in_features=30, out_features=512, bias=True)
          (attn): Linear(in_features=1024, out_features=512, bias=True)
          (update_ltm): Linear(in_features=512, out_features=30, bias=True)
          (norm_attn): Identity()
          (norm_ltm): Identity()
          (proj_drop): Dropout(p=0.0, inplace=False)
        )
      )
      (25): Block(
        (dwconv): Conv2d(512, 512, kernel_size=(7, 7), stride=(1, 1), padding=(3, 3), groups=512)
        (norm): LayerNorm()
        (pwconv1): Linear(in_features=512, out_features=2048, bias=True)
        (act): GELU()
        (pwconv2): Linear(in_features=2048, out_features=512, bias=True)
        (drop_path): DropPath()
        (t2d_memory_attention): Memory(
          dim=512, memory_dim=30, model_style=trans, ab_norm_attn_=False, ab_norm_ltm_=False,
          (activation): GELU()
          (wm): Linear(in_features=30, out_features=512, bias=True)
          (attn): Linear(in_features=1024, out_features=512, bias=True)
          (update_ltm): Linear(in_features=512, out_features=30, bias=True)
          (norm_attn): Identity()
          (norm_ltm): Identity()
          (proj_drop): Dropout(p=0.0, inplace=False)
        )
      )
      (26): Block(
        (dwconv): Conv2d(512, 512, kernel_size=(7, 7), stride=(1, 1), padding=(3, 3), groups=512)
        (norm): LayerNorm()
        (pwconv1): Linear(in_features=512, out_features=2048, bias=True)
        (act): GELU()
        (pwconv2): Linear(in_features=2048, out_features=512, bias=True)
        (drop_path): DropPath()
        (t2d_memory_attention): Memory(
          dim=512, memory_dim=30, model_style=trans, ab_norm_attn_=False, ab_norm_ltm_=False,
          (activation): GELU()
          (wm): Linear(in_features=30, out_features=512, bias=True)
          (attn): Linear(in_features=1024, out_features=512, bias=True)
          (update_ltm): Linear(in_features=512, out_features=30, bias=True)
          (norm_attn): Identity()
          (norm_ltm): Identity()
          (proj_drop): Dropout(p=0.0, inplace=False)
        )
      )
    )
    (3): Sequential(
      (0): Block(
        (dwconv): Conv2d(1024, 1024, kernel_size=(7, 7), stride=(1, 1), padding=(3, 3), groups=1024)
        (norm): LayerNorm()
        (pwconv1): Linear(in_features=1024, out_features=4096, bias=True)
        (act): GELU()
        (pwconv2): Linear(in_features=4096, out_features=1024, bias=True)
        (drop_path): DropPath()
        (t2d_memory_attention): Memory(
          dim=1024, memory_dim=30, model_style=trans, ab_norm_attn_=False, ab_norm_ltm_=False,
          (activation): GELU()
          (wm): Linear(in_features=30, out_features=1024, bias=True)
          (attn): Linear(in_features=2048, out_features=1024, bias=True)
          (update_ltm): Linear(in_features=1024, out_features=30, bias=True)
          (norm_attn): Identity()
          (norm_ltm): Identity()
          (proj_drop): Dropout(p=0.0, inplace=False)
        )
      )
      (1): Block(
        (dwconv): Conv2d(1024, 1024, kernel_size=(7, 7), stride=(1, 1), padding=(3, 3), groups=1024)
        (norm): LayerNorm()
        (pwconv1): Linear(in_features=1024, out_features=4096, bias=True)
        (act): GELU()
        (pwconv2): Linear(in_features=4096, out_features=1024, bias=True)
        (drop_path): DropPath()
        (t2d_memory_attention): Memory(
          dim=1024, memory_dim=30, model_style=trans, ab_norm_attn_=False, ab_norm_ltm_=False,
          (activation): GELU()
          (wm): Linear(in_features=30, out_features=1024, bias=True)
          (attn): Linear(in_features=2048, out_features=1024, bias=True)
          (update_ltm): Linear(in_features=1024, out_features=30, bias=True)
          (norm_attn): Identity()
          (norm_ltm): Identity()
          (proj_drop): Dropout(p=0.0, inplace=False)
        )
      )
      (2): Block(
        (dwconv): Conv2d(1024, 1024, kernel_size=(7, 7), stride=(1, 1), padding=(3, 3), groups=1024)
        (norm): LayerNorm()
        (pwconv1): Linear(in_features=1024, out_features=4096, bias=True)
        (act): GELU()
        (pwconv2): Linear(in_features=4096, out_features=1024, bias=True)
        (drop_path): DropPath()
        (t2d_memory_attention): Memory(
          dim=1024, memory_dim=30, model_style=trans, ab_norm_attn_=False, ab_norm_ltm_=False,
          (activation): GELU()
          (wm): Linear(in_features=30, out_features=1024, bias=True)
          (attn): Linear(in_features=2048, out_features=1024, bias=True)
          (update_ltm): Identity()
          (norm_attn): Identity()
          (norm_ltm): Identity()
          (proj_drop): Dropout(p=0.0, inplace=False)
        )
      )
    )
  )
  (memory_downsampling): ModuleList(
    (0): MemoryDownSampling(
      (memory_pooling): AvgPool2d(kernel_size=2, stride=2, padding=0)
    )
    (1): MemoryDownSampling(
      (memory_pooling): AvgPool2d(kernel_size=2, stride=2, padding=0)
    )
    (2): MemoryDownSampling(
      (memory_pooling): AvgPool2d(kernel_size=2, stride=2, padding=0)
    )
  )
  (norm): LayerNorm((1024,), eps=1e-06, elementwise_affine=True)
  (head): Linear(in_features=1024, out_features=1000, bias=True)
)
[2024-07-01 20:21:52 vcnu_convnext_base_224_22kto1kto1k_finetune_nonorm] (main.py 113): INFO number of params: 110619522
[2024-07-01 20:21:52 vcnu_convnext_base_224_22kto1kto1k_finetune_nonorm] (main.py 150): INFO no checkpoint found in pretrain/vcnu_finetune/vcnu_convnext_base_224_22kto1kto1k_finetune_nonorm/vcnu_convnext_base_patch4_22kto1k_finetune_nonorm, ignoring auto resume
…
