…
[2024-07-31 15:24:47 adapter_convnext_diffusion_finetune_base_224_22kto1k_finetune_sequence_stage_process2] (main.py 108): INFO Creating model:adapter_convnext_diffusion_finetune/adapter_convnext_diffusion_finetune_base_224_22kto1k_finetune_sequence_stage_process2
[2024-07-31 15:24:49 adapter_convnext_diffusion_finetune_base_224_22kto1k_finetune_sequence_stage_process2] (main.py 110): INFO Adapter_ConvNeXt_Diffusion_Finetune(
  (uma): UMA(filter_strategy1=18, filter_strategy2=6,ablation_strategy=UMA, use_sequencefunc=linear,fftscale=4,)
  (downsample_layers): ModuleList(
    (0): Sequential(
      (0): Conv2d(3, 128, kernel_size=(4, 4), stride=(4, 4))
      (1): LayerNorm()
    )
    (1): Sequential(
      (0): LayerNorm()
      (1): Conv2d(128, 256, kernel_size=(2, 2), stride=(2, 2))
    )
    (2): Sequential(
      (0): LayerNorm()
      (1): Conv2d(256, 512, kernel_size=(2, 2), stride=(2, 2))
    )
    (3): Sequential(
      (0): LayerNorm()
      (1): Conv2d(512, 1024, kernel_size=(2, 2), stride=(2, 2))
    )
  )
  (stages): ModuleList(
    (0): Sequential(
      (0): Block(
        (dwconv): Conv2d(128, 128, kernel_size=(7, 7), stride=(1, 1), padding=(3, 3), groups=128)
        (norm): LayerNorm()
        (pwconv1): Linear(in_features=128, out_features=512, bias=True)
        (act): GELU()
        (pwconv2): Linear(in_features=512, out_features=128, bias=True)
        (drop_path): Identity()
        (adapter): Adapter(
          dim=128, emb_dim=32, model_style=trans, 
          (activation): GELU()
          (down): Linear(in_features=128, out_features=32, bias=True)
          (up): Linear(in_features=32, out_features=128, bias=True)
          (proj_drop): Dropout(p=0.0, inplace=False)
        )
      )
      (1): Block(
        (dwconv): Conv2d(128, 128, kernel_size=(7, 7), stride=(1, 1), padding=(3, 3), groups=128)
        (norm): LayerNorm()
        (pwconv1): Linear(in_features=128, out_features=512, bias=True)
        (act): GELU()
        (pwconv2): Linear(in_features=512, out_features=128, bias=True)
        (drop_path): DropPath()
        (adapter): Adapter(
          dim=128, emb_dim=32, model_style=trans, 
          (activation): GELU()
          (down): Linear(in_features=128, out_features=32, bias=True)
          (up): Linear(in_features=32, out_features=128, bias=True)
          (proj_drop): Dropout(p=0.0, inplace=False)
        )
      )
      (2): Block(
        (dwconv): Conv2d(128, 128, kernel_size=(7, 7), stride=(1, 1), padding=(3, 3), groups=128)
        (norm): LayerNorm()
        (pwconv1): Linear(in_features=128, out_features=512, bias=True)
        (act): GELU()
        (pwconv2): Linear(in_features=512, out_features=128, bias=True)
        (drop_path): DropPath()
        (adapter): Adapter(
          dim=128, emb_dim=32, model_style=trans, 
          (activation): GELU()
          (down): Linear(in_features=128, out_features=32, bias=True)
          (up): Linear(in_features=32, out_features=128, bias=True)
          (proj_drop): Dropout(p=0.0, inplace=False)
        )
      )
    )
    (1): Sequential(
      (0): Block(
        (dwconv): Conv2d(256, 256, kernel_size=(7, 7), stride=(1, 1), padding=(3, 3), groups=256)
        (norm): LayerNorm()
        (pwconv1): Linear(in_features=256, out_features=1024, bias=True)
        (act): GELU()
        (pwconv2): Linear(in_features=1024, out_features=256, bias=True)
        (drop_path): DropPath()
        (adapter): Adapter(
          dim=256, emb_dim=64, model_style=trans, 
          (activation): GELU()
          (down): Linear(in_features=256, out_features=64, bias=True)
          (up): Linear(in_features=64, out_features=256, bias=True)
          (proj_drop): Dropout(p=0.0, inplace=False)
        )
      )
      (1): Block(
        (dwconv): Conv2d(256, 256, kernel_size=(7, 7), stride=(1, 1), padding=(3, 3), groups=256)
        (norm): LayerNorm()
        (pwconv1): Linear(in_features=256, out_features=1024, bias=True)
        (act): GELU()
        (pwconv2): Linear(in_features=1024, out_features=256, bias=True)
        (drop_path): DropPath()
        (adapter): Adapter(
          dim=256, emb_dim=64, model_style=trans, 
          (activation): GELU()
          (down): Linear(in_features=256, out_features=64, bias=True)
          (up): Linear(in_features=64, out_features=256, bias=True)
          (proj_drop): Dropout(p=0.0, inplace=False)
        )
      )
      (2): Block(
        (dwconv): Conv2d(256, 256, kernel_size=(7, 7), stride=(1, 1), padding=(3, 3), groups=256)
        (norm): LayerNorm()
        (pwconv1): Linear(in_features=256, out_features=1024, bias=True)
        (act): GELU()
        (pwconv2): Linear(in_features=1024, out_features=256, bias=True)
        (drop_path): DropPath()
        (adapter): Adapter(
          dim=256, emb_dim=64, model_style=trans, 
          (activation): GELU()
          (down): Linear(in_features=256, out_features=64, bias=True)
          (up): Linear(in_features=64, out_features=256, bias=True)
          (proj_drop): Dropout(p=0.0, inplace=False)
        )
      )
    )
    (2): Sequential(
      (0): Block(
        (dwconv): Conv2d(512, 512, kernel_size=(7, 7), stride=(1, 1), padding=(3, 3), groups=512)
        (norm): LayerNorm()
        (pwconv1): Linear(in_features=512, out_features=2048, bias=True)
        (act): GELU()
        (pwconv2): Linear(in_features=2048, out_features=512, bias=True)
        (drop_path): DropPath()
        (adapter): Adapter(
          dim=512, emb_dim=128, model_style=trans, 
          (activation): GELU()
          (down): Linear(in_features=512, out_features=128, bias=True)
          (up): Linear(in_features=128, out_features=512, bias=True)
          (proj_drop): Dropout(p=0.0, inplace=False)
        )
      )
      (1): Block(
        (dwconv): Conv2d(512, 512, kernel_size=(7, 7), stride=(1, 1), padding=(3, 3), groups=512)
        (norm): LayerNorm()
        (pwconv1): Linear(in_features=512, out_features=2048, bias=True)
        (act): GELU()
        (pwconv2): Linear(in_features=2048, out_features=512, bias=True)
        (drop_path): DropPath()
        (adapter): Adapter(
          dim=512, emb_dim=128, model_style=trans, 
          (activation): GELU()
          (down): Linear(in_features=512, out_features=128, bias=True)
          (up): Linear(in_features=128, out_features=512, bias=True)
          (proj_drop): Dropout(p=0.0, inplace=False)
        )
      )
      (2): Block(
        (dwconv): Conv2d(512, 512, kernel_size=(7, 7), stride=(1, 1), padding=(3, 3), groups=512)
        (norm): LayerNorm()
        (pwconv1): Linear(in_features=512, out_features=2048, bias=True)
        (act): GELU()
        (pwconv2): Linear(in_features=2048, out_features=512, bias=True)
        (drop_path): DropPath()
        (adapter): Adapter(
          dim=512, emb_dim=128, model_style=trans, 
          (activation): GELU()
          (down): Linear(in_features=512, out_features=128, bias=True)
          (up): Linear(in_features=128, out_features=512, bias=True)
          (proj_drop): Dropout(p=0.0, inplace=False)
        )
      )
      (3): Block(
        (dwconv): Conv2d(512, 512, kernel_size=(7, 7), stride=(1, 1), padding=(3, 3), groups=512)
        (norm): LayerNorm()
        (pwconv1): Linear(in_features=512, out_features=2048, bias=True)
        (act): GELU()
        (pwconv2): Linear(in_features=2048, out_features=512, bias=True)
        (drop_path): DropPath()
        (adapter): Adapter(
          dim=512, emb_dim=128, model_style=trans, 
          (activation): GELU()
          (down): Linear(in_features=512, out_features=128, bias=True)
          (up): Linear(in_features=128, out_features=512, bias=True)
          (proj_drop): Dropout(p=0.0, inplace=False)
        )
      )
      (4): Block(
        (dwconv): Conv2d(512, 512, kernel_size=(7, 7), stride=(1, 1), padding=(3, 3), groups=512)
        (norm): LayerNorm()
        (pwconv1): Linear(in_features=512, out_features=2048, bias=True)
        (act): GELU()
        (pwconv2): Linear(in_features=2048, out_features=512, bias=True)
        (drop_path): DropPath()
        (adapter): Adapter(
          dim=512, emb_dim=128, model_style=trans, 
          (activation): GELU()
          (down): Linear(in_features=512, out_features=128, bias=True)
          (up): Linear(in_features=128, out_features=512, bias=True)
          (proj_drop): Dropout(p=0.0, inplace=False)
        )
      )
      (5): Block(
        (dwconv): Conv2d(512, 512, kernel_size=(7, 7), stride=(1, 1), padding=(3, 3), groups=512)
        (norm): LayerNorm()
        (pwconv1): Linear(in_features=512, out_features=2048, bias=True)
        (act): GELU()
        (pwconv2): Linear(in_features=2048, out_features=512, bias=True)
        (drop_path): DropPath()
        (adapter): Adapter(
          dim=512, emb_dim=128, model_style=trans, 
          (activation): GELU()
          (down): Linear(in_features=512, out_features=128, bias=True)
          (up): Linear(in_features=128, out_features=512, bias=True)
          (proj_drop): Dropout(p=0.0, inplace=False)
        )
      )
      (6): Block(
        (dwconv): Conv2d(512, 512, kernel_size=(7, 7), stride=(1, 1), padding=(3, 3), groups=512)
        (norm): LayerNorm()
        (pwconv1): Linear(in_features=512, out_features=2048, bias=True)
        (act): GELU()
        (pwconv2): Linear(in_features=2048, out_features=512, bias=True)
        (drop_path): DropPath()
        (adapter): Adapter(
          dim=512, emb_dim=128, model_style=trans, 
          (activation): GELU()
          (down): Linear(in_features=512, out_features=128, bias=True)
          (up): Linear(in_features=128, out_features=512, bias=True)
          (proj_drop): Dropout(p=0.0, inplace=False)
        )
      )
      (7): Block(
        (dwconv): Conv2d(512, 512, kernel_size=(7, 7), stride=(1, 1), padding=(3, 3), groups=512)
        (norm): LayerNorm()
        (pwconv1): Linear(in_features=512, out_features=2048, bias=True)
        (act): GELU()
        (pwconv2): Linear(in_features=2048, out_features=512, bias=True)
        (drop_path): DropPath()
        (adapter): Adapter(
          dim=512, emb_dim=128, model_style=trans, 
          (activation): GELU()
          (down): Linear(in_features=512, out_features=128, bias=True)
          (up): Linear(in_features=128, out_features=512, bias=True)
          (proj_drop): Dropout(p=0.0, inplace=False)
        )
      )
      (8): Block(
        (dwconv): Conv2d(512, 512, kernel_size=(7, 7), stride=(1, 1), padding=(3, 3), groups=512)
        (norm): LayerNorm()
        (pwconv1): Linear(in_features=512, out_features=2048, bias=True)
        (act): GELU()
        (pwconv2): Linear(in_features=2048, out_features=512, bias=True)
        (drop_path): DropPath()
        (adapter): Adapter(
          dim=512, emb_dim=128, model_style=trans, 
          (activation): GELU()
          (down): Linear(in_features=512, out_features=128, bias=True)
          (up): Linear(in_features=128, out_features=512, bias=True)
          (proj_drop): Dropout(p=0.0, inplace=False)
        )
      )
      (9): Block(
        (dwconv): Conv2d(512, 512, kernel_size=(7, 7), stride=(1, 1), padding=(3, 3), groups=512)
        (norm): LayerNorm()
        (pwconv1): Linear(in_features=512, out_features=2048, bias=True)
        (act): GELU()
        (pwconv2): Linear(in_features=2048, out_features=512, bias=True)
        (drop_path): DropPath()
        (adapter): Adapter(
          dim=512, emb_dim=128, model_style=trans, 
          (activation): GELU()
          (down): Linear(in_features=512, out_features=128, bias=True)
          (up): Linear(in_features=128, out_features=512, bias=True)
          (proj_drop): Dropout(p=0.0, inplace=False)
        )
      )
      (10): Block(
        (dwconv): Conv2d(512, 512, kernel_size=(7, 7), stride=(1, 1), padding=(3, 3), groups=512)
        (norm): LayerNorm()
        (pwconv1): Linear(in_features=512, out_features=2048, bias=True)
        (act): GELU()
        (pwconv2): Linear(in_features=2048, out_features=512, bias=True)
        (drop_path): DropPath()
        (adapter): Adapter(
          dim=512, emb_dim=128, model_style=trans, 
          (activation): GELU()
          (down): Linear(in_features=512, out_features=128, bias=True)
          (up): Linear(in_features=128, out_features=512, bias=True)
          (proj_drop): Dropout(p=0.0, inplace=False)
        )
      )
      (11): Block(
        (dwconv): Conv2d(512, 512, kernel_size=(7, 7), stride=(1, 1), padding=(3, 3), groups=512)
        (norm): LayerNorm()
        (pwconv1): Linear(in_features=512, out_features=2048, bias=True)
        (act): GELU()
        (pwconv2): Linear(in_features=2048, out_features=512, bias=True)
        (drop_path): DropPath()
        (adapter): Adapter(
          dim=512, emb_dim=128, model_style=trans, 
          (activation): GELU()
          (down): Linear(in_features=512, out_features=128, bias=True)
          (up): Linear(in_features=128, out_features=512, bias=True)
          (proj_drop): Dropout(p=0.0, inplace=False)
        )
      )
      (12): Block(
        (dwconv): Conv2d(512, 512, kernel_size=(7, 7), stride=(1, 1), padding=(3, 3), groups=512)
        (norm): LayerNorm()
        (pwconv1): Linear(in_features=512, out_features=2048, bias=True)
        (act): GELU()
        (pwconv2): Linear(in_features=2048, out_features=512, bias=True)
        (drop_path): DropPath()
        (adapter): Adapter(
          dim=512, emb_dim=128, model_style=trans, 
          (activation): GELU()
          (down): Linear(in_features=512, out_features=128, bias=True)
          (up): Linear(in_features=128, out_features=512, bias=True)
          (proj_drop): Dropout(p=0.0, inplace=False)
        )
      )
      (13): Block(
        (dwconv): Conv2d(512, 512, kernel_size=(7, 7), stride=(1, 1), padding=(3, 3), groups=512)
        (norm): LayerNorm()
        (pwconv1): Linear(in_features=512, out_features=2048, bias=True)
        (act): GELU()
        (pwconv2): Linear(in_features=2048, out_features=512, bias=True)
        (drop_path): DropPath()
        (adapter): Adapter(
          dim=512, emb_dim=128, model_style=trans, 
          (activation): GELU()
          (down): Linear(in_features=512, out_features=128, bias=True)
          (up): Linear(in_features=128, out_features=512, bias=True)
          (proj_drop): Dropout(p=0.0, inplace=False)
        )
      )
      (14): Block(
        (dwconv): Conv2d(512, 512, kernel_size=(7, 7), stride=(1, 1), padding=(3, 3), groups=512)
        (norm): LayerNorm()
        (pwconv1): Linear(in_features=512, out_features=2048, bias=True)
        (act): GELU()
        (pwconv2): Linear(in_features=2048, out_features=512, bias=True)
        (drop_path): DropPath()
        (adapter): Adapter(
          dim=512, emb_dim=128, model_style=trans, 
          (activation): GELU()
          (down): Linear(in_features=512, out_features=128, bias=True)
          (up): Linear(in_features=128, out_features=512, bias=True)
          (proj_drop): Dropout(p=0.0, inplace=False)
        )
      )
      (15): Block(
        (dwconv): Conv2d(512, 512, kernel_size=(7, 7), stride=(1, 1), padding=(3, 3), groups=512)
        (norm): LayerNorm()
        (pwconv1): Linear(in_features=512, out_features=2048, bias=True)
        (act): GELU()
        (pwconv2): Linear(in_features=2048, out_features=512, bias=True)
        (drop_path): DropPath()
        (adapter): Adapter(
          dim=512, emb_dim=128, model_style=trans, 
          (activation): GELU()
          (down): Linear(in_features=512, out_features=128, bias=True)
          (up): Linear(in_features=128, out_features=512, bias=True)
          (proj_drop): Dropout(p=0.0, inplace=False)
        )
      )
      (16): Block(
        (dwconv): Conv2d(512, 512, kernel_size=(7, 7), stride=(1, 1), padding=(3, 3), groups=512)
        (norm): LayerNorm()
        (pwconv1): Linear(in_features=512, out_features=2048, bias=True)
        (act): GELU()
        (pwconv2): Linear(in_features=2048, out_features=512, bias=True)
        (drop_path): DropPath()
        (adapter): Adapter(
          dim=512, emb_dim=128, model_style=trans, 
          (activation): GELU()
          (down): Linear(in_features=512, out_features=128, bias=True)
          (up): Linear(in_features=128, out_features=512, bias=True)
          (proj_drop): Dropout(p=0.0, inplace=False)
        )
      )
      (17): Block(
        (dwconv): Conv2d(512, 512, kernel_size=(7, 7), stride=(1, 1), padding=(3, 3), groups=512)
        (norm): LayerNorm()
        (pwconv1): Linear(in_features=512, out_features=2048, bias=True)
        (act): GELU()
        (pwconv2): Linear(in_features=2048, out_features=512, bias=True)
        (drop_path): DropPath()
        (adapter): Adapter(
          dim=512, emb_dim=128, model_style=trans, 
          (activation): GELU()
          (down): Linear(in_features=512, out_features=128, bias=True)
          (up): Linear(in_features=128, out_features=512, bias=True)
          (proj_drop): Dropout(p=0.0, inplace=False)
        )
      )
      (18): Block(
        (dwconv): Conv2d(512, 512, kernel_size=(7, 7), stride=(1, 1), padding=(3, 3), groups=512)
        (norm): LayerNorm()
        (pwconv1): Linear(in_features=512, out_features=2048, bias=True)
        (act): GELU()
        (pwconv2): Linear(in_features=2048, out_features=512, bias=True)
        (drop_path): DropPath()
        (adapter): Adapter(
          dim=512, emb_dim=128, model_style=trans, 
          (activation): GELU()
          (down): Linear(in_features=512, out_features=128, bias=True)
          (up): Linear(in_features=128, out_features=512, bias=True)
          (proj_drop): Dropout(p=0.0, inplace=False)
        )
      )
      (19): Block(
        (dwconv): Conv2d(512, 512, kernel_size=(7, 7), stride=(1, 1), padding=(3, 3), groups=512)
        (norm): LayerNorm()
        (pwconv1): Linear(in_features=512, out_features=2048, bias=True)
        (act): GELU()
        (pwconv2): Linear(in_features=2048, out_features=512, bias=True)
        (drop_path): DropPath()
        (adapter): Adapter(
          dim=512, emb_dim=128, model_style=trans, 
          (activation): GELU()
          (down): Linear(in_features=512, out_features=128, bias=True)
          (up): Linear(in_features=128, out_features=512, bias=True)
          (proj_drop): Dropout(p=0.0, inplace=False)
        )
      )
      (20): Block(
        (dwconv): Conv2d(512, 512, kernel_size=(7, 7), stride=(1, 1), padding=(3, 3), groups=512)
        (norm): LayerNorm()
        (pwconv1): Linear(in_features=512, out_features=2048, bias=True)
        (act): GELU()
        (pwconv2): Linear(in_features=2048, out_features=512, bias=True)
        (drop_path): DropPath()
        (adapter): Adapter(
          dim=512, emb_dim=128, model_style=trans, 
          (activation): GELU()
          (down): Linear(in_features=512, out_features=128, bias=True)
          (up): Linear(in_features=128, out_features=512, bias=True)
          (proj_drop): Dropout(p=0.0, inplace=False)
        )
      )
      (21): Block(
        (dwconv): Conv2d(512, 512, kernel_size=(7, 7), stride=(1, 1), padding=(3, 3), groups=512)
        (norm): LayerNorm()
        (pwconv1): Linear(in_features=512, out_features=2048, bias=True)
        (act): GELU()
        (pwconv2): Linear(in_features=2048, out_features=512, bias=True)
        (drop_path): DropPath()
        (adapter): Adapter(
          dim=512, emb_dim=128, model_style=trans, 
          (activation): GELU()
          (down): Linear(in_features=512, out_features=128, bias=True)
          (up): Linear(in_features=128, out_features=512, bias=True)
          (proj_drop): Dropout(p=0.0, inplace=False)
        )
      )
      (22): Block(
        (dwconv): Conv2d(512, 512, kernel_size=(7, 7), stride=(1, 1), padding=(3, 3), groups=512)
        (norm): LayerNorm()
        (pwconv1): Linear(in_features=512, out_features=2048, bias=True)
        (act): GELU()
        (pwconv2): Linear(in_features=2048, out_features=512, bias=True)
        (drop_path): DropPath()
        (adapter): Adapter(
          dim=512, emb_dim=128, model_style=trans, 
          (activation): GELU()
          (down): Linear(in_features=512, out_features=128, bias=True)
          (up): Linear(in_features=128, out_features=512, bias=True)
          (proj_drop): Dropout(p=0.0, inplace=False)
        )
      )
      (23): Block(
        (dwconv): Conv2d(512, 512, kernel_size=(7, 7), stride=(1, 1), padding=(3, 3), groups=512)
        (norm): LayerNorm()
        (pwconv1): Linear(in_features=512, out_features=2048, bias=True)
        (act): GELU()
        (pwconv2): Linear(in_features=2048, out_features=512, bias=True)
        (drop_path): DropPath()
        (adapter): Adapter(
          dim=512, emb_dim=128, model_style=trans, 
          (activation): GELU()
          (down): Linear(in_features=512, out_features=128, bias=True)
          (up): Linear(in_features=128, out_features=512, bias=True)
          (proj_drop): Dropout(p=0.0, inplace=False)
        )
      )
      (24): Block(
        (dwconv): Conv2d(512, 512, kernel_size=(7, 7), stride=(1, 1), padding=(3, 3), groups=512)
        (norm): LayerNorm()
        (pwconv1): Linear(in_features=512, out_features=2048, bias=True)
        (act): GELU()
        (pwconv2): Linear(in_features=2048, out_features=512, bias=True)
        (drop_path): DropPath()
        (adapter): Adapter(
          dim=512, emb_dim=128, model_style=trans, 
          (activation): GELU()
          (down): Linear(in_features=512, out_features=128, bias=True)
          (up): Linear(in_features=128, out_features=512, bias=True)
          (proj_drop): Dropout(p=0.0, inplace=False)
        )
      )
      (25): Block(
        (dwconv): Conv2d(512, 512, kernel_size=(7, 7), stride=(1, 1), padding=(3, 3), groups=512)
        (norm): LayerNorm()
        (pwconv1): Linear(in_features=512, out_features=2048, bias=True)
        (act): GELU()
        (pwconv2): Linear(in_features=2048, out_features=512, bias=True)
        (drop_path): DropPath()
        (adapter): Adapter(
          dim=512, emb_dim=128, model_style=trans, 
          (activation): GELU()
          (down): Linear(in_features=512, out_features=128, bias=True)
          (up): Linear(in_features=128, out_features=512, bias=True)
          (proj_drop): Dropout(p=0.0, inplace=False)
        )
      )
      (26): Block(
        (dwconv): Conv2d(512, 512, kernel_size=(7, 7), stride=(1, 1), padding=(3, 3), groups=512)
        (norm): LayerNorm()
        (pwconv1): Linear(in_features=512, out_features=2048, bias=True)
        (act): GELU()
        (pwconv2): Linear(in_features=2048, out_features=512, bias=True)
        (drop_path): DropPath()
        (adapter): Adapter(
          dim=512, emb_dim=128, model_style=trans, 
          (activation): GELU()
          (down): Linear(in_features=512, out_features=128, bias=True)
          (up): Linear(in_features=128, out_features=512, bias=True)
          (proj_drop): Dropout(p=0.0, inplace=False)
        )
      )
    )
    (3): Sequential(
      (0): Block(
        (dwconv): Conv2d(1024, 1024, kernel_size=(7, 7), stride=(1, 1), padding=(3, 3), groups=1024)
        (norm): LayerNorm()
        (pwconv1): Linear(in_features=1024, out_features=4096, bias=True)
        (act): GELU()
        (pwconv2): Linear(in_features=4096, out_features=1024, bias=True)
        (drop_path): DropPath()
        (adapter): Adapter(
          dim=1024, emb_dim=256, model_style=trans, 
          (activation): GELU()
          (down): Linear(in_features=1024, out_features=256, bias=True)
          (up): Linear(in_features=256, out_features=1024, bias=True)
          (proj_drop): Dropout(p=0.0, inplace=False)
        )
      )
      (1): Block(
        (dwconv): Conv2d(1024, 1024, kernel_size=(7, 7), stride=(1, 1), padding=(3, 3), groups=1024)
        (norm): LayerNorm()
        (pwconv1): Linear(in_features=1024, out_features=4096, bias=True)
        (act): GELU()
        (pwconv2): Linear(in_features=4096, out_features=1024, bias=True)
        (drop_path): DropPath()
        (adapter): Adapter(
          dim=1024, emb_dim=256, model_style=trans, 
          (activation): GELU()
          (down): Linear(in_features=1024, out_features=256, bias=True)
          (up): Linear(in_features=256, out_features=1024, bias=True)
          (proj_drop): Dropout(p=0.0, inplace=False)
        )
      )
      (2): Block(
        (dwconv): Conv2d(1024, 1024, kernel_size=(7, 7), stride=(1, 1), padding=(3, 3), groups=1024)
        (norm): LayerNorm()
        (pwconv1): Linear(in_features=1024, out_features=4096, bias=True)
        (act): GELU()
        (pwconv2): Linear(in_features=4096, out_features=1024, bias=True)
        (drop_path): DropPath()
        (adapter): Adapter(
          dim=1024, emb_dim=256, model_style=trans, 
          (activation): GELU()
          (down): Linear(in_features=1024, out_features=256, bias=True)
          (up): Linear(in_features=256, out_features=1024, bias=True)
          (proj_drop): Dropout(p=0.0, inplace=False)
        )
      )
    )
  )
  (memory_downsampling): ModuleList()
  (norm): LayerNorm((1024,), eps=1e-06, elementwise_affine=True)
  (head): Linear(in_features=1024, out_features=1000, bias=True)
)
[2024-07-31 15:24:49 adapter_convnext_diffusion_finetune_base_224_22kto1k_finetune_sequence_stage_process2] (main.py 113): INFO number of params: 4707592
[2024-07-31 15:24:49 adapter_convnext_diffusion_finetune_base_224_22kto1k_finetune_sequence_stage_process2] (main.py 150): INFO no checkpoint found in pretrain/diffusion-ft/adapter_convnext_diffusion_finetune_base_224_22kto1k_finetune_sequence_stage_process2/diffusion_ft_adapter_conv_b_sequence_stage2, ignoring auto resume
…
