…
 false, "amp_opt_level": null, "output": "pretrain/lora-style-vcnu_finetune", "tag": "lora-style-vcnu-swin-b-finetune", "eval": false, "throughput": false, "local_rank": 0, "fused_window_process": false, "fused_layernorm": false, "optim": null}
[2024-07-29 16:43:24 lora-style-vcnu_swin_base_patch4_window7_224_22kto1k_finetune] (main.py 108): INFO Creating model:vcnu_swin/lora-style-vcnu_swin_base_patch4_window7_224_22kto1k_finetune
[2024-07-29 16:43:26 lora-style-vcnu_swin_base_patch4_window7_224_22kto1k_finetune] (main.py 110): INFO VCNU_SwinTransformer(
  (patch_embed): PatchEmbed(
    (proj): Conv2d(3, 128, kernel_size=(4, 4), stride=(4, 4))
    (norm): LayerNorm((128,), eps=1e-05, elementwise_affine=True)
  )
  (uma): UMA(filter_strategy1=23, filter_strategy2=7,ablation_strategy=UMA, use_sequencefunc=linear,fftscale=4,)
  (pos_drop): Dropout(p=0.0, inplace=False)
  (memory_embedding): Memory(
    dim=128, memory_dim=30, model_style=trans, ab_norm_attn_=True, ab_norm_ltm_=False,
    (activation): GELU()
    (wm): Linear(in_features=30, out_features=128, bias=True)
    (attn): Linear(in_features=256, out_features=128, bias=True)
    (update_ltm): Linear(in_features=128, out_features=30, bias=True)
    (norm_attn): LayerNorm((256,), eps=1e-05, elementwise_affine=True)
    (norm_ltm): Identity()
    (proj_drop): Dropout(p=0.0, inplace=False)
  )
  (layers): ModuleList(
    (0): BasicLayer(
      dim=128, input_resolution=(56, 56), depth=2
      (blocks): ModuleList(
        (0): VCNU_SwinTransformerBlock(
          dim=128, input_resolution=(56, 56), num_heads=4, window_size=7, shift_size=0, mlp_ratio=4.0, training_mode=tfs
          (norm1): LayerNorm((128,), eps=1e-05, elementwise_affine=True)
          (attn): WindowAttention(
            dim=128, window_size=(7, 7), num_heads=4
            (qkv): Linear(in_features=128, out_features=384, bias=True)
            (attn_drop): Dropout(p=0.0, inplace=False)
            (proj): Linear(in_features=128, out_features=128, bias=True)
            (proj_drop): Dropout(p=0.0, inplace=False)
            (softmax): Softmax(dim=-1)
          )
          (t2d_memory_attention): Memory(
            dim=128, memory_dim=30, model_style=trans, ab_norm_attn_=True, ab_norm_ltm_=False,
            (activation): GELU()
            (wm): Linear(in_features=30, out_features=128, bias=True)
            (attn): Linear(in_features=256, out_features=128, bias=True)
            (update_ltm): Linear(in_features=128, out_features=30, bias=True)
            (norm_attn): LayerNorm((256,), eps=1e-05, elementwise_affine=True)
            (norm_ltm): Identity()
            (proj_drop): Dropout(p=0.0, inplace=False)
          )
          (drop_path): Identity()
          (norm2): LayerNorm((128,), eps=1e-05, elementwise_affine=True)
          (mlp): Mlp(
            (fc1): Linear(in_features=128, out_features=512, bias=True)
            (act): GELU()
            (fc2): Linear(in_features=512, out_features=128, bias=True)
            (drop): Dropout(p=0.0, inplace=False)
          )
        )
        (1): VCNU_SwinTransformerBlock(
          dim=128, input_resolution=(56, 56), num_heads=4, window_size=7, shift_size=3, mlp_ratio=4.0, training_mode=tfs
          (norm1): LayerNorm((128,), eps=1e-05, elementwise_affine=True)
          (attn): WindowAttention(
            dim=128, window_size=(7, 7), num_heads=4
            (qkv): Linear(in_features=128, out_features=384, bias=True)
            (attn_drop): Dropout(p=0.0, inplace=False)
            (proj): Linear(in_features=128, out_features=128, bias=True)
            (proj_drop): Dropout(p=0.0, inplace=False)
            (softmax): Softmax(dim=-1)
          )
          (t2d_memory_attention): Memory(
            dim=128, memory_dim=30, model_style=trans, ab_norm_attn_=True, ab_norm_ltm_=False,
            (activation): GELU()
            (wm): Linear(in_features=30, out_features=128, bias=True)
            (attn): Linear(in_features=256, out_features=128, bias=True)
            (update_ltm): Linear(in_features=128, out_features=30, bias=True)
            (norm_attn): LayerNorm((256,), eps=1e-05, elementwise_affine=True)
            (norm_ltm): Identity()
            (proj_drop): Dropout(p=0.0, inplace=False)
          )
          (drop_path): DropPath()
          (norm2): LayerNorm((128,), eps=1e-05, elementwise_affine=True)
          (mlp): Mlp(
            (fc1): Linear(in_features=128, out_features=512, bias=True)
            (act): GELU()
            (fc2): Linear(in_features=512, out_features=128, bias=True)
            (drop): Dropout(p=0.0, inplace=False)
          )
        )
      )
      (downsample): PatchMerging(
        input_resolution=(56, 56), dim=128
        (reduction): Linear(in_features=512, out_features=256, bias=False)
        (norm): LayerNorm((512,), eps=1e-05, elementwise_affine=True)
        (memory_pooling): AvgPool2d(kernel_size=2, stride=2, padding=0)
      )
    )
    (1): BasicLayer(
      dim=256, input_resolution=(28, 28), depth=2
      (blocks): ModuleList(
        (0): VCNU_SwinTransformerBlock(
          dim=256, input_resolution=(28, 28), num_heads=8, window_size=7, shift_size=0, mlp_ratio=4.0, training_mode=tfs
          (norm1): LayerNorm((256,), eps=1e-05, elementwise_affine=True)
          (attn): WindowAttention(
            dim=256, window_size=(7, 7), num_heads=8
            (qkv): Linear(in_features=256, out_features=768, bias=True)
            (attn_drop): Dropout(p=0.0, inplace=False)
            (proj): Linear(in_features=256, out_features=256, bias=True)
            (proj_drop): Dropout(p=0.0, inplace=False)
            (softmax): Softmax(dim=-1)
          )
          (t2d_memory_attention): Memory(
            dim=256, memory_dim=30, model_style=trans, ab_norm_attn_=True, ab_norm_ltm_=False,
            (activation): GELU()
            (wm): Linear(in_features=30, out_features=256, bias=True)
            (attn): Linear(in_features=512, out_features=256, bias=True)
            (update_ltm): Linear(in_features=256, out_features=30, bias=True)
            (norm_attn): LayerNorm((512,), eps=1e-05, elementwise_affine=True)
            (norm_ltm): Identity()
            (proj_drop): Dropout(p=0.0, inplace=False)
          )
          (drop_path): DropPath()
          (norm2): LayerNorm((256,), eps=1e-05, elementwise_affine=True)
          (mlp): Mlp(
            (fc1): Linear(in_features=256, out_features=1024, bias=True)
            (act): GELU()
            (fc2): Linear(in_features=1024, out_features=256, bias=True)
            (drop): Dropout(p=0.0, inplace=False)
          )
        )
        (1): VCNU_SwinTransformerBlock(
          dim=256, input_resolution=(28, 28), num_heads=8, window_size=7, shift_size=3, mlp_ratio=4.0, training_mode=tfs
          (norm1): LayerNorm((256,), eps=1e-05, elementwise_affine=True)
          (attn): WindowAttention(
            dim=256, window_size=(7, 7), num_heads=8
            (qkv): Linear(in_features=256, out_features=768, bias=True)
            (attn_drop): Dropout(p=0.0, inplace=False)
            (proj): Linear(in_features=256, out_features=256, bias=True)
            (proj_drop): Dropout(p=0.0, inplace=False)
            (softmax): Softmax(dim=-1)
          )
          (t2d_memory_attention): Memory(
            dim=256, memory_dim=30, model_style=trans, ab_norm_attn_=True, ab_norm_ltm_=False,
            (activation): GELU()
            (wm): Linear(in_features=30, out_features=256, bias=True)
            (attn): Linear(in_features=512, out_features=256, bias=True)
            (update_ltm): Linear(in_features=256, out_features=30, bias=True)
            (norm_attn): LayerNorm((512,), eps=1e-05, elementwise_affine=True)
            (norm_ltm): Identity()
            (proj_drop): Dropout(p=0.0, inplace=False)
          )
          (drop_path): DropPath()
          (norm2): LayerNorm((256,), eps=1e-05, elementwise_affine=True)
          (mlp): Mlp(
            (fc1): Linear(in_features=256, out_features=1024, bias=True)
            (act): GELU()
            (fc2): Linear(in_features=1024, out_features=256, bias=True)
            (drop): Dropout(p=0.0, inplace=False)
          )
        )
      )
      (downsample): PatchMerging(
        input_resolution=(28, 28), dim=256
        (reduction): Linear(in_features=1024, out_features=512, bias=False)
        (norm): LayerNorm((1024,), eps=1e-05, elementwise_affine=True)
        (memory_pooling): AvgPool2d(kernel_size=2, stride=2, padding=0)
      )
    )
    (2): BasicLayer(
      dim=512, input_resolution=(14, 14), depth=18
      (blocks): ModuleList(
        (0): VCNU_SwinTransformerBlock(
          dim=512, input_resolution=(14, 14), num_heads=16, window_size=7, shift_size=0, mlp_ratio=4.0, training_mode=tfs
          (norm1): LayerNorm((512,), eps=1e-05, elementwise_affine=True)
          (attn): WindowAttention(
            dim=512, window_size=(7, 7), num_heads=16
            (qkv): Linear(in_features=512, out_features=1536, bias=True)
            (attn_drop): Dropout(p=0.0, inplace=False)
            (proj): Linear(in_features=512, out_features=512, bias=True)
            (proj_drop): Dropout(p=0.0, inplace=False)
            (softmax): Softmax(dim=-1)
          )
          (t2d_memory_attention): Memory(
            dim=512, memory_dim=30, model_style=trans, ab_norm_attn_=True, ab_norm_ltm_=False,
            (activation): GELU()
            (wm): Linear(in_features=30, out_features=512, bias=True)
            (attn): Linear(in_features=1024, out_features=512, bias=True)
            (update_ltm): Linear(in_features=512, out_features=30, bias=True)
            (norm_attn): LayerNorm((1024,), eps=1e-05, elementwise_affine=True)
            (norm_ltm): Identity()
            (proj_drop): Dropout(p=0.0, inplace=False)
          )
          (drop_path): DropPath()
          (norm2): LayerNorm((512,), eps=1e-05, elementwise_affine=True)
          (mlp): Mlp(
            (fc1): Linear(in_features=512, out_features=2048, bias=True)
            (act): GELU()
            (fc2): Linear(in_features=2048, out_features=512, bias=True)
            (drop): Dropout(p=0.0, inplace=False)
          )
        )
        (1): VCNU_SwinTransformerBlock(
          dim=512, input_resolution=(14, 14), num_heads=16, window_size=7, shift_size=3, mlp_ratio=4.0, training_mode=tfs
          (norm1): LayerNorm((512,), eps=1e-05, elementwise_affine=True)
          (attn): WindowAttention(
            dim=512, window_size=(7, 7), num_heads=16
            (qkv): Linear(in_features=512, out_features=1536, bias=True)
            (attn_drop): Dropout(p=0.0, inplace=False)
            (proj): Linear(in_features=512, out_features=512, bias=True)
            (proj_drop): Dropout(p=0.0, inplace=False)
            (softmax): Softmax(dim=-1)
          )
          (t2d_memory_attention): Memory(
            dim=512, memory_dim=30, model_style=trans, ab_norm_attn_=True, ab_norm_ltm_=False,
            (activation): GELU()
            (wm): Linear(in_features=30, out_features=512, bias=True)
            (attn): Linear(in_features=1024, out_features=512, bias=True)
            (update_ltm): Linear(in_features=512, out_features=30, bias=True)
            (norm_attn): LayerNorm((1024,), eps=1e-05, elementwise_affine=True)
            (norm_ltm): Identity()
            (proj_drop): Dropout(p=0.0, inplace=False)
          )
          (drop_path): DropPath()
          (norm2): LayerNorm((512,), eps=1e-05, elementwise_affine=True)
          (mlp): Mlp(
            (fc1): Linear(in_features=512, out_features=2048, bias=True)
            (act): GELU()
            (fc2): Linear(in_features=2048, out_features=512, bias=True)
            (drop): Dropout(p=0.0, inplace=False)
          )
        )
        (2): VCNU_SwinTransformerBlock(
          dim=512, input_resolution=(14, 14), num_heads=16, window_size=7, shift_size=0, mlp_ratio=4.0, training_mode=tfs
          (norm1): LayerNorm((512,), eps=1e-05, elementwise_affine=True)
          (attn): WindowAttention(
            dim=512, window_size=(7, 7), num_heads=16
            (qkv): Linear(in_features=512, out_features=1536, bias=True)
            (attn_drop): Dropout(p=0.0, inplace=False)
            (proj): Linear(in_features=512, out_features=512, bias=True)
            (proj_drop): Dropout(p=0.0, inplace=False)
            (softmax): Softmax(dim=-1)
          )
          (t2d_memory_attention): Memory(
            dim=512, memory_dim=30, model_style=trans, ab_norm_attn_=True, ab_norm_ltm_=False,
            (activation): GELU()
            (wm): Linear(in_features=30, out_features=512, bias=True)
            (attn): Linear(in_features=1024, out_features=512, bias=True)
            (update_ltm): Linear(in_features=512, out_features=30, bias=True)
            (norm_attn): LayerNorm((1024,), eps=1e-05, elementwise_affine=True)
            (norm_ltm): Identity()
            (proj_drop): Dropout(p=0.0, inplace=False)
          )
          (drop_path): DropPath()
          (norm2): LayerNorm((512,), eps=1e-05, elementwise_affine=True)
          (mlp): Mlp(
            (fc1): Linear(in_features=512, out_features=2048, bias=True)
            (act): GELU()
            (fc2): Linear(in_features=2048, out_features=512, bias=True)
            (drop): Dropout(p=0.0, inplace=False)
          )
        )
        (3): VCNU_SwinTransformerBlock(
          dim=512, input_resolution=(14, 14), num_heads=16, window_size=7, shift_size=3, mlp_ratio=4.0, training_mode=tfs
          (norm1): LayerNorm((512,), eps=1e-05, elementwise_affine=True)
          (attn): WindowAttention(
            dim=512, window_size=(7, 7), num_heads=16
            (qkv): Linear(in_features=512, out_features=1536, bias=True)
            (attn_drop): Dropout(p=0.0, inplace=False)
            (proj): Linear(in_features=512, out_features=512, bias=True)
            (proj_drop): Dropout(p=0.0, inplace=False)
            (softmax): Softmax(dim=-1)
          )
          (t2d_memory_attention): Memory(
            dim=512, memory_dim=30, model_style=trans, ab_norm_attn_=True, ab_norm_ltm_=False,
            (activation): GELU()
            (wm): Linear(in_features=30, out_features=512, bias=True)
            (attn): Linear(in_features=1024, out_features=512, bias=True)
            (update_ltm): Linear(in_features=512, out_features=30, bias=True)
            (norm_attn): LayerNorm((1024,), eps=1e-05, elementwise_affine=True)
            (norm_ltm): Identity()
            (proj_drop): Dropout(p=0.0, inplace=False)
          )
          (drop_path): DropPath()
          (norm2): LayerNorm((512,), eps=1e-05, elementwise_affine=True)
          (mlp): Mlp(
            (fc1): Linear(in_features=512, out_features=2048, bias=True)
            (act): GELU()
            (fc2): Linear(in_features=2048, out_features=512, bias=True)
            (drop): Dropout(p=0.0, inplace=False)
          )
        )
        (4): VCNU_SwinTransformerBlock(
          dim=512, input_resolution=(14, 14), num_heads=16, window_size=7, shift_size=0, mlp_ratio=4.0, training_mode=tfs
          (norm1): LayerNorm((512,), eps=1e-05, elementwise_affine=True)
          (attn): WindowAttention(
            dim=512, window_size=(7, 7), num_heads=16
            (qkv): Linear(in_features=512, out_features=1536, bias=True)
            (attn_drop): Dropout(p=0.0, inplace=False)
            (proj): Linear(in_features=512, out_features=512, bias=True)
            (proj_drop): Dropout(p=0.0, inplace=False)
            (softmax): Softmax(dim=-1)
          )
          (t2d_memory_attention): Memory(
            dim=512, memory_dim=30, model_style=trans, ab_norm_attn_=True, ab_norm_ltm_=False,
            (activation): GELU()
            (wm): Linear(in_features=30, out_features=512, bias=True)
            (attn): Linear(in_features=1024, out_features=512, bias=True)
            (update_ltm): Linear(in_features=512, out_features=30, bias=True)
            (norm_attn): LayerNorm((1024,), eps=1e-05, elementwise_affine=True)
            (norm_ltm): Identity()
            (proj_drop): Dropout(p=0.0, inplace=False)
          )
          (drop_path): DropPath()
          (norm2): LayerNorm((512,), eps=1e-05, elementwise_affine=True)
          (mlp): Mlp(
            (fc1): Linear(in_features=512, out_features=2048, bias=True)
            (act): GELU()
            (fc2): Linear(in_features=2048, out_features=512, bias=True)
            (drop): Dropout(p=0.0, inplace=False)
          )
        )
        (5): VCNU_SwinTransformerBlock(
          dim=512, input_resolution=(14, 14), num_heads=16, window_size=7, shift_size=3, mlp_ratio=4.0, training_mode=tfs
          (norm1): LayerNorm((512,), eps=1e-05, elementwise_affine=True)
          (attn): WindowAttention(
            dim=512, window_size=(7, 7), num_heads=16
            (qkv): Linear(in_features=512, out_features=1536, bias=True)
            (attn_drop): Dropout(p=0.0, inplace=False)
            (proj): Linear(in_features=512, out_features=512, bias=True)
            (proj_drop): Dropout(p=0.0, inplace=False)
            (softmax): Softmax(dim=-1)
          )
          (t2d_memory_attention): Memory(
            dim=512, memory_dim=30, model_style=trans, ab_norm_attn_=True, ab_norm_ltm_=False,
            (activation): GELU()
            (wm): Linear(in_features=30, out_features=512, bias=True)
            (attn): Linear(in_features=1024, out_features=512, bias=True)
            (update_ltm): Linear(in_features=512, out_features=30, bias=True)
            (norm_attn): LayerNorm((1024,), eps=1e-05, elementwise_affine=True)
            (norm_ltm): Identity()
            (proj_drop): Dropout(p=0.0, inplace=False)
          )
          (drop_path): DropPath()
          (norm2): LayerNorm((512,), eps=1e-05, elementwise_affine=True)
          (mlp): Mlp(
            (fc1): Linear(in_features=512, out_features=2048, bias=True)
            (act): GELU()
            (fc2): Linear(in_features=2048, out_features=512, bias=True)
            (drop): Dropout(p=0.0, inplace=False)
          )
        )
        (6): VCNU_SwinTransformerBlock(
          dim=512, input_resolution=(14, 14), num_heads=16, window_size=7, shift_size=0, mlp_ratio=4.0, training_mode=tfs
          (norm1): LayerNorm((512,), eps=1e-05, elementwise_affine=True)
          (attn): WindowAttention(
            dim=512, window_size=(7, 7), num_heads=16
            (qkv): Linear(in_features=512, out_features=1536, bias=True)
            (attn_drop): Dropout(p=0.0, inplace=False)
            (proj): Linear(in_features=512, out_features=512, bias=True)
            (proj_drop): Dropout(p=0.0, inplace=False)
            (softmax): Softmax(dim=-1)
          )
          (t2d_memory_attention): Memory(
            dim=512, memory_dim=30, model_style=trans, ab_norm_attn_=True, ab_norm_ltm_=False,
            (activation): GELU()
            (wm): Linear(in_features=30, out_features=512, bias=True)
            (attn): Linear(in_features=1024, out_features=512, bias=True)
            (update_ltm): Linear(in_features=512, out_features=30, bias=True)
            (norm_attn): LayerNorm((1024,), eps=1e-05, elementwise_affine=True)
            (norm_ltm): Identity()
            (proj_drop): Dropout(p=0.0, inplace=False)
          )
          (drop_path): DropPath()
          (norm2): LayerNorm((512,), eps=1e-05, elementwise_affine=True)
          (mlp): Mlp(
            (fc1): Linear(in_features=512, out_features=2048, bias=True)
            (act): GELU()
            (fc2): Linear(in_features=2048, out_features=512, bias=True)
            (drop): Dropout(p=0.0, inplace=False)
          )
        )
        (7): VCNU_SwinTransformerBlock(
          dim=512, input_resolution=(14, 14), num_heads=16, window_size=7, shift_size=3, mlp_ratio=4.0, training_mode=tfs
          (norm1): LayerNorm((512,), eps=1e-05, elementwise_affine=True)
          (attn): WindowAttention(
            dim=512, window_size=(7, 7), num_heads=16
            (qkv): Linear(in_features=512, out_features=1536, bias=True)
            (attn_drop): Dropout(p=0.0, inplace=False)
            (proj): Linear(in_features=512, out_features=512, bias=True)
            (proj_drop): Dropout(p=0.0, inplace=False)
            (softmax): Softmax(dim=-1)
          )
          (t2d_memory_attention): Memory(
            dim=512, memory_dim=30, model_style=trans, ab_norm_attn_=True, ab_norm_ltm_=False,
            (activation): GELU()
            (wm): Linear(in_features=30, out_features=512, bias=True)
            (attn): Linear(in_features=1024, out_features=512, bias=True)
            (update_ltm): Linear(in_features=512, out_features=30, bias=True)
            (norm_attn): LayerNorm((1024,), eps=1e-05, elementwise_affine=True)
            (norm_ltm): Identity()
            (proj_drop): Dropout(p=0.0, inplace=False)
          )
          (drop_path): DropPath()
          (norm2): LayerNorm((512,), eps=1e-05, elementwise_affine=True)
          (mlp): Mlp(
            (fc1): Linear(in_features=512, out_features=2048, bias=True)
            (act): GELU()
            (fc2): Linear(in_features=2048, out_features=512, bias=True)
            (drop): Dropout(p=0.0, inplace=False)
          )
        )
        (8): VCNU_SwinTransformerBlock(
          dim=512, input_resolution=(14, 14), num_heads=16, window_size=7, shift_size=0, mlp_ratio=4.0, training_mode=tfs
          (norm1): LayerNorm((512,), eps=1e-05, elementwise_affine=True)
          (attn): WindowAttention(
            dim=512, window_size=(7, 7), num_heads=16
            (qkv): Linear(in_features=512, out_features=1536, bias=True)
            (attn_drop): Dropout(p=0.0, inplace=False)
            (proj): Linear(in_features=512, out_features=512, bias=True)
            (proj_drop): Dropout(p=0.0, inplace=False)
            (softmax): Softmax(dim=-1)
          )
          (t2d_memory_attention): Memory(
            dim=512, memory_dim=30, model_style=trans, ab_norm_attn_=True, ab_norm_ltm_=False,
            (activation): GELU()
            (wm): Linear(in_features=30, out_features=512, bias=True)
            (attn): Linear(in_features=1024, out_features=512, bias=True)
            (update_ltm): Linear(in_features=512, out_features=30, bias=True)
            (norm_attn): LayerNorm((1024,), eps=1e-05, elementwise_affine=True)
            (norm_ltm): Identity()
            (proj_drop): Dropout(p=0.0, inplace=False)
          )
          (drop_path): DropPath()
          (norm2): LayerNorm((512,), eps=1e-05, elementwise_affine=True)
          (mlp): Mlp(
            (fc1): Linear(in_features=512, out_features=2048, bias=True)
            (act): GELU()
            (fc2): Linear(in_features=2048, out_features=512, bias=True)
            (drop): Dropout(p=0.0, inplace=False)
          )
        )
        (9): VCNU_SwinTransformerBlock(
          dim=512, input_resolution=(14, 14), num_heads=16, window_size=7, shift_size=3, mlp_ratio=4.0, training_mode=tfs
          (norm1): LayerNorm((512,), eps=1e-05, elementwise_affine=True)
          (attn): WindowAttention(
            dim=512, window_size=(7, 7), num_heads=16
            (qkv): Linear(in_features=512, out_features=1536, bias=True)
            (attn_drop): Dropout(p=0.0, inplace=False)
            (proj): Linear(in_features=512, out_features=512, bias=True)
            (proj_drop): Dropout(p=0.0, inplace=False)
            (softmax): Softmax(dim=-1)
          )
          (t2d_memory_attention): Memory(
            dim=512, memory_dim=30, model_style=trans, ab_norm_attn_=True, ab_norm_ltm_=False,
            (activation): GELU()
            (wm): Linear(in_features=30, out_features=512, bias=True)
            (attn): Linear(in_features=1024, out_features=512, bias=True)
            (update_ltm): Linear(in_features=512, out_features=30, bias=True)
            (norm_attn): LayerNorm((1024,), eps=1e-05, elementwise_affine=True)
            (norm_ltm): Identity()
            (proj_drop): Dropout(p=0.0, inplace=False)
          )
          (drop_path): DropPath()
          (norm2): LayerNorm((512,), eps=1e-05, elementwise_affine=True)
          (mlp): Mlp(
            (fc1): Linear(in_features=512, out_features=2048, bias=True)
            (act): GELU()
            (fc2): Linear(in_features=2048, out_features=512, bias=True)
            (drop): Dropout(p=0.0, inplace=False)
          )
        )
        (10): VCNU_SwinTransformerBlock(
          dim=512, input_resolution=(14, 14), num_heads=16, window_size=7, shift_size=0, mlp_ratio=4.0, training_mode=tfs
          (norm1): LayerNorm((512,), eps=1e-05, elementwise_affine=True)
          (attn): WindowAttention(
            dim=512, window_size=(7, 7), num_heads=16
            (qkv): Linear(in_features=512, out_features=1536, bias=True)
            (attn_drop): Dropout(p=0.0, inplace=False)
            (proj): Linear(in_features=512, out_features=512, bias=True)
            (proj_drop): Dropout(p=0.0, inplace=False)
            (softmax): Softmax(dim=-1)
          )
          (t2d_memory_attention): Memory(
            dim=512, memory_dim=30, model_style=trans, ab_norm_attn_=True, ab_norm_ltm_=False,
            (activation): GELU()
            (wm): Linear(in_features=30, out_features=512, bias=True)
            (attn): Linear(in_features=1024, out_features=512, bias=True)
            (update_ltm): Linear(in_features=512, out_features=30, bias=True)
            (norm_attn): LayerNorm((1024,), eps=1e-05, elementwise_affine=True)
            (norm_ltm): Identity()
            (proj_drop): Dropout(p=0.0, inplace=False)
          )
          (drop_path): DropPath()
          (norm2): LayerNorm((512,), eps=1e-05, elementwise_affine=True)
          (mlp): Mlp(
            (fc1): Linear(in_features=512, out_features=2048, bias=True)
            (act): GELU()
            (fc2): Linear(in_features=2048, out_features=512, bias=True)
            (drop): Dropout(p=0.0, inplace=False)
          )
        )
        (11): VCNU_SwinTransformerBlock(
          dim=512, input_resolution=(14, 14), num_heads=16, window_size=7, shift_size=3, mlp_ratio=4.0, training_mode=tfs
          (norm1): LayerNorm((512,), eps=1e-05, elementwise_affine=True)
          (attn): WindowAttention(
            dim=512, window_size=(7, 7), num_heads=16
            (qkv): Linear(in_features=512, out_features=1536, bias=True)
            (attn_drop): Dropout(p=0.0, inplace=False)
            (proj): Linear(in_features=512, out_features=512, bias=True)
            (proj_drop): Dropout(p=0.0, inplace=False)
            (softmax): Softmax(dim=-1)
          )
          (t2d_memory_attention): Memory(
            dim=512, memory_dim=30, model_style=trans, ab_norm_attn_=True, ab_norm_ltm_=False,
            (activation): GELU()
            (wm): Linear(in_features=30, out_features=512, bias=True)
            (attn): Linear(in_features=1024, out_features=512, bias=True)
            (update_ltm): Linear(in_features=512, out_features=30, bias=True)
            (norm_attn): LayerNorm((1024,), eps=1e-05, elementwise_affine=True)
            (norm_ltm): Identity()
            (proj_drop): Dropout(p=0.0, inplace=False)
          )
          (drop_path): DropPath()
          (norm2): LayerNorm((512,), eps=1e-05, elementwise_affine=True)
          (mlp): Mlp(
            (fc1): Linear(in_features=512, out_features=2048, bias=True)
            (act): GELU()
            (fc2): Linear(in_features=2048, out_features=512, bias=True)
            (drop): Dropout(p=0.0, inplace=False)
          )
        )
        (12): VCNU_SwinTransformerBlock(
          dim=512, input_resolution=(14, 14), num_heads=16, window_size=7, shift_size=0, mlp_ratio=4.0, training_mode=tfs
          (norm1): LayerNorm((512,), eps=1e-05, elementwise_affine=True)
          (attn): WindowAttention(
            dim=512, window_size=(7, 7), num_heads=16
            (qkv): Linear(in_features=512, out_features=1536, bias=True)
            (attn_drop): Dropout(p=0.0, inplace=False)
            (proj): Linear(in_features=512, out_features=512, bias=True)
            (proj_drop): Dropout(p=0.0, inplace=False)
            (softmax): Softmax(dim=-1)
          )
          (t2d_memory_attention): Memory(
            dim=512, memory_dim=30, model_style=trans, ab_norm_attn_=True, ab_norm_ltm_=False,
            (activation): GELU()
            (wm): Linear(in_features=30, out_features=512, bias=True)
            (attn): Linear(in_features=1024, out_features=512, bias=True)
            (update_ltm): Linear(in_features=512, out_features=30, bias=True)
            (norm_attn): LayerNorm((1024,), eps=1e-05, elementwise_affine=True)
            (norm_ltm): Identity()
            (proj_drop): Dropout(p=0.0, inplace=False)
          )
          (drop_path): DropPath()
          (norm2): LayerNorm((512,), eps=1e-05, elementwise_affine=True)
          (mlp): Mlp(
            (fc1): Linear(in_features=512, out_features=2048, bias=True)
            (act): GELU()
            (fc2): Linear(in_features=2048, out_features=512, bias=True)
            (drop): Dropout(p=0.0, inplace=False)
          )
        )
        (13): VCNU_SwinTransformerBlock(
          dim=512, input_resolution=(14, 14), num_heads=16, window_size=7, shift_size=3, mlp_ratio=4.0, training_mode=tfs
          (norm1): LayerNorm((512,), eps=1e-05, elementwise_affine=True)
          (attn): WindowAttention(
            dim=512, window_size=(7, 7), num_heads=16
            (qkv): Linear(in_features=512, out_features=1536, bias=True)
            (attn_drop): Dropout(p=0.0, inplace=False)
            (proj): Linear(in_features=512, out_features=512, bias=True)
            (proj_drop): Dropout(p=0.0, inplace=False)
            (softmax): Softmax(dim=-1)
          )
          (t2d_memory_attention): Memory(
            dim=512, memory_dim=30, model_style=trans, ab_norm_attn_=True, ab_norm_ltm_=False,
            (activation): GELU()
            (wm): Linear(in_features=30, out_features=512, bias=True)
            (attn): Linear(in_features=1024, out_features=512, bias=True)
            (update_ltm): Linear(in_features=512, out_features=30, bias=True)
            (norm_attn): LayerNorm((1024,), eps=1e-05, elementwise_affine=True)
            (norm_ltm): Identity()
            (proj_drop): Dropout(p=0.0, inplace=False)
          )
          (drop_path): DropPath()
          (norm2): LayerNorm((512,), eps=1e-05, elementwise_affine=True)
          (mlp): Mlp(
            (fc1): Linear(in_features=512, out_features=2048, bias=True)
            (act): GELU()
            (fc2): Linear(in_features=2048, out_features=512, bias=True)
            (drop): Dropout(p=0.0, inplace=False)
          )
        )
        (14): VCNU_SwinTransformerBlock(
          dim=512, input_resolution=(14, 14), num_heads=16, window_size=7, shift_size=0, mlp_ratio=4.0, training_mode=tfs
          (norm1): LayerNorm((512,), eps=1e-05, elementwise_affine=True)
          (attn): WindowAttention(
            dim=512, window_size=(7, 7), num_heads=16
            (qkv): Linear(in_features=512, out_features=1536, bias=True)
            (attn_drop): Dropout(p=0.0, inplace=False)
            (proj): Linear(in_features=512, out_features=512, bias=True)
            (proj_drop): Dropout(p=0.0, inplace=False)
            (softmax): Softmax(dim=-1)
          )
          (t2d_memory_attention): Memory(
            dim=512, memory_dim=30, model_style=trans, ab_norm_attn_=True, ab_norm_ltm_=False,
            (activation): GELU()
            (wm): Linear(in_features=30, out_features=512, bias=True)
            (attn): Linear(in_features=1024, out_features=512, bias=True)
            (update_ltm): Linear(in_features=512, out_features=30, bias=True)
            (norm_attn): LayerNorm((1024,), eps=1e-05, elementwise_affine=True)
            (norm_ltm): Identity()
            (proj_drop): Dropout(p=0.0, inplace=False)
          )
          (drop_path): DropPath()
          (norm2): LayerNorm((512,), eps=1e-05, elementwise_affine=True)
          (mlp): Mlp(
            (fc1): Linear(in_features=512, out_features=2048, bias=True)
            (act): GELU()
            (fc2): Linear(in_features=2048, out_features=512, bias=True)
            (drop): Dropout(p=0.0, inplace=False)
          )
        )
        (15): VCNU_SwinTransformerBlock(
          dim=512, input_resolution=(14, 14), num_heads=16, window_size=7, shift_size=3, mlp_ratio=4.0, training_mode=tfs
          (norm1): LayerNorm((512,), eps=1e-05, elementwise_affine=True)
          (attn): WindowAttention(
            dim=512, window_size=(7, 7), num_heads=16
            (qkv): Linear(in_features=512, out_features=1536, bias=True)
            (attn_drop): Dropout(p=0.0, inplace=False)
            (proj): Linear(in_features=512, out_features=512, bias=True)
            (proj_drop): Dropout(p=0.0, inplace=False)
            (softmax): Softmax(dim=-1)
          )
          (t2d_memory_attention): Memory(
            dim=512, memory_dim=30, model_style=trans, ab_norm_attn_=True, ab_norm_ltm_=False,
            (activation): GELU()
            (wm): Linear(in_features=30, out_features=512, bias=True)
            (attn): Linear(in_features=1024, out_features=512, bias=True)
            (update_ltm): Linear(in_features=512, out_features=30, bias=True)
            (norm_attn): LayerNorm((1024,), eps=1e-05, elementwise_affine=True)
            (norm_ltm): Identity()
            (proj_drop): Dropout(p=0.0, inplace=False)
          )
          (drop_path): DropPath()
          (norm2): LayerNorm((512,), eps=1e-05, elementwise_affine=True)
          (mlp): Mlp(
            (fc1): Linear(in_features=512, out_features=2048, bias=True)
            (act): GELU()
            (fc2): Linear(in_features=2048, out_features=512, bias=True)
            (drop): Dropout(p=0.0, inplace=False)
          )
        )
        (16): VCNU_SwinTransformerBlock(
          dim=512, input_resolution=(14, 14), num_heads=16, window_size=7, shift_size=0, mlp_ratio=4.0, training_mode=tfs
          (norm1): LayerNorm((512,), eps=1e-05, elementwise_affine=True)
          (attn): WindowAttention(
            dim=512, window_size=(7, 7), num_heads=16
            (qkv): Linear(in_features=512, out_features=1536, bias=True)
            (attn_drop): Dropout(p=0.0, inplace=False)
            (proj): Linear(in_features=512, out_features=512, bias=True)
            (proj_drop): Dropout(p=0.0, inplace=False)
            (softmax): Softmax(dim=-1)
          )
          (t2d_memory_attention): Memory(
            dim=512, memory_dim=30, model_style=trans, ab_norm_attn_=True, ab_norm_ltm_=False,
            (activation): GELU()
            (wm): Linear(in_features=30, out_features=512, bias=True)
            (attn): Linear(in_features=1024, out_features=512, bias=True)
            (update_ltm): Linear(in_features=512, out_features=30, bias=True)
            (norm_attn): LayerNorm((1024,), eps=1e-05, elementwise_affine=True)
            (norm_ltm): Identity()
            (proj_drop): Dropout(p=0.0, inplace=False)
          )
          (drop_path): DropPath()
          (norm2): LayerNorm((512,), eps=1e-05, elementwise_affine=True)
          (mlp): Mlp(
            (fc1): Linear(in_features=512, out_features=2048, bias=True)
            (act): GELU()
            (fc2): Linear(in_features=2048, out_features=512, bias=True)
            (drop): Dropout(p=0.0, inplace=False)
          )
        )
        (17): VCNU_SwinTransformerBlock(
          dim=512, input_resolution=(14, 14), num_heads=16, window_size=7, shift_size=3, mlp_ratio=4.0, training_mode=tfs
          (norm1): LayerNorm((512,), eps=1e-05, elementwise_affine=True)
          (attn): WindowAttention(
            dim=512, window_size=(7, 7), num_heads=16
            (qkv): Linear(in_features=512, out_features=1536, bias=True)
            (attn_drop): Dropout(p=0.0, inplace=False)
            (proj): Linear(in_features=512, out_features=512, bias=True)
            (proj_drop): Dropout(p=0.0, inplace=False)
            (softmax): Softmax(dim=-1)
          )
          (t2d_memory_attention): Memory(
            dim=512, memory_dim=30, model_style=trans, ab_norm_attn_=True, ab_norm_ltm_=False,
            (activation): GELU()
            (wm): Linear(in_features=30, out_features=512, bias=True)
            (attn): Linear(in_features=1024, out_features=512, bias=True)
            (update_ltm): Linear(in_features=512, out_features=30, bias=True)
            (norm_attn): LayerNorm((1024,), eps=1e-05, elementwise_affine=True)
            (norm_ltm): Identity()
            (proj_drop): Dropout(p=0.0, inplace=False)
          )
          (drop_path): DropPath()
          (norm2): LayerNorm((512,), eps=1e-05, elementwise_affine=True)
          (mlp): Mlp(
            (fc1): Linear(in_features=512, out_features=2048, bias=True)
            (act): GELU()
            (fc2): Linear(in_features=2048, out_features=512, bias=True)
            (drop): Dropout(p=0.0, inplace=False)
          )
        )
      )
      (downsample): PatchMerging(
        input_resolution=(14, 14), dim=512
        (reduction): Linear(in_features=2048, out_features=1024, bias=False)
        (norm): LayerNorm((2048,), eps=1e-05, elementwise_affine=True)
        (memory_pooling): AvgPool2d(kernel_size=2, stride=2, padding=0)
      )
    )
    (3): BasicLayer(
      dim=1024, input_resolution=(7, 7), depth=2
      (blocks): ModuleList(
        (0): VCNU_SwinTransformerBlock(
          dim=1024, input_resolution=(7, 7), num_heads=32, window_size=7, shift_size=0, mlp_ratio=4.0, training_mode=tfs
          (norm1): LayerNorm((1024,), eps=1e-05, elementwise_affine=True)
          (attn): WindowAttention(
            dim=1024, window_size=(7, 7), num_heads=32
            (qkv): Linear(in_features=1024, out_features=3072, bias=True)
            (attn_drop): Dropout(p=0.0, inplace=False)
            (proj): Linear(in_features=1024, out_features=1024, bias=True)
            (proj_drop): Dropout(p=0.0, inplace=False)
            (softmax): Softmax(dim=-1)
          )
          (t2d_memory_attention): Memory(
            dim=1024, memory_dim=30, model_style=trans, ab_norm_attn_=True, ab_norm_ltm_=False,
            (activation): GELU()
            (wm): Linear(in_features=30, out_features=1024, bias=True)
            (attn): Linear(in_features=2048, out_features=1024, bias=True)
            (update_ltm): Linear(in_features=1024, out_features=30, bias=True)
            (norm_attn): LayerNorm((2048,), eps=1e-05, elementwise_affine=True)
            (norm_ltm): Identity()
            (proj_drop): Dropout(p=0.0, inplace=False)
          )
          (drop_path): DropPath()
          (norm2): LayerNorm((1024,), eps=1e-05, elementwise_affine=True)
          (mlp): Mlp(
            (fc1): Linear(in_features=1024, out_features=4096, bias=True)
            (act): GELU()
            (fc2): Linear(in_features=4096, out_features=1024, bias=True)
            (drop): Dropout(p=0.0, inplace=False)
          )
        )
        (1): VCNU_SwinTransformerBlock(
          dim=1024, input_resolution=(7, 7), num_heads=32, window_size=7, shift_size=0, mlp_ratio=4.0, training_mode=tfs
          (norm1): LayerNorm((1024,), eps=1e-05, elementwise_affine=True)
          (attn): WindowAttention(
            dim=1024, window_size=(7, 7), num_heads=32
            (qkv): Linear(in_features=1024, out_features=3072, bias=True)
            (attn_drop): Dropout(p=0.0, inplace=False)
            (proj): Linear(in_features=1024, out_features=1024, bias=True)
            (proj_drop): Dropout(p=0.0, inplace=False)
            (softmax): Softmax(dim=-1)
          )
          (t2d_memory_attention): Memory(
            dim=1024, memory_dim=30, model_style=trans, ab_norm_attn_=True, ab_norm_ltm_=False,
            (activation): GELU()
            (wm): Linear(in_features=30, out_features=1024, bias=True)
            (attn): Linear(in_features=2048, out_features=1024, bias=True)
            (update_ltm): Identity()
            (norm_attn): LayerNorm((2048,), eps=1e-05, elementwise_affine=True)
            (norm_ltm): Identity()
            (proj_drop): Dropout(p=0.0, inplace=False)
          )
          (drop_path): DropPath()
          (norm2): LayerNorm((1024,), eps=1e-05, elementwise_affine=True)
          (mlp): Mlp(
            (fc1): Linear(in_features=1024, out_features=4096, bias=True)
            (act): GELU()
            (fc2): Linear(in_features=4096, out_features=1024, bias=True)
            (drop): Dropout(p=0.0, inplace=False)
          )
        )
      )
    )
  )
  (norm): LayerNorm((1024,), eps=1e-05, elementwise_affine=True)
  (avgpool): AdaptiveAvgPool1d(output_size=1)
  (head): Linear(in_features=1024, out_features=1000, bias=True)
)
[2024-07-29 16:43:26 lora-style-vcnu_swin_base_patch4_window7_224_22kto1k_finetune] (main.py 113): INFO number of params: 102532720
[2024-07-29 16:43:26 lora-style-vcnu_swin_base_patch4_window7_224_22kto1k_finetune] (main.py 116): INFO number of GFLOPs: 15.438473216
[2024-07-29 16:43:26 lora-style-vcnu_swin_base_patch4_window7_224_22kto1k_finetune] (main.py 150): INFO no checkpoint found in pretrain/lora-style-vcnu_finetune/lora-style-vcnu_swin_base_patch4_window7_224_22kto1k_finetune/lora-style-vcnu-swin-b-finetune, ignoring auto resume
…
