…
ble_amp": false, "amp_opt_level": null, "output": "/mnt/data/pretrain_weights/swin-mam/", "tag": "swin_mam_v2_base_p4_w7_224_22kto1k", "eval": false, "throughput": false, "local_rank": 0, "fused_window_process": false, "fused_layernorm": false, "optim": null}
[2024-05-27 19:07:56 swin_mam_v2_base_patch4_window7_224_22kto1k_finetune_4x] (main.py 93): INFO Creating model:swin_mam_v2/swin_mam_v2_base_patch4_window7_224_22kto1k_finetune_4x
[2024-05-27 19:07:58 swin_mam_v2_base_patch4_window7_224_22kto1k_finetune_4x] (main.py 95): INFO MemorySwinTransformerV2(
  (patch_embed): PatchEmbed(
    (proj): Conv2d(3, 128, kernel_size=(4, 4), stride=(4, 4))
    (norm): LayerNorm((128,), eps=1e-05, elementwise_affine=True)
  )
  (pos_drop): Dropout(p=0.0, inplace=False)
  (layers): ModuleList(
    (0): BasicLayer(
      dim=128, input_resolution=(56, 56), depth=2
      (blocks): ModuleList(
        (0): MemorySwinTransformerBlock(
          dim=128, input_resolution=(56, 56), num_heads=4, window_size=7, shift_size=0, mlp_ratio=4.0
          (norm1): LayerNorm((128,), eps=1e-05, elementwise_affine=True)
          (attn): MemoryWindowAttention(
            dim=128, window_size=(7, 7), num_heads=4
            (qkv): Linear(in_features=128, out_features=384, bias=True)
            (attn_drop): Dropout(p=0.0, inplace=False)
            (proj): Linear(in_features=128, out_features=128, bias=True)
            (proj_drop): Dropout(p=0.0, inplace=False)
            (proj_feature_to_latent_space): Linear(in_features=128, out_features=16, bias=True)
            (proj_latent_space_to_feature): Identity()
            (ltm_norm): LayerNorm((16,), eps=1e-05, elementwise_affine=True)
            (act): GELU()
            (softmax): Softmax(dim=-1)
          )
          (drop_path): Identity()
          (norm2): LayerNorm((128,), eps=1e-05, elementwise_affine=True)
          (mlp): Mlp(
            (fc1): Linear(in_features=128, out_features=512, bias=True)
            (act): GELU()
            (fc2): Linear(in_features=512, out_features=128, bias=True)
            (drop): Dropout(p=0.0, inplace=False)
          )
        )
        (1): MemorySwinTransformerBlock(
          dim=128, input_resolution=(56, 56), num_heads=4, window_size=7, shift_size=3, mlp_ratio=4.0
          (norm1): LayerNorm((128,), eps=1e-05, elementwise_affine=True)
          (attn): MemoryWindowAttention(
            dim=128, window_size=(7, 7), num_heads=4
            (qkv): Linear(in_features=128, out_features=384, bias=True)
            (attn_drop): Dropout(p=0.0, inplace=False)
            (proj): Linear(in_features=128, out_features=128, bias=True)
            (proj_drop): Dropout(p=0.0, inplace=False)
            (proj_feature_to_latent_space): Identity()
            (proj_latent_space_to_feature): Linear(in_features=16, out_features=128, bias=True)
            (ltm_norm): LayerNorm((16,), eps=1e-05, elementwise_affine=True)
            (act): GELU()
            (softmax): Softmax(dim=-1)
          )
          (drop_path): DropPath()
          (norm2): LayerNorm((128,), eps=1e-05, elementwise_affine=True)
          (mlp): Mlp(
            (fc1): Linear(in_features=128, out_features=512, bias=True)
            (act): GELU()
            (fc2): Linear(in_features=512, out_features=128, bias=True)
            (drop): Dropout(p=0.0, inplace=False)
          )
        )
      )
      (downsample): PatchMerging(
        input_resolution=(56, 56), dim=128
        (reduction): Linear(in_features=512, out_features=256, bias=False)
        (norm): LayerNorm((512,), eps=1e-05, elementwise_affine=True)
      )
    )
    (1): BasicLayer(
      dim=256, input_resolution=(28, 28), depth=2
      (blocks): ModuleList(
        (0): MemorySwinTransformerBlock(
          dim=256, input_resolution=(28, 28), num_heads=8, window_size=7, shift_size=0, mlp_ratio=4.0
          (norm1): LayerNorm((256,), eps=1e-05, elementwise_affine=True)
          (attn): MemoryWindowAttention(
            dim=256, window_size=(7, 7), num_heads=8
            (qkv): Linear(in_features=256, out_features=768, bias=True)
            (attn_drop): Dropout(p=0.0, inplace=False)
            (proj): Linear(in_features=256, out_features=256, bias=True)
            (proj_drop): Dropout(p=0.0, inplace=False)
            (proj_feature_to_latent_space): Linear(in_features=256, out_features=32, bias=True)
            (proj_latent_space_to_feature): Identity()
            (ltm_norm): LayerNorm((32,), eps=1e-05, elementwise_affine=True)
            (act): GELU()
            (softmax): Softmax(dim=-1)
          )
          (drop_path): DropPath()
          (norm2): LayerNorm((256,), eps=1e-05, elementwise_affine=True)
          (mlp): Mlp(
            (fc1): Linear(in_features=256, out_features=1024, bias=True)
            (act): GELU()
            (fc2): Linear(in_features=1024, out_features=256, bias=True)
            (drop): Dropout(p=0.0, inplace=False)
          )
        )
        (1): MemorySwinTransformerBlock(
          dim=256, input_resolution=(28, 28), num_heads=8, window_size=7, shift_size=3, mlp_ratio=4.0
          (norm1): LayerNorm((256,), eps=1e-05, elementwise_affine=True)
          (attn): MemoryWindowAttention(
            dim=256, window_size=(7, 7), num_heads=8
            (qkv): Linear(in_features=256, out_features=768, bias=True)
            (attn_drop): Dropout(p=0.0, inplace=False)
            (proj): Linear(in_features=256, out_features=256, bias=True)
            (proj_drop): Dropout(p=0.0, inplace=False)
            (proj_feature_to_latent_space): Identity()
            (proj_latent_space_to_feature): Linear(in_features=32, out_features=256, bias=True)
            (ltm_norm): LayerNorm((32,), eps=1e-05, elementwise_affine=True)
            (act): GELU()
            (softmax): Softmax(dim=-1)
          )
          (drop_path): DropPath()
          (norm2): LayerNorm((256,), eps=1e-05, elementwise_affine=True)
          (mlp): Mlp(
            (fc1): Linear(in_features=256, out_features=1024, bias=True)
            (act): GELU()
            (fc2): Linear(in_features=1024, out_features=256, bias=True)
            (drop): Dropout(p=0.0, inplace=False)
          )
        )
      )
      (downsample): PatchMerging(
        input_resolution=(28, 28), dim=256
        (reduction): Linear(in_features=1024, out_features=512, bias=False)
        (norm): LayerNorm((1024,), eps=1e-05, elementwise_affine=True)
      )
    )
    (2): BasicLayer(
      dim=512, input_resolution=(14, 14), depth=18
      (blocks): ModuleList(
        (0): MemorySwinTransformerBlock(
          dim=512, input_resolution=(14, 14), num_heads=16, window_size=7, shift_size=0, mlp_ratio=4.0
          (norm1): LayerNorm((512,), eps=1e-05, elementwise_affine=True)
          (attn): MemoryWindowAttention(
            dim=512, window_size=(7, 7), num_heads=16
            (qkv): Linear(in_features=512, out_features=1536, bias=True)
            (attn_drop): Dropout(p=0.0, inplace=False)
            (proj): Linear(in_features=512, out_features=512, bias=True)
            (proj_drop): Dropout(p=0.0, inplace=False)
            (proj_feature_to_latent_space): Linear(in_features=512, out_features=64, bias=True)
            (proj_latent_space_to_feature): Identity()
            (ltm_norm): LayerNorm((64,), eps=1e-05, elementwise_affine=True)
            (act): GELU()
            (softmax): Softmax(dim=-1)
          )
          (drop_path): DropPath()
          (norm2): LayerNorm((512,), eps=1e-05, elementwise_affine=True)
          (mlp): Mlp(
            (fc1): Linear(in_features=512, out_features=2048, bias=True)
            (act): GELU()
            (fc2): Linear(in_features=2048, out_features=512, bias=True)
            (drop): Dropout(p=0.0, inplace=False)
          )
        )
        (1): MemorySwinTransformerBlock(
          dim=512, input_resolution=(14, 14), num_heads=16, window_size=7, shift_size=3, mlp_ratio=4.0
          (norm1): LayerNorm((512,), eps=1e-05, elementwise_affine=True)
          (attn): MemoryWindowAttention(
            dim=512, window_size=(7, 7), num_heads=16
            (qkv): Linear(in_features=512, out_features=1536, bias=True)
            (attn_drop): Dropout(p=0.0, inplace=False)
            (proj): Linear(in_features=512, out_features=512, bias=True)
            (proj_drop): Dropout(p=0.0, inplace=False)
            (proj_feature_to_latent_space): Linear(in_features=512, out_features=64, bias=True)
            (proj_latent_space_to_feature): Linear(in_features=64, out_features=512, bias=True)
            (ltm_norm): LayerNorm((64,), eps=1e-05, elementwise_affine=True)
            (act): GELU()
            (softmax): Softmax(dim=-1)
          )
          (drop_path): DropPath()
          (norm2): LayerNorm((512,), eps=1e-05, elementwise_affine=True)
          (mlp): Mlp(
            (fc1): Linear(in_features=512, out_features=2048, bias=True)
            (act): GELU()
            (fc2): Linear(in_features=2048, out_features=512, bias=True)
            (drop): Dropout(p=0.0, inplace=False)
          )
        )
        (2): MemorySwinTransformerBlock(
          dim=512, input_resolution=(14, 14), num_heads=16, window_size=7, shift_size=0, mlp_ratio=4.0
          (norm1): LayerNorm((512,), eps=1e-05, elementwise_affine=True)
          (attn): MemoryWindowAttention(
            dim=512, window_size=(7, 7), num_heads=16
            (qkv): Linear(in_features=512, out_features=1536, bias=True)
            (attn_drop): Dropout(p=0.0, inplace=False)
            (proj): Linear(in_features=512, out_features=512, bias=True)
            (proj_drop): Dropout(p=0.0, inplace=False)
            (proj_feature_to_latent_space): Linear(in_features=512, out_features=64, bias=True)
            (proj_latent_space_to_feature): Linear(in_features=64, out_features=512, bias=True)
            (ltm_norm): LayerNorm((64,), eps=1e-05, elementwise_affine=True)
            (act): GELU()
            (softmax): Softmax(dim=-1)
          )
          (drop_path): DropPath()
          (norm2): LayerNorm((512,), eps=1e-05, elementwise_affine=True)
          (mlp): Mlp(
            (fc1): Linear(in_features=512, out_features=2048, bias=True)
            (act): GELU()
            (fc2): Linear(in_features=2048, out_features=512, bias=True)
            (drop): Dropout(p=0.0, inplace=False)
          )
        )
        (3): MemorySwinTransformerBlock(
          dim=512, input_resolution=(14, 14), num_heads=16, window_size=7, shift_size=3, mlp_ratio=4.0
          (norm1): LayerNorm((512,), eps=1e-05, elementwise_affine=True)
          (attn): MemoryWindowAttention(
            dim=512, window_size=(7, 7), num_heads=16
            (qkv): Linear(in_features=512, out_features=1536, bias=True)
            (attn_drop): Dropout(p=0.0, inplace=False)
            (proj): Linear(in_features=512, out_features=512, bias=True)
            (proj_drop): Dropout(p=0.0, inplace=False)
            (proj_feature_to_latent_space): Linear(in_features=512, out_features=64, bias=True)
            (proj_latent_space_to_feature): Linear(in_features=64, out_features=512, bias=True)
            (ltm_norm): LayerNorm((64,), eps=1e-05, elementwise_affine=True)
            (act): GELU()
            (softmax): Softmax(dim=-1)
          )
          (drop_path): DropPath()
          (norm2): LayerNorm((512,), eps=1e-05, elementwise_affine=True)
          (mlp): Mlp(
            (fc1): Linear(in_features=512, out_features=2048, bias=True)
            (act): GELU()
            (fc2): Linear(in_features=2048, out_features=512, bias=True)
            (drop): Dropout(p=0.0, inplace=False)
          )
        )
        (4): MemorySwinTransformerBlock(
          dim=512, input_resolution=(14, 14), num_heads=16, window_size=7, shift_size=0, mlp_ratio=4.0
          (norm1): LayerNorm((512,), eps=1e-05, elementwise_affine=True)
          (attn): MemoryWindowAttention(
            dim=512, window_size=(7, 7), num_heads=16
            (qkv): Linear(in_features=512, out_features=1536, bias=True)
            (attn_drop): Dropout(p=0.0, inplace=False)
            (proj): Linear(in_features=512, out_features=512, bias=True)
            (proj_drop): Dropout(p=0.0, inplace=False)
            (proj_feature_to_latent_space): Linear(in_features=512, out_features=64, bias=True)
            (proj_latent_space_to_feature): Linear(in_features=64, out_features=512, bias=True)
            (ltm_norm): LayerNorm((64,), eps=1e-05, elementwise_affine=True)
            (act): GELU()
            (softmax): Softmax(dim=-1)
          )
          (drop_path): DropPath()
          (norm2): LayerNorm((512,), eps=1e-05, elementwise_affine=True)
          (mlp): Mlp(
            (fc1): Linear(in_features=512, out_features=2048, bias=True)
            (act): GELU()
            (fc2): Linear(in_features=2048, out_features=512, bias=True)
            (drop): Dropout(p=0.0, inplace=False)
          )
        )
        (5): MemorySwinTransformerBlock(
          dim=512, input_resolution=(14, 14), num_heads=16, window_size=7, shift_size=3, mlp_ratio=4.0
          (norm1): LayerNorm((512,), eps=1e-05, elementwise_affine=True)
          (attn): MemoryWindowAttention(
            dim=512, window_size=(7, 7), num_heads=16
            (qkv): Linear(in_features=512, out_features=1536, bias=True)
            (attn_drop): Dropout(p=0.0, inplace=False)
            (proj): Linear(in_features=512, out_features=512, bias=True)
            (proj_drop): Dropout(p=0.0, inplace=False)
            (proj_feature_to_latent_space): Linear(in_features=512, out_features=64, bias=True)
            (proj_latent_space_to_feature): Linear(in_features=64, out_features=512, bias=True)
            (ltm_norm): LayerNorm((64,), eps=1e-05, elementwise_affine=True)
            (act): GELU()
            (softmax): Softmax(dim=-1)
          )
          (drop_path): DropPath()
          (norm2): LayerNorm((512,), eps=1e-05, elementwise_affine=True)
          (mlp): Mlp(
            (fc1): Linear(in_features=512, out_features=2048, bias=True)
            (act): GELU()
            (fc2): Linear(in_features=2048, out_features=512, bias=True)
            (drop): Dropout(p=0.0, inplace=False)
          )
        )
        (6): MemorySwinTransformerBlock(
          dim=512, input_resolution=(14, 14), num_heads=16, window_size=7, shift_size=0, mlp_ratio=4.0
          (norm1): LayerNorm((512,), eps=1e-05, elementwise_affine=True)
          (attn): MemoryWindowAttention(
            dim=512, window_size=(7, 7), num_heads=16
            (qkv): Linear(in_features=512, out_features=1536, bias=True)
            (attn_drop): Dropout(p=0.0, inplace=False)
            (proj): Linear(in_features=512, out_features=512, bias=True)
            (proj_drop): Dropout(p=0.0, inplace=False)
            (proj_feature_to_latent_space): Linear(in_features=512, out_features=64, bias=True)
            (proj_latent_space_to_feature): Linear(in_features=64, out_features=512, bias=True)
            (ltm_norm): LayerNorm((64,), eps=1e-05, elementwise_affine=True)
            (act): GELU()
            (softmax): Softmax(dim=-1)
          )
          (drop_path): DropPath()
          (norm2): LayerNorm((512,), eps=1e-05, elementwise_affine=True)
          (mlp): Mlp(
            (fc1): Linear(in_features=512, out_features=2048, bias=True)
            (act): GELU()
            (fc2): Linear(in_features=2048, out_features=512, bias=True)
            (drop): Dropout(p=0.0, inplace=False)
          )
        )
        (7): MemorySwinTransformerBlock(
          dim=512, input_resolution=(14, 14), num_heads=16, window_size=7, shift_size=3, mlp_ratio=4.0
          (norm1): LayerNorm((512,), eps=1e-05, elementwise_affine=True)
          (attn): MemoryWindowAttention(
            dim=512, window_size=(7, 7), num_heads=16
            (qkv): Linear(in_features=512, out_features=1536, bias=True)
            (attn_drop): Dropout(p=0.0, inplace=False)
            (proj): Linear(in_features=512, out_features=512, bias=True)
            (proj_drop): Dropout(p=0.0, inplace=False)
            (proj_feature_to_latent_space): Linear(in_features=512, out_features=64, bias=True)
            (proj_latent_space_to_feature): Linear(in_features=64, out_features=512, bias=True)
            (ltm_norm): LayerNorm((64,), eps=1e-05, elementwise_affine=True)
            (act): GELU()
            (softmax): Softmax(dim=-1)
          )
          (drop_path): DropPath()
          (norm2): LayerNorm((512,), eps=1e-05, elementwise_affine=True)
          (mlp): Mlp(
            (fc1): Linear(in_features=512, out_features=2048, bias=True)
            (act): GELU()
            (fc2): Linear(in_features=2048, out_features=512, bias=True)
            (drop): Dropout(p=0.0, inplace=False)
          )
        )
        (8): MemorySwinTransformerBlock(
          dim=512, input_resolution=(14, 14), num_heads=16, window_size=7, shift_size=0, mlp_ratio=4.0
          (norm1): LayerNorm((512,), eps=1e-05, elementwise_affine=True)
          (attn): MemoryWindowAttention(
            dim=512, window_size=(7, 7), num_heads=16
            (qkv): Linear(in_features=512, out_features=1536, bias=True)
            (attn_drop): Dropout(p=0.0, inplace=False)
            (proj): Linear(in_features=512, out_features=512, bias=True)
            (proj_drop): Dropout(p=0.0, inplace=False)
            (proj_feature_to_latent_space): Linear(in_features=512, out_features=64, bias=True)
            (proj_latent_space_to_feature): Linear(in_features=64, out_features=512, bias=True)
            (ltm_norm): LayerNorm((64,), eps=1e-05, elementwise_affine=True)
            (act): GELU()
            (softmax): Softmax(dim=-1)
          )
          (drop_path): DropPath()
          (norm2): LayerNorm((512,), eps=1e-05, elementwise_affine=True)
          (mlp): Mlp(
            (fc1): Linear(in_features=512, out_features=2048, bias=True)
            (act): GELU()
            (fc2): Linear(in_features=2048, out_features=512, bias=True)
            (drop): Dropout(p=0.0, inplace=False)
          )
        )
        (9): MemorySwinTransformerBlock(
          dim=512, input_resolution=(14, 14), num_heads=16, window_size=7, shift_size=3, mlp_ratio=4.0
          (norm1): LayerNorm((512,), eps=1e-05, elementwise_affine=True)
          (attn): MemoryWindowAttention(
            dim=512, window_size=(7, 7), num_heads=16
            (qkv): Linear(in_features=512, out_features=1536, bias=True)
            (attn_drop): Dropout(p=0.0, inplace=False)
            (proj): Linear(in_features=512, out_features=512, bias=True)
            (proj_drop): Dropout(p=0.0, inplace=False)
            (proj_feature_to_latent_space): Linear(in_features=512, out_features=64, bias=True)
            (proj_latent_space_to_feature): Linear(in_features=64, out_features=512, bias=True)
            (ltm_norm): LayerNorm((64,), eps=1e-05, elementwise_affine=True)
            (act): GELU()
            (softmax): Softmax(dim=-1)
          )
          (drop_path): DropPath()
          (norm2): LayerNorm((512,), eps=1e-05, elementwise_affine=True)
          (mlp): Mlp(
            (fc1): Linear(in_features=512, out_features=2048, bias=True)
            (act): GELU()
            (fc2): Linear(in_features=2048, out_features=512, bias=True)
            (drop): Dropout(p=0.0, inplace=False)
          )
        )
        (10): MemorySwinTransformerBlock(
          dim=512, input_resolution=(14, 14), num_heads=16, window_size=7, shift_size=0, mlp_ratio=4.0
          (norm1): LayerNorm((512,), eps=1e-05, elementwise_affine=True)
          (attn): MemoryWindowAttention(
            dim=512, window_size=(7, 7), num_heads=16
            (qkv): Linear(in_features=512, out_features=1536, bias=True)
            (attn_drop): Dropout(p=0.0, inplace=False)
            (proj): Linear(in_features=512, out_features=512, bias=True)
            (proj_drop): Dropout(p=0.0, inplace=False)
            (proj_feature_to_latent_space): Linear(in_features=512, out_features=64, bias=True)
            (proj_latent_space_to_feature): Linear(in_features=64, out_features=512, bias=True)
            (ltm_norm): LayerNorm((64,), eps=1e-05, elementwise_affine=True)
            (act): GELU()
            (softmax): Softmax(dim=-1)
          )
          (drop_path): DropPath()
          (norm2): LayerNorm((512,), eps=1e-05, elementwise_affine=True)
          (mlp): Mlp(
            (fc1): Linear(in_features=512, out_features=2048, bias=True)
            (act): GELU()
            (fc2): Linear(in_features=2048, out_features=512, bias=True)
            (drop): Dropout(p=0.0, inplace=False)
          )
        )
        (11): MemorySwinTransformerBlock(
          dim=512, input_resolution=(14, 14), num_heads=16, window_size=7, shift_size=3, mlp_ratio=4.0
          (norm1): LayerNorm((512,), eps=1e-05, elementwise_affine=True)
          (attn): MemoryWindowAttention(
            dim=512, window_size=(7, 7), num_heads=16
            (qkv): Linear(in_features=512, out_features=1536, bias=True)
            (attn_drop): Dropout(p=0.0, inplace=False)
            (proj): Linear(in_features=512, out_features=512, bias=True)
            (proj_drop): Dropout(p=0.0, inplace=False)
            (proj_feature_to_latent_space): Linear(in_features=512, out_features=64, bias=True)
            (proj_latent_space_to_feature): Linear(in_features=64, out_features=512, bias=True)
            (ltm_norm): LayerNorm((64,), eps=1e-05, elementwise_affine=True)
            (act): GELU()
            (softmax): Softmax(dim=-1)
          )
          (drop_path): DropPath()
          (norm2): LayerNorm((512,), eps=1e-05, elementwise_affine=True)
          (mlp): Mlp(
            (fc1): Linear(in_features=512, out_features=2048, bias=True)
            (act): GELU()
            (fc2): Linear(in_features=2048, out_features=512, bias=True)
            (drop): Dropout(p=0.0, inplace=False)
          )
        )
        (12): MemorySwinTransformerBlock(
          dim=512, input_resolution=(14, 14), num_heads=16, window_size=7, shift_size=0, mlp_ratio=4.0
          (norm1): LayerNorm((512,), eps=1e-05, elementwise_affine=True)
          (attn): MemoryWindowAttention(
            dim=512, window_size=(7, 7), num_heads=16
            (qkv): Linear(in_features=512, out_features=1536, bias=True)
            (attn_drop): Dropout(p=0.0, inplace=False)
            (proj): Linear(in_features=512, out_features=512, bias=True)
            (proj_drop): Dropout(p=0.0, inplace=False)
            (proj_feature_to_latent_space): Linear(in_features=512, out_features=64, bias=True)
            (proj_latent_space_to_feature): Linear(in_features=64, out_features=512, bias=True)
            (ltm_norm): LayerNorm((64,), eps=1e-05, elementwise_affine=True)
            (act): GELU()
            (softmax): Softmax(dim=-1)
          )
          (drop_path): DropPath()
          (norm2): LayerNorm((512,), eps=1e-05, elementwise_affine=True)
          (mlp): Mlp(
            (fc1): Linear(in_features=512, out_features=2048, bias=True)
            (act): GELU()
            (fc2): Linear(in_features=2048, out_features=512, bias=True)
            (drop): Dropout(p=0.0, inplace=False)
          )
        )
        (13): MemorySwinTransformerBlock(
          dim=512, input_resolution=(14, 14), num_heads=16, window_size=7, shift_size=3, mlp_ratio=4.0
          (norm1): LayerNorm((512,), eps=1e-05, elementwise_affine=True)
          (attn): MemoryWindowAttention(
            dim=512, window_size=(7, 7), num_heads=16
            (qkv): Linear(in_features=512, out_features=1536, bias=True)
            (attn_drop): Dropout(p=0.0, inplace=False)
            (proj): Linear(in_features=512, out_features=512, bias=True)
            (proj_drop): Dropout(p=0.0, inplace=False)
            (proj_feature_to_latent_space): Linear(in_features=512, out_features=64, bias=True)
            (proj_latent_space_to_feature): Linear(in_features=64, out_features=512, bias=True)
            (ltm_norm): LayerNorm((64,), eps=1e-05, elementwise_affine=True)
            (act): GELU()
            (softmax): Softmax(dim=-1)
          )
          (drop_path): DropPath()
          (norm2): LayerNorm((512,), eps=1e-05, elementwise_affine=True)
          (mlp): Mlp(
            (fc1): Linear(in_features=512, out_features=2048, bias=True)
            (act): GELU()
            (fc2): Linear(in_features=2048, out_features=512, bias=True)
            (drop): Dropout(p=0.0, inplace=False)
          )
        )
        (14): MemorySwinTransformerBlock(
          dim=512, input_resolution=(14, 14), num_heads=16, window_size=7, shift_size=0, mlp_ratio=4.0
          (norm1): LayerNorm((512,), eps=1e-05, elementwise_affine=True)
          (attn): MemoryWindowAttention(
            dim=512, window_size=(7, 7), num_heads=16
            (qkv): Linear(in_features=512, out_features=1536, bias=True)
            (attn_drop): Dropout(p=0.0, inplace=False)
            (proj): Linear(in_features=512, out_features=512, bias=True)
            (proj_drop): Dropout(p=0.0, inplace=False)
            (proj_feature_to_latent_space): Linear(in_features=512, out_features=64, bias=True)
            (proj_latent_space_to_feature): Linear(in_features=64, out_features=512, bias=True)
            (ltm_norm): LayerNorm((64,), eps=1e-05, elementwise_affine=True)
            (act): GELU()
            (softmax): Softmax(dim=-1)
          )
          (drop_path): DropPath()
          (norm2): LayerNorm((512,), eps=1e-05, elementwise_affine=True)
          (mlp): Mlp(
            (fc1): Linear(in_features=512, out_features=2048, bias=True)
            (act): GELU()
            (fc2): Linear(in_features=2048, out_features=512, bias=True)
            (drop): Dropout(p=0.0, inplace=False)
          )
        )
        (15): MemorySwinTransformerBlock(
          dim=512, input_resolution=(14, 14), num_heads=16, window_size=7, shift_size=3, mlp_ratio=4.0
          (norm1): LayerNorm((512,), eps=1e-05, elementwise_affine=True)
          (attn): MemoryWindowAttention(
            dim=512, window_size=(7, 7), num_heads=16
            (qkv): Linear(in_features=512, out_features=1536, bias=True)
            (attn_drop): Dropout(p=0.0, inplace=False)
            (proj): Linear(in_features=512, out_features=512, bias=True)
            (proj_drop): Dropout(p=0.0, inplace=False)
            (proj_feature_to_latent_space): Linear(in_features=512, out_features=64, bias=True)
            (proj_latent_space_to_feature): Linear(in_features=64, out_features=512, bias=True)
            (ltm_norm): LayerNorm((64,), eps=1e-05, elementwise_affine=True)
            (act): GELU()
            (softmax): Softmax(dim=-1)
          )
          (drop_path): DropPath()
          (norm2): LayerNorm((512,), eps=1e-05, elementwise_affine=True)
          (mlp): Mlp(
            (fc1): Linear(in_features=512, out_features=2048, bias=True)
            (act): GELU()
            (fc2): Linear(in_features=2048, out_features=512, bias=True)
            (drop): Dropout(p=0.0, inplace=False)
          )
        )
        (16): MemorySwinTransformerBlock(
          dim=512, input_resolution=(14, 14), num_heads=16, window_size=7, shift_size=0, mlp_ratio=4.0
          (norm1): LayerNorm((512,), eps=1e-05, elementwise_affine=True)
          (attn): MemoryWindowAttention(
            dim=512, window_size=(7, 7), num_heads=16
            (qkv): Linear(in_features=512, out_features=1536, bias=True)
            (attn_drop): Dropout(p=0.0, inplace=False)
            (proj): Linear(in_features=512, out_features=512, bias=True)
            (proj_drop): Dropout(p=0.0, inplace=False)
            (proj_feature_to_latent_space): Linear(in_features=512, out_features=64, bias=True)
            (proj_latent_space_to_feature): Linear(in_features=64, out_features=512, bias=True)
            (ltm_norm): LayerNorm((64,), eps=1e-05, elementwise_affine=True)
            (act): GELU()
            (softmax): Softmax(dim=-1)
          )
          (drop_path): DropPath()
          (norm2): LayerNorm((512,), eps=1e-05, elementwise_affine=True)
          (mlp): Mlp(
            (fc1): Linear(in_features=512, out_features=2048, bias=True)
            (act): GELU()
            (fc2): Linear(in_features=2048, out_features=512, bias=True)
            (drop): Dropout(p=0.0, inplace=False)
          )
        )
        (17): MemorySwinTransformerBlock(
          dim=512, input_resolution=(14, 14), num_heads=16, window_size=7, shift_size=3, mlp_ratio=4.0
          (norm1): LayerNorm((512,), eps=1e-05, elementwise_affine=True)
          (attn): MemoryWindowAttention(
            dim=512, window_size=(7, 7), num_heads=16
            (qkv): Linear(in_features=512, out_features=1536, bias=True)
            (attn_drop): Dropout(p=0.0, inplace=False)
            (proj): Linear(in_features=512, out_features=512, bias=True)
            (proj_drop): Dropout(p=0.0, inplace=False)
            (proj_feature_to_latent_space): Identity()
            (proj_latent_space_to_feature): Linear(in_features=64, out_features=512, bias=True)
            (ltm_norm): LayerNorm((64,), eps=1e-05, elementwise_affine=True)
            (act): GELU()
            (softmax): Softmax(dim=-1)
          )
          (drop_path): DropPath()
          (norm2): LayerNorm((512,), eps=1e-05, elementwise_affine=True)
          (mlp): Mlp(
            (fc1): Linear(in_features=512, out_features=2048, bias=True)
            (act): GELU()
            (fc2): Linear(in_features=2048, out_features=512, bias=True)
            (drop): Dropout(p=0.0, inplace=False)
          )
        )
      )
      (downsample): PatchMerging(
        input_resolution=(14, 14), dim=512
        (reduction): Linear(in_features=2048, out_features=1024, bias=False)
        (norm): LayerNorm((2048,), eps=1e-05, elementwise_affine=True)
      )
    )
    (3): BasicLayer(
      dim=1024, input_resolution=(7, 7), depth=2
      (blocks): ModuleList(
        (0): MemorySwinTransformerBlock(
          dim=1024, input_resolution=(7, 7), num_heads=32, window_size=7, shift_size=0, mlp_ratio=4.0
          (norm1): LayerNorm((1024,), eps=1e-05, elementwise_affine=True)
          (attn): MemoryWindowAttention(
            dim=1024, window_size=(7, 7), num_heads=32
            (qkv): Linear(in_features=1024, out_features=3072, bias=True)
            (attn_drop): Dropout(p=0.0, inplace=False)
            (proj): Linear(in_features=1024, out_features=1024, bias=True)
            (proj_drop): Dropout(p=0.0, inplace=False)
            (proj_feature_to_latent_space): Linear(in_features=1024, out_features=12, bias=True)
            (proj_latent_space_to_feature): Identity()
            (ltm_norm): LayerNorm((12,), eps=1e-05, elementwise_affine=True)
            (act): GELU()
            (softmax): Softmax(dim=-1)
          )
          (drop_path): DropPath()
          (norm2): LayerNorm((1024,), eps=1e-05, elementwise_affine=True)
          (mlp): Mlp(
            (fc1): Linear(in_features=1024, out_features=4096, bias=True)
            (act): GELU()
            (fc2): Linear(in_features=4096, out_features=1024, bias=True)
            (drop): Dropout(p=0.0, inplace=False)
          )
        )
        (1): MemorySwinTransformerBlock(
          dim=1024, input_resolution=(7, 7), num_heads=32, window_size=7, shift_size=0, mlp_ratio=4.0
          (norm1): LayerNorm((1024,), eps=1e-05, elementwise_affine=True)
          (attn): MemoryWindowAttention(
            dim=1024, window_size=(7, 7), num_heads=32
            (qkv): Linear(in_features=1024, out_features=3072, bias=True)
            (attn_drop): Dropout(p=0.0, inplace=False)
            (proj): Linear(in_features=1024, out_features=1024, bias=True)
            (proj_drop): Dropout(p=0.0, inplace=False)
            (proj_feature_to_latent_space): Identity()
            (proj_latent_space_to_feature): Linear(in_features=12, out_features=1024, bias=True)
            (ltm_norm): LayerNorm((12,), eps=1e-05, elementwise_affine=True)
            (act): GELU()
            (softmax): Softmax(dim=-1)
          )
          (drop_path): DropPath()
          (norm2): LayerNorm((1024,), eps=1e-05, elementwise_affine=True)
          (mlp): Mlp(
            (fc1): Linear(in_features=1024, out_features=4096, bias=True)
            (act): GELU()
            (fc2): Linear(in_features=4096, out_features=1024, bias=True)
            (drop): Dropout(p=0.0, inplace=False)
          )
        )
      )
    )
  )
  (norm): LayerNorm((1024,), eps=1e-05, elementwise_affine=True)
  (avgpool): AdaptiveAvgPool1d(output_size=1)
  (head): Linear(in_features=1024, out_features=1000, bias=True)
)
[2024-05-27 19:07:58 swin_mam_v2_base_patch4_window7_224_22kto1k_finetune_4x] (main.py 98): INFO number of params: 88941196
[2024-05-27 19:07:58 swin_mam_v2_base_patch4_window7_224_22kto1k_finetune_4x] (main.py 101): INFO number of GFLOPs: 15.438473216
[2024-05-27 19:07:58 swin_mam_v2_base_patch4_window7_224_22kto1k_finetune_4x] (main.py 136): INFO no checkpoint found in /mnt/data/pretrain_weights/swin-mam/swin_mam_v2_base_patch4_window7_224_22kto1k_finetune_4x/swin_mam_v2_base_p4_w7_224_22kto1k, ignoring auto resume
…
ble_amp": false, "amp_opt_level": null, "output": "/mnt/data/pretrain_weights/swin-mam/", "tag": "swin_mam_v2_base_p4_w7_224_22kto1k", "eval": false, "throughput": false, "local_rank": 0, "fused_window_process": false, "fused_layernorm": false, "optim": null}
[2024-05-27 19:32:26 swin_mam_v2_base_patch4_window7_224_22kto1k_finetune_4x] (main.py 93): INFO Creating model:swin_mam_v2/swin_mam_v2_base_patch4_window7_224_22kto1k_finetune_4x
[2024-05-27 19:32:29 swin_mam_v2_base_patch4_window7_224_22kto1k_finetune_4x] (main.py 95): INFO MemorySwinTransformerV2(
  (patch_embed): PatchEmbed(
    (proj): Conv2d(3, 128, kernel_size=(4, 4), stride=(4, 4))
    (norm): LayerNorm((128,), eps=1e-05, elementwise_affine=True)
  )
  (pos_drop): Dropout(p=0.0, inplace=False)
  (layers): ModuleList(
    (0): BasicLayer(
      dim=128, input_resolution=(56, 56), depth=2
      (blocks): ModuleList(
        (0): MemorySwinTransformerBlock(
          dim=128, input_resolution=(56, 56), num_heads=4, window_size=7, shift_size=0, mlp_ratio=4.0
          (norm1): LayerNorm((128,), eps=1e-05, elementwise_affine=True)
          (attn): MemoryWindowAttention(
            dim=128, window_size=(7, 7), num_heads=4
            (qkv): Linear(in_features=128, out_features=384, bias=True)
            (attn_drop): Dropout(p=0.0, inplace=False)
            (proj): Linear(in_features=128, out_features=128, bias=True)
            (proj_drop): Dropout(p=0.0, inplace=False)
            (proj_feature_to_latent_space): Linear(in_features=128, out_features=16, bias=True)
            (proj_latent_space_to_feature): Identity()
            (ltm_norm): Identity()
            (act): GELU()
            (softmax): Softmax(dim=-1)
          )
          (drop_path): Identity()
          (norm2): LayerNorm((128,), eps=1e-05, elementwise_affine=True)
          (mlp): Mlp(
            (fc1): Linear(in_features=128, out_features=512, bias=True)
            (act): GELU()
            (fc2): Linear(in_features=512, out_features=128, bias=True)
            (drop): Dropout(p=0.0, inplace=False)
          )
        )
        (1): MemorySwinTransformerBlock(
          dim=128, input_resolution=(56, 56), num_heads=4, window_size=7, shift_size=3, mlp_ratio=4.0
          (norm1): LayerNorm((128,), eps=1e-05, elementwise_affine=True)
          (attn): MemoryWindowAttention(
            dim=128, window_size=(7, 7), num_heads=4
            (qkv): Linear(in_features=128, out_features=384, bias=True)
            (attn_drop): Dropout(p=0.0, inplace=False)
            (proj): Linear(in_features=128, out_features=128, bias=True)
            (proj_drop): Dropout(p=0.0, inplace=False)
            (proj_feature_to_latent_space): Identity()
            (proj_latent_space_to_feature): Linear(in_features=16, out_features=128, bias=True)
            (ltm_norm): Identity()
            (act): GELU()
            (softmax): Softmax(dim=-1)
          )
          (drop_path): DropPath()
          (norm2): LayerNorm((128,), eps=1e-05, elementwise_affine=True)
          (mlp): Mlp(
            (fc1): Linear(in_features=128, out_features=512, bias=True)
            (act): GELU()
            (fc2): Linear(in_features=512, out_features=128, bias=True)
            (drop): Dropout(p=0.0, inplace=False)
          )
        )
      )
      (downsample): PatchMerging(
        input_resolution=(56, 56), dim=128
        (reduction): Linear(in_features=512, out_features=256, bias=False)
        (norm): LayerNorm((512,), eps=1e-05, elementwise_affine=True)
      )
    )
    (1): BasicLayer(
      dim=256, input_resolution=(28, 28), depth=2
      (blocks): ModuleList(
        (0): MemorySwinTransformerBlock(
          dim=256, input_resolution=(28, 28), num_heads=8, window_size=7, shift_size=0, mlp_ratio=4.0
          (norm1): LayerNorm((256,), eps=1e-05, elementwise_affine=True)
          (attn): MemoryWindowAttention(
            dim=256, window_size=(7, 7), num_heads=8
            (qkv): Linear(in_features=256, out_features=768, bias=True)
            (attn_drop): Dropout(p=0.0, inplace=False)
            (proj): Linear(in_features=256, out_features=256, bias=True)
            (proj_drop): Dropout(p=0.0, inplace=False)
            (proj_feature_to_latent_space): Linear(in_features=256, out_features=32, bias=True)
            (proj_latent_space_to_feature): Identity()
            (ltm_norm): Identity()
            (act): GELU()
            (softmax): Softmax(dim=-1)
          )
          (drop_path): DropPath()
          (norm2): LayerNorm((256,), eps=1e-05, elementwise_affine=True)
          (mlp): Mlp(
            (fc1): Linear(in_features=256, out_features=1024, bias=True)
            (act): GELU()
            (fc2): Linear(in_features=1024, out_features=256, bias=True)
            (drop): Dropout(p=0.0, inplace=False)
          )
        )
        (1): MemorySwinTransformerBlock(
          dim=256, input_resolution=(28, 28), num_heads=8, window_size=7, shift_size=3, mlp_ratio=4.0
          (norm1): LayerNorm((256,), eps=1e-05, elementwise_affine=True)
          (attn): MemoryWindowAttention(
            dim=256, window_size=(7, 7), num_heads=8
            (qkv): Linear(in_features=256, out_features=768, bias=True)
            (attn_drop): Dropout(p=0.0, inplace=False)
            (proj): Linear(in_features=256, out_features=256, bias=True)
            (proj_drop): Dropout(p=0.0, inplace=False)
            (proj_feature_to_latent_space): Identity()
            (proj_latent_space_to_feature): Linear(in_features=32, out_features=256, bias=True)
            (ltm_norm): Identity()
            (act): GELU()
            (softmax): Softmax(dim=-1)
          )
          (drop_path): DropPath()
          (norm2): LayerNorm((256,), eps=1e-05, elementwise_affine=True)
          (mlp): Mlp(
            (fc1): Linear(in_features=256, out_features=1024, bias=True)
            (act): GELU()
            (fc2): Linear(in_features=1024, out_features=256, bias=True)
            (drop): Dropout(p=0.0, inplace=False)
          )
        )
      )
      (downsample): PatchMerging(
        input_resolution=(28, 28), dim=256
        (reduction): Linear(in_features=1024, out_features=512, bias=False)
        (norm): LayerNorm((1024,), eps=1e-05, elementwise_affine=True)
      )
    )
    (2): BasicLayer(
      dim=512, input_resolution=(14, 14), depth=18
      (blocks): ModuleList(
        (0): MemorySwinTransformerBlock(
          dim=512, input_resolution=(14, 14), num_heads=16, window_size=7, shift_size=0, mlp_ratio=4.0
          (norm1): LayerNorm((512,), eps=1e-05, elementwise_affine=True)
          (attn): MemoryWindowAttention(
            dim=512, window_size=(7, 7), num_heads=16
            (qkv): Linear(in_features=512, out_features=1536, bias=True)
            (attn_drop): Dropout(p=0.0, inplace=False)
            (proj): Linear(in_features=512, out_features=512, bias=True)
            (proj_drop): Dropout(p=0.0, inplace=False)
            (proj_feature_to_latent_space): Linear(in_features=512, out_features=64, bias=True)
            (proj_latent_space_to_feature): Identity()
            (ltm_norm): Identity()
            (act): GELU()
            (softmax): Softmax(dim=-1)
          )
          (drop_path): DropPath()
          (norm2): LayerNorm((512,), eps=1e-05, elementwise_affine=True)
          (mlp): Mlp(
            (fc1): Linear(in_features=512, out_features=2048, bias=True)
            (act): GELU()
            (fc2): Linear(in_features=2048, out_features=512, bias=True)
            (drop): Dropout(p=0.0, inplace=False)
          )
        )
        (1): MemorySwinTransformerBlock(
          dim=512, input_resolution=(14, 14), num_heads=16, window_size=7, shift_size=3, mlp_ratio=4.0
          (norm1): LayerNorm((512,), eps=1e-05, elementwise_affine=True)
          (attn): MemoryWindowAttention(
            dim=512, window_size=(7, 7), num_heads=16
            (qkv): Linear(in_features=512, out_features=1536, bias=True)
            (attn_drop): Dropout(p=0.0, inplace=False)
            (proj): Linear(in_features=512, out_features=512, bias=True)
            (proj_drop): Dropout(p=0.0, inplace=False)
            (proj_feature_to_latent_space): Linear(in_features=512, out_features=64, bias=True)
            (proj_latent_space_to_feature): Linear(in_features=64, out_features=512, bias=True)
            (ltm_norm): Identity()
            (act): GELU()
            (softmax): Softmax(dim=-1)
          )
          (drop_path): DropPath()
          (norm2): LayerNorm((512,), eps=1e-05, elementwise_affine=True)
          (mlp): Mlp(
            (fc1): Linear(in_features=512, out_features=2048, bias=True)
            (act): GELU()
            (fc2): Linear(in_features=2048, out_features=512, bias=True)
            (drop): Dropout(p=0.0, inplace=False)
          )
        )
        (2): MemorySwinTransformerBlock(
          dim=512, input_resolution=(14, 14), num_heads=16, window_size=7, shift_size=0, mlp_ratio=4.0
          (norm1): LayerNorm((512,), eps=1e-05, elementwise_affine=True)
          (attn): MemoryWindowAttention(
            dim=512, window_size=(7, 7), num_heads=16
            (qkv): Linear(in_features=512, out_features=1536, bias=True)
            (attn_drop): Dropout(p=0.0, inplace=False)
            (proj): Linear(in_features=512, out_features=512, bias=True)
            (proj_drop): Dropout(p=0.0, inplace=False)
            (proj_feature_to_latent_space): Linear(in_features=512, out_features=64, bias=True)
            (proj_latent_space_to_feature): Linear(in_features=64, out_features=512, bias=True)
            (ltm_norm): Identity()
            (act): GELU()
            (softmax): Softmax(dim=-1)
          )
          (drop_path): DropPath()
          (norm2): LayerNorm((512,), eps=1e-05, elementwise_affine=True)
          (mlp): Mlp(
            (fc1): Linear(in_features=512, out_features=2048, bias=True)
            (act): GELU()
            (fc2): Linear(in_features=2048, out_features=512, bias=True)
            (drop): Dropout(p=0.0, inplace=False)
          )
        )
        (3): MemorySwinTransformerBlock(
          dim=512, input_resolution=(14, 14), num_heads=16, window_size=7, shift_size=3, mlp_ratio=4.0
          (norm1): LayerNorm((512,), eps=1e-05, elementwise_affine=True)
          (attn): MemoryWindowAttention(
            dim=512, window_size=(7, 7), num_heads=16
            (qkv): Linear(in_features=512, out_features=1536, bias=True)
            (attn_drop): Dropout(p=0.0, inplace=False)
            (proj): Linear(in_features=512, out_features=512, bias=True)
            (proj_drop): Dropout(p=0.0, inplace=False)
            (proj_feature_to_latent_space): Linear(in_features=512, out_features=64, bias=True)
            (proj_latent_space_to_feature): Linear(in_features=64, out_features=512, bias=True)
            (ltm_norm): Identity()
            (act): GELU()
            (softmax): Softmax(dim=-1)
          )
          (drop_path): DropPath()
          (norm2): LayerNorm((512,), eps=1e-05, elementwise_affine=True)
          (mlp): Mlp(
            (fc1): Linear(in_features=512, out_features=2048, bias=True)
            (act): GELU()
            (fc2): Linear(in_features=2048, out_features=512, bias=True)
            (drop): Dropout(p=0.0, inplace=False)
          )
        )
        (4): MemorySwinTransformerBlock(
          dim=512, input_resolution=(14, 14), num_heads=16, window_size=7, shift_size=0, mlp_ratio=4.0
          (norm1): LayerNorm((512,), eps=1e-05, elementwise_affine=True)
          (attn): MemoryWindowAttention(
            dim=512, window_size=(7, 7), num_heads=16
            (qkv): Linear(in_features=512, out_features=1536, bias=True)
            (attn_drop): Dropout(p=0.0, inplace=False)
            (proj): Linear(in_features=512, out_features=512, bias=True)
            (proj_drop): Dropout(p=0.0, inplace=False)
            (proj_feature_to_latent_space): Linear(in_features=512, out_features=64, bias=True)
            (proj_latent_space_to_feature): Linear(in_features=64, out_features=512, bias=True)
            (ltm_norm): Identity()
            (act): GELU()
            (softmax): Softmax(dim=-1)
          )
          (drop_path): DropPath()
          (norm2): LayerNorm((512,), eps=1e-05, elementwise_affine=True)
          (mlp): Mlp(
            (fc1): Linear(in_features=512, out_features=2048, bias=True)
            (act): GELU()
            (fc2): Linear(in_features=2048, out_features=512, bias=True)
            (drop): Dropout(p=0.0, inplace=False)
          )
        )
        (5): MemorySwinTransformerBlock(
          dim=512, input_resolution=(14, 14), num_heads=16, window_size=7, shift_size=3, mlp_ratio=4.0
          (norm1): LayerNorm((512,), eps=1e-05, elementwise_affine=True)
          (attn): MemoryWindowAttention(
            dim=512, window_size=(7, 7), num_heads=16
            (qkv): Linear(in_features=512, out_features=1536, bias=True)
            (attn_drop): Dropout(p=0.0, inplace=False)
            (proj): Linear(in_features=512, out_features=512, bias=True)
            (proj_drop): Dropout(p=0.0, inplace=False)
            (proj_feature_to_latent_space): Linear(in_features=512, out_features=64, bias=True)
            (proj_latent_space_to_feature): Linear(in_features=64, out_features=512, bias=True)
            (ltm_norm): Identity()
            (act): GELU()
            (softmax): Softmax(dim=-1)
          )
          (drop_path): DropPath()
          (norm2): LayerNorm((512,), eps=1e-05, elementwise_affine=True)
          (mlp): Mlp(
            (fc1): Linear(in_features=512, out_features=2048, bias=True)
            (act): GELU()
            (fc2): Linear(in_features=2048, out_features=512, bias=True)
            (drop): Dropout(p=0.0, inplace=False)
          )
        )
        (6): MemorySwinTransformerBlock(
          dim=512, input_resolution=(14, 14), num_heads=16, window_size=7, shift_size=0, mlp_ratio=4.0
          (norm1): LayerNorm((512,), eps=1e-05, elementwise_affine=True)
          (attn): MemoryWindowAttention(
            dim=512, window_size=(7, 7), num_heads=16
            (qkv): Linear(in_features=512, out_features=1536, bias=True)
            (attn_drop): Dropout(p=0.0, inplace=False)
            (proj): Linear(in_features=512, out_features=512, bias=True)
            (proj_drop): Dropout(p=0.0, inplace=False)
            (proj_feature_to_latent_space): Linear(in_features=512, out_features=64, bias=True)
            (proj_latent_space_to_feature): Linear(in_features=64, out_features=512, bias=True)
            (ltm_norm): Identity()
            (act): GELU()
            (softmax): Softmax(dim=-1)
          )
          (drop_path): DropPath()
          (norm2): LayerNorm((512,), eps=1e-05, elementwise_affine=True)
          (mlp): Mlp(
            (fc1): Linear(in_features=512, out_features=2048, bias=True)
            (act): GELU()
            (fc2): Linear(in_features=2048, out_features=512, bias=True)
            (drop): Dropout(p=0.0, inplace=False)
          )
        )
        (7): MemorySwinTransformerBlock(
          dim=512, input_resolution=(14, 14), num_heads=16, window_size=7, shift_size=3, mlp_ratio=4.0
          (norm1): LayerNorm((512,), eps=1e-05, elementwise_affine=True)
          (attn): MemoryWindowAttention(
            dim=512, window_size=(7, 7), num_heads=16
            (qkv): Linear(in_features=512, out_features=1536, bias=True)
            (attn_drop): Dropout(p=0.0, inplace=False)
            (proj): Linear(in_features=512, out_features=512, bias=True)
            (proj_drop): Dropout(p=0.0, inplace=False)
            (proj_feature_to_latent_space): Linear(in_features=512, out_features=64, bias=True)
            (proj_latent_space_to_feature): Linear(in_features=64, out_features=512, bias=True)
            (ltm_norm): Identity()
            (act): GELU()
            (softmax): Softmax(dim=-1)
          )
          (drop_path): DropPath()
          (norm2): LayerNorm((512,), eps=1e-05, elementwise_affine=True)
          (mlp): Mlp(
            (fc1): Linear(in_features=512, out_features=2048, bias=True)
            (act): GELU()
            (fc2): Linear(in_features=2048, out_features=512, bias=True)
            (drop): Dropout(p=0.0, inplace=False)
          )
        )
        (8): MemorySwinTransformerBlock(
          dim=512, input_resolution=(14, 14), num_heads=16, window_size=7, shift_size=0, mlp_ratio=4.0
          (norm1): LayerNorm((512,), eps=1e-05, elementwise_affine=True)
          (attn): MemoryWindowAttention(
            dim=512, window_size=(7, 7), num_heads=16
            (qkv): Linear(in_features=512, out_features=1536, bias=True)
            (attn_drop): Dropout(p=0.0, inplace=False)
            (proj): Linear(in_features=512, out_features=512, bias=True)
            (proj_drop): Dropout(p=0.0, inplace=False)
            (proj_feature_to_latent_space): Linear(in_features=512, out_features=64, bias=True)
            (proj_latent_space_to_feature): Linear(in_features=64, out_features=512, bias=True)
            (ltm_norm): Identity()
            (act): GELU()
            (softmax): Softmax(dim=-1)
          )
          (drop_path): DropPath()
          (norm2): LayerNorm((512,), eps=1e-05, elementwise_affine=True)
          (mlp): Mlp(
            (fc1): Linear(in_features=512, out_features=2048, bias=True)
            (act): GELU()
            (fc2): Linear(in_features=2048, out_features=512, bias=True)
            (drop): Dropout(p=0.0, inplace=False)
          )
        )
        (9): MemorySwinTransformerBlock(
          dim=512, input_resolution=(14, 14), num_heads=16, window_size=7, shift_size=3, mlp_ratio=4.0
          (norm1): LayerNorm((512,), eps=1e-05, elementwise_affine=True)
          (attn): MemoryWindowAttention(
            dim=512, window_size=(7, 7), num_heads=16
            (qkv): Linear(in_features=512, out_features=1536, bias=True)
            (attn_drop): Dropout(p=0.0, inplace=False)
            (proj): Linear(in_features=512, out_features=512, bias=True)
            (proj_drop): Dropout(p=0.0, inplace=False)
            (proj_feature_to_latent_space): Linear(in_features=512, out_features=64, bias=True)
            (proj_latent_space_to_feature): Linear(in_features=64, out_features=512, bias=True)
            (ltm_norm): Identity()
            (act): GELU()
            (softmax): Softmax(dim=-1)
          )
          (drop_path): DropPath()
          (norm2): LayerNorm((512,), eps=1e-05, elementwise_affine=True)
          (mlp): Mlp(
            (fc1): Linear(in_features=512, out_features=2048, bias=True)
            (act): GELU()
            (fc2): Linear(in_features=2048, out_features=512, bias=True)
            (drop): Dropout(p=0.0, inplace=False)
          )
        )
        (10): MemorySwinTransformerBlock(
          dim=512, input_resolution=(14, 14), num_heads=16, window_size=7, shift_size=0, mlp_ratio=4.0
          (norm1): LayerNorm((512,), eps=1e-05, elementwise_affine=True)
          (attn): MemoryWindowAttention(
            dim=512, window_size=(7, 7), num_heads=16
            (qkv): Linear(in_features=512, out_features=1536, bias=True)
            (attn_drop): Dropout(p=0.0, inplace=False)
            (proj): Linear(in_features=512, out_features=512, bias=True)
            (proj_drop): Dropout(p=0.0, inplace=False)
            (proj_feature_to_latent_space): Linear(in_features=512, out_features=64, bias=True)
            (proj_latent_space_to_feature): Linear(in_features=64, out_features=512, bias=True)
            (ltm_norm): Identity()
            (act): GELU()
            (softmax): Softmax(dim=-1)
          )
          (drop_path): DropPath()
          (norm2): LayerNorm((512,), eps=1e-05, elementwise_affine=True)
          (mlp): Mlp(
            (fc1): Linear(in_features=512, out_features=2048, bias=True)
            (act): GELU()
            (fc2): Linear(in_features=2048, out_features=512, bias=True)
            (drop): Dropout(p=0.0, inplace=False)
          )
        )
        (11): MemorySwinTransformerBlock(
          dim=512, input_resolution=(14, 14), num_heads=16, window_size=7, shift_size=3, mlp_ratio=4.0
          (norm1): LayerNorm((512,), eps=1e-05, elementwise_affine=True)
          (attn): MemoryWindowAttention(
            dim=512, window_size=(7, 7), num_heads=16
            (qkv): Linear(in_features=512, out_features=1536, bias=True)
            (attn_drop): Dropout(p=0.0, inplace=False)
            (proj): Linear(in_features=512, out_features=512, bias=True)
            (proj_drop): Dropout(p=0.0, inplace=False)
            (proj_feature_to_latent_space): Linear(in_features=512, out_features=64, bias=True)
            (proj_latent_space_to_feature): Linear(in_features=64, out_features=512, bias=True)
            (ltm_norm): Identity()
            (act): GELU()
            (softmax): Softmax(dim=-1)
          )
          (drop_path): DropPath()
          (norm2): LayerNorm((512,), eps=1e-05, elementwise_affine=True)
          (mlp): Mlp(
            (fc1): Linear(in_features=512, out_features=2048, bias=True)
            (act): GELU()
            (fc2): Linear(in_features=2048, out_features=512, bias=True)
            (drop): Dropout(p=0.0, inplace=False)
          )
        )
        (12): MemorySwinTransformerBlock(
          dim=512, input_resolution=(14, 14), num_heads=16, window_size=7, shift_size=0, mlp_ratio=4.0
          (norm1): LayerNorm((512,), eps=1e-05, elementwise_affine=True)
          (attn): MemoryWindowAttention(
            dim=512, window_size=(7, 7), num_heads=16
            (qkv): Linear(in_features=512, out_features=1536, bias=True)
            (attn_drop): Dropout(p=0.0, inplace=False)
            (proj): Linear(in_features=512, out_features=512, bias=True)
            (proj_drop): Dropout(p=0.0, inplace=False)
            (proj_feature_to_latent_space): Linear(in_features=512, out_features=64, bias=True)
            (proj_latent_space_to_feature): Linear(in_features=64, out_features=512, bias=True)
            (ltm_norm): Identity()
            (act): GELU()
            (softmax): Softmax(dim=-1)
          )
          (drop_path): DropPath()
          (norm2): LayerNorm((512,), eps=1e-05, elementwise_affine=True)
          (mlp): Mlp(
            (fc1): Linear(in_features=512, out_features=2048, bias=True)
            (act): GELU()
            (fc2): Linear(in_features=2048, out_features=512, bias=True)
            (drop): Dropout(p=0.0, inplace=False)
          )
        )
        (13): MemorySwinTransformerBlock(
          dim=512, input_resolution=(14, 14), num_heads=16, window_size=7, shift_size=3, mlp_ratio=4.0
          (norm1): LayerNorm((512,), eps=1e-05, elementwise_affine=True)
          (attn): MemoryWindowAttention(
            dim=512, window_size=(7, 7), num_heads=16
            (qkv): Linear(in_features=512, out_features=1536, bias=True)
            (attn_drop): Dropout(p=0.0, inplace=False)
            (proj): Linear(in_features=512, out_features=512, bias=True)
            (proj_drop): Dropout(p=0.0, inplace=False)
            (proj_feature_to_latent_space): Linear(in_features=512, out_features=64, bias=True)
            (proj_latent_space_to_feature): Linear(in_features=64, out_features=512, bias=True)
            (ltm_norm): Identity()
            (act): GELU()
            (softmax): Softmax(dim=-1)
          )
          (drop_path): DropPath()
          (norm2): LayerNorm((512,), eps=1e-05, elementwise_affine=True)
          (mlp): Mlp(
            (fc1): Linear(in_features=512, out_features=2048, bias=True)
            (act): GELU()
            (fc2): Linear(in_features=2048, out_features=512, bias=True)
            (drop): Dropout(p=0.0, inplace=False)
          )
        )
        (14): MemorySwinTransformerBlock(
          dim=512, input_resolution=(14, 14), num_heads=16, window_size=7, shift_size=0, mlp_ratio=4.0
          (norm1): LayerNorm((512,), eps=1e-05, elementwise_affine=True)
          (attn): MemoryWindowAttention(
            dim=512, window_size=(7, 7), num_heads=16
            (qkv): Linear(in_features=512, out_features=1536, bias=True)
            (attn_drop): Dropout(p=0.0, inplace=False)
            (proj): Linear(in_features=512, out_features=512, bias=True)
            (proj_drop): Dropout(p=0.0, inplace=False)
            (proj_feature_to_latent_space): Linear(in_features=512, out_features=64, bias=True)
            (proj_latent_space_to_feature): Linear(in_features=64, out_features=512, bias=True)
            (ltm_norm): Identity()
            (act): GELU()
            (softmax): Softmax(dim=-1)
          )
          (drop_path): DropPath()
          (norm2): LayerNorm((512,), eps=1e-05, elementwise_affine=True)
          (mlp): Mlp(
            (fc1): Linear(in_features=512, out_features=2048, bias=True)
            (act): GELU()
            (fc2): Linear(in_features=2048, out_features=512, bias=True)
            (drop): Dropout(p=0.0, inplace=False)
          )
        )
        (15): MemorySwinTransformerBlock(
          dim=512, input_resolution=(14, 14), num_heads=16, window_size=7, shift_size=3, mlp_ratio=4.0
          (norm1): LayerNorm((512,), eps=1e-05, elementwise_affine=True)
          (attn): MemoryWindowAttention(
            dim=512, window_size=(7, 7), num_heads=16
            (qkv): Linear(in_features=512, out_features=1536, bias=True)
            (attn_drop): Dropout(p=0.0, inplace=False)
            (proj): Linear(in_features=512, out_features=512, bias=True)
            (proj_drop): Dropout(p=0.0, inplace=False)
            (proj_feature_to_latent_space): Linear(in_features=512, out_features=64, bias=True)
            (proj_latent_space_to_feature): Linear(in_features=64, out_features=512, bias=True)
            (ltm_norm): Identity()
            (act): GELU()
            (softmax): Softmax(dim=-1)
          )
          (drop_path): DropPath()
          (norm2): LayerNorm((512,), eps=1e-05, elementwise_affine=True)
          (mlp): Mlp(
            (fc1): Linear(in_features=512, out_features=2048, bias=True)
            (act): GELU()
            (fc2): Linear(in_features=2048, out_features=512, bias=True)
            (drop): Dropout(p=0.0, inplace=False)
          )
        )
        (16): MemorySwinTransformerBlock(
          dim=512, input_resolution=(14, 14), num_heads=16, window_size=7, shift_size=0, mlp_ratio=4.0
          (norm1): LayerNorm((512,), eps=1e-05, elementwise_affine=True)
          (attn): MemoryWindowAttention(
            dim=512, window_size=(7, 7), num_heads=16
            (qkv): Linear(in_features=512, out_features=1536, bias=True)
            (attn_drop): Dropout(p=0.0, inplace=False)
            (proj): Linear(in_features=512, out_features=512, bias=True)
            (proj_drop): Dropout(p=0.0, inplace=False)
            (proj_feature_to_latent_space): Linear(in_features=512, out_features=64, bias=True)
            (proj_latent_space_to_feature): Linear(in_features=64, out_features=512, bias=True)
            (ltm_norm): Identity()
            (act): GELU()
            (softmax): Softmax(dim=-1)
          )
          (drop_path): DropPath()
          (norm2): LayerNorm((512,), eps=1e-05, elementwise_affine=True)
          (mlp): Mlp(
            (fc1): Linear(in_features=512, out_features=2048, bias=True)
            (act): GELU()
            (fc2): Linear(in_features=2048, out_features=512, bias=True)
            (drop): Dropout(p=0.0, inplace=False)
          )
        )
        (17): MemorySwinTransformerBlock(
          dim=512, input_resolution=(14, 14), num_heads=16, window_size=7, shift_size=3, mlp_ratio=4.0
          (norm1): LayerNorm((512,), eps=1e-05, elementwise_affine=True)
          (attn): MemoryWindowAttention(
            dim=512, window_size=(7, 7), num_heads=16
            (qkv): Linear(in_features=512, out_features=1536, bias=True)
            (attn_drop): Dropout(p=0.0, inplace=False)
            (proj): Linear(in_features=512, out_features=512, bias=True)
            (proj_drop): Dropout(p=0.0, inplace=False)
            (proj_feature_to_latent_space): Identity()
            (proj_latent_space_to_feature): Linear(in_features=64, out_features=512, bias=True)
            (ltm_norm): Identity()
            (act): GELU()
            (softmax): Softmax(dim=-1)
          )
          (drop_path): DropPath()
          (norm2): LayerNorm((512,), eps=1e-05, elementwise_affine=True)
          (mlp): Mlp(
            (fc1): Linear(in_features=512, out_features=2048, bias=True)
            (act): GELU()
            (fc2): Linear(in_features=2048, out_features=512, bias=True)
            (drop): Dropout(p=0.0, inplace=False)
          )
        )
      )
      (downsample): PatchMerging(
        input_resolution=(14, 14), dim=512
        (reduction): Linear(in_features=2048, out_features=1024, bias=False)
        (norm): LayerNorm((2048,), eps=1e-05, elementwise_affine=True)
      )
    )
    (3): BasicLayer(
      dim=1024, input_resolution=(7, 7), depth=2
      (blocks): ModuleList(
        (0): MemorySwinTransformerBlock(
          dim=1024, input_resolution=(7, 7), num_heads=32, window_size=7, shift_size=0, mlp_ratio=4.0
          (norm1): LayerNorm((1024,), eps=1e-05, elementwise_affine=True)
          (attn): MemoryWindowAttention(
            dim=1024, window_size=(7, 7), num_heads=32
            (qkv): Linear(in_features=1024, out_features=3072, bias=True)
            (attn_drop): Dropout(p=0.0, inplace=False)
            (proj): Linear(in_features=1024, out_features=1024, bias=True)
            (proj_drop): Dropout(p=0.0, inplace=False)
            (proj_feature_to_latent_space): Linear(in_features=1024, out_features=128, bias=True)
            (proj_latent_space_to_feature): Identity()
            (ltm_norm): Identity()
            (act): GELU()
            (softmax): Softmax(dim=-1)
          )
          (drop_path): DropPath()
          (norm2): LayerNorm((1024,), eps=1e-05, elementwise_affine=True)
          (mlp): Mlp(
            (fc1): Linear(in_features=1024, out_features=4096, bias=True)
            (act): GELU()
            (fc2): Linear(in_features=4096, out_features=1024, bias=True)
            (drop): Dropout(p=0.0, inplace=False)
          )
        )
        (1): MemorySwinTransformerBlock(
          dim=1024, input_resolution=(7, 7), num_heads=32, window_size=7, shift_size=0, mlp_ratio=4.0
          (norm1): LayerNorm((1024,), eps=1e-05, elementwise_affine=True)
          (attn): MemoryWindowAttention(
            dim=1024, window_size=(7, 7), num_heads=32
            (qkv): Linear(in_features=1024, out_features=3072, bias=True)
            (attn_drop): Dropout(p=0.0, inplace=False)
            (proj): Linear(in_features=1024, out_features=1024, bias=True)
            (proj_drop): Dropout(p=0.0, inplace=False)
            (proj_feature_to_latent_space): Identity()
            (proj_latent_space_to_feature): Linear(in_features=128, out_features=1024, bias=True)
            (ltm_norm): Identity()
            (act): GELU()
            (softmax): Softmax(dim=-1)
          )
          (drop_path): DropPath()
          (norm2): LayerNorm((1024,), eps=1e-05, elementwise_affine=True)
          (mlp): Mlp(
            (fc1): Linear(in_features=1024, out_features=4096, bias=True)
            (act): GELU()
            (fc2): Linear(in_features=4096, out_features=1024, bias=True)
            (drop): Dropout(p=0.0, inplace=False)
          )
        )
      )
    )
  )
  (norm): LayerNorm((1024,), eps=1e-05, elementwise_affine=True)
  (avgpool): AdaptiveAvgPool1d(output_size=1)
  (head): Linear(in_features=1024, out_features=1000, bias=True)
)
[2024-05-27 19:32:29 swin_mam_v2_base_patch4_window7_224_22kto1k_finetune_4x] (main.py 98): INFO number of params: 89176336
[2024-05-27 19:32:29 swin_mam_v2_base_patch4_window7_224_22kto1k_finetune_4x] (main.py 101): INFO number of GFLOPs: 15.438473216
[2024-05-27 19:32:29 swin_mam_v2_base_patch4_window7_224_22kto1k_finetune_4x] (main.py 136): INFO no checkpoint found in /mnt/data/pretrain_weights/swin-mam/swin_mam_v2_base_patch4_window7_224_22kto1k_finetune_4x/swin_mam_v2_base_p4_w7_224_22kto1k, ignoring auto resume
…
