…
output": "pretrain/diffusion_ft", "tag": "diffusion_ft_smt_l_step_cross2", "eval": false, "throughput": false, "local_rank": 0, "fused_window_process": false, "fused_layernorm": false, "optim": null}
[2024-08-06 13:04:37 smt_diffusion_finetune_large_224_22kto1k_step_crosslayer2-full-ft] (main.py 108): INFO Creating model:smt_diffusion_finetune/smt_diffusion_finetune_large_224_22kto1k_step_crosslayer2-full-ft
[2024-08-06 13:04:39 smt_diffusion_finetune_large_224_22kto1k_step_crosslayer2-full-ft] (main.py 110): INFO SMT_Diffusion_Finetune(
  (patch_embed1): Head(
    (conv): Sequential(
      (0): Conv2d(3, 96, kernel_size=(7, 7), stride=(2, 2), padding=(3, 3), bias=False)
      (1): BatchNorm2d(96, eps=1e-05, momentum=0.1, affine=True, track_running_stats=True)
      (2): ReLU(inplace=True)
      (3): Conv2d(96, 96, kernel_size=(2, 2), stride=(2, 2))
    )
    (norm): LayerNorm((96,), eps=1e-05, elementwise_affine=True)
  )
  (block1): ModuleList(
    (0): Block(
      (norm1): LayerNorm((96,), eps=1e-06, elementwise_affine=True)
      (attn): Attention(
        (act): GELU()
        (proj): Linear(in_features=96, out_features=96, bias=True)
        (proj_drop): Dropout(p=0.0, inplace=False)
        (v): Linear(in_features=96, out_features=96, bias=True)
        (s): Linear(in_features=96, out_features=96, bias=True)
        (local_conv_1): Conv2d(24, 24, kernel_size=(3, 3), stride=(1, 1), padding=(1, 1), groups=24)
        (local_conv_2): Conv2d(24, 24, kernel_size=(5, 5), stride=(1, 1), padding=(2, 2), groups=24)
        (local_conv_3): Conv2d(24, 24, kernel_size=(7, 7), stride=(1, 1), padding=(3, 3), groups=24)
        (local_conv_4): Conv2d(24, 24, kernel_size=(9, 9), stride=(1, 1), padding=(4, 4), groups=24)
        (proj0): Conv2d(96, 192, kernel_size=(1, 1), stride=(1, 1), groups=24)
        (bn): BatchNorm2d(192, eps=1e-05, momentum=0.1, affine=True, track_running_stats=True)
        (proj1): Conv2d(192, 96, kernel_size=(1, 1), stride=(1, 1))
      )
      (drop_path): Identity()
      (norm2): LayerNorm((96,), eps=1e-06, elementwise_affine=True)
      (mlp): Mlp(
        (fc1): Linear(in_features=96, out_features=768, bias=True)
        (dwconv): DWConv(
          (dwconv): Conv2d(768, 768, kernel_size=(3, 3), stride=(1, 1), padding=(1, 1), groups=768)
        )
        (act): GELU()
        (fc2): Linear(in_features=768, out_features=96, bias=True)
        (drop): Dropout(p=0.0, inplace=False)
      )
    )
    (1): Block(
      (norm1): LayerNorm((96,), eps=1e-06, elementwise_affine=True)
      (attn): Attention(
        (act): GELU()
        (proj): Linear(in_features=96, out_features=96, bias=True)
        (proj_drop): Dropout(p=0.0, inplace=False)
        (v): Linear(in_features=96, out_features=96, bias=True)
        (s): Linear(in_features=96, out_features=96, bias=True)
        (local_conv_1): Conv2d(24, 24, kernel_size=(3, 3), stride=(1, 1), padding=(1, 1), groups=24)
        (local_conv_2): Conv2d(24, 24, kernel_size=(5, 5), stride=(1, 1), padding=(2, 2), groups=24)
        (local_conv_3): Conv2d(24, 24, kernel_size=(7, 7), stride=(1, 1), padding=(3, 3), groups=24)
        (local_conv_4): Conv2d(24, 24, kernel_size=(9, 9), stride=(1, 1), padding=(4, 4), groups=24)
        (proj0): Conv2d(96, 192, kernel_size=(1, 1), stride=(1, 1), groups=24)
        (bn): BatchNorm2d(192, eps=1e-05, momentum=0.1, affine=True, track_running_stats=True)
        (proj1): Conv2d(192, 96, kernel_size=(1, 1), stride=(1, 1))
      )
      (drop_path): DropPath()
      (norm2): LayerNorm((96,), eps=1e-06, elementwise_affine=True)
      (mlp): Mlp(
        (fc1): Linear(in_features=96, out_features=768, bias=True)
        (dwconv): DWConv(
          (dwconv): Conv2d(768, 768, kernel_size=(3, 3), stride=(1, 1), padding=(1, 1), groups=768)
        )
        (act): GELU()
        (fc2): Linear(in_features=768, out_features=96, bias=True)
        (drop): Dropout(p=0.0, inplace=False)
      )
    )
    (2): Block(
      (norm1): LayerNorm((96,), eps=1e-06, elementwise_affine=True)
      (attn): Attention(
        (act): GELU()
        (proj): Linear(in_features=96, out_features=96, bias=True)
        (proj_drop): Dropout(p=0.0, inplace=False)
        (v): Linear(in_features=96, out_features=96, bias=True)
        (s): Linear(in_features=96, out_features=96, bias=True)
        (local_conv_1): Conv2d(24, 24, kernel_size=(3, 3), stride=(1, 1), padding=(1, 1), groups=24)
        (local_conv_2): Conv2d(24, 24, kernel_size=(5, 5), stride=(1, 1), padding=(2, 2), groups=24)
        (local_conv_3): Conv2d(24, 24, kernel_size=(7, 7), stride=(1, 1), padding=(3, 3), groups=24)
        (local_conv_4): Conv2d(24, 24, kernel_size=(9, 9), stride=(1, 1), padding=(4, 4), groups=24)
        (proj0): Conv2d(96, 192, kernel_size=(1, 1), stride=(1, 1), groups=24)
        (bn): BatchNorm2d(192, eps=1e-05, momentum=0.1, affine=True, track_running_stats=True)
        (proj1): Conv2d(192, 96, kernel_size=(1, 1), stride=(1, 1))
      )
      (drop_path): DropPath()
      (norm2): LayerNorm((96,), eps=1e-06, elementwise_affine=True)
      (mlp): Mlp(
        (fc1): Linear(in_features=96, out_features=768, bias=True)
        (dwconv): DWConv(
          (dwconv): Conv2d(768, 768, kernel_size=(3, 3), stride=(1, 1), padding=(1, 1), groups=768)
        )
        (act): GELU()
        (fc2): Linear(in_features=768, out_features=96, bias=True)
        (drop): Dropout(p=0.0, inplace=False)
      )
    )
    (3): Block(
      (norm1): LayerNorm((96,), eps=1e-06, elementwise_affine=True)
      (attn): Attention(
        (act): GELU()
        (proj): Linear(in_features=96, out_features=96, bias=True)
        (proj_drop): Dropout(p=0.0, inplace=False)
        (v): Linear(in_features=96, out_features=96, bias=True)
        (s): Linear(in_features=96, out_features=96, bias=True)
        (local_conv_1): Conv2d(24, 24, kernel_size=(3, 3), stride=(1, 1), padding=(1, 1), groups=24)
        (local_conv_2): Conv2d(24, 24, kernel_size=(5, 5), stride=(1, 1), padding=(2, 2), groups=24)
        (local_conv_3): Conv2d(24, 24, kernel_size=(7, 7), stride=(1, 1), padding=(3, 3), groups=24)
        (local_conv_4): Conv2d(24, 24, kernel_size=(9, 9), stride=(1, 1), padding=(4, 4), groups=24)
        (proj0): Conv2d(96, 192, kernel_size=(1, 1), stride=(1, 1), groups=24)
        (bn): BatchNorm2d(192, eps=1e-05, momentum=0.1, affine=True, track_running_stats=True)
        (proj1): Conv2d(192, 96, kernel_size=(1, 1), stride=(1, 1))
      )
      (drop_path): DropPath()
      (norm2): LayerNorm((96,), eps=1e-06, elementwise_affine=True)
      (mlp): Mlp(
        (fc1): Linear(in_features=96, out_features=768, bias=True)
        (dwconv): DWConv(
          (dwconv): Conv2d(768, 768, kernel_size=(3, 3), stride=(1, 1), padding=(1, 1), groups=768)
        )
        (act): GELU()
        (fc2): Linear(in_features=768, out_features=96, bias=True)
        (drop): Dropout(p=0.0, inplace=False)
      )
    )
  )
  (norm1): LayerNorm((96,), eps=1e-06, elementwise_affine=True)
  (patch_embed2): OverlapPatchEmbed(
    (proj): Conv2d(96, 192, kernel_size=(3, 3), stride=(2, 2), padding=(1, 1))
    (norm): LayerNorm((192,), eps=1e-05, elementwise_affine=True)
  )
  (block2): ModuleList(
    (0): Block(
      (norm1): LayerNorm((192,), eps=1e-06, elementwise_affine=True)
      (attn): Attention(
        (act): GELU()
        (proj): Linear(in_features=192, out_features=192, bias=True)
        (proj_drop): Dropout(p=0.0, inplace=False)
        (v): Linear(in_features=192, out_features=192, bias=True)
        (s): Linear(in_features=192, out_features=192, bias=True)
        (local_conv_1): Conv2d(48, 48, kernel_size=(3, 3), stride=(1, 1), padding=(1, 1), groups=48)
        (local_conv_2): Conv2d(48, 48, kernel_size=(5, 5), stride=(1, 1), padding=(2, 2), groups=48)
        (local_conv_3): Conv2d(48, 48, kernel_size=(7, 7), stride=(1, 1), padding=(3, 3), groups=48)
        (local_conv_4): Conv2d(48, 48, kernel_size=(9, 9), stride=(1, 1), padding=(4, 4), groups=48)
        (proj0): Conv2d(192, 384, kernel_size=(1, 1), stride=(1, 1), groups=48)
        (bn): BatchNorm2d(384, eps=1e-05, momentum=0.1, affine=True, track_running_stats=True)
        (proj1): Conv2d(384, 192, kernel_size=(1, 1), stride=(1, 1))
      )
      (drop_path): DropPath()
      (norm2): LayerNorm((192,), eps=1e-06, elementwise_affine=True)
      (mlp): Mlp(
        (fc1): Linear(in_features=192, out_features=1152, bias=True)
        (dwconv): DWConv(
          (dwconv): Conv2d(1152, 1152, kernel_size=(3, 3), stride=(1, 1), padding=(1, 1), groups=1152)
        )
        (act): GELU()
        (fc2): Linear(in_features=1152, out_features=192, bias=True)
        (drop): Dropout(p=0.0, inplace=False)
      )
    )
    (1): Block(
      (norm1): LayerNorm((192,), eps=1e-06, elementwise_affine=True)
      (attn): Attention(
        (act): GELU()
        (proj): Linear(in_features=192, out_features=192, bias=True)
        (proj_drop): Dropout(p=0.0, inplace=False)
        (v): Linear(in_features=192, out_features=192, bias=True)
        (s): Linear(in_features=192, out_features=192, bias=True)
        (local_conv_1): Conv2d(48, 48, kernel_size=(3, 3), stride=(1, 1), padding=(1, 1), groups=48)
        (local_conv_2): Conv2d(48, 48, kernel_size=(5, 5), stride=(1, 1), padding=(2, 2), groups=48)
        (local_conv_3): Conv2d(48, 48, kernel_size=(7, 7), stride=(1, 1), padding=(3, 3), groups=48)
        (local_conv_4): Conv2d(48, 48, kernel_size=(9, 9), stride=(1, 1), padding=(4, 4), groups=48)
        (proj0): Conv2d(192, 384, kernel_size=(1, 1), stride=(1, 1), groups=48)
        (bn): BatchNorm2d(384, eps=1e-05, momentum=0.1, affine=True, track_running_stats=True)
        (proj1): Conv2d(384, 192, kernel_size=(1, 1), stride=(1, 1))
      )
      (drop_path): DropPath()
      (norm2): LayerNorm((192,), eps=1e-06, elementwise_affine=True)
      (mlp): Mlp(
        (fc1): Linear(in_features=192, out_features=1152, bias=True)
        (dwconv): DWConv(
          (dwconv): Conv2d(1152, 1152, kernel_size=(3, 3), stride=(1, 1), padding=(1, 1), groups=1152)
        )
        (act): GELU()
        (fc2): Linear(in_features=1152, out_features=192, bias=True)
        (drop): Dropout(p=0.0, inplace=False)
      )
    )
    (2): Block(
      (norm1): LayerNorm((192,), eps=1e-06, elementwise_affine=True)
      (attn): Attention(
        (act): GELU()
        (proj): Linear(in_features=192, out_features=192, bias=True)
        (proj_drop): Dropout(p=0.0, inplace=False)
        (v): Linear(in_features=192, out_features=192, bias=True)
        (s): Linear(in_features=192, out_features=192, bias=True)
        (local_conv_1): Conv2d(48, 48, kernel_size=(3, 3), stride=(1, 1), padding=(1, 1), groups=48)
        (local_conv_2): Conv2d(48, 48, kernel_size=(5, 5), stride=(1, 1), padding=(2, 2), groups=48)
        (local_conv_3): Conv2d(48, 48, kernel_size=(7, 7), stride=(1, 1), padding=(3, 3), groups=48)
        (local_conv_4): Conv2d(48, 48, kernel_size=(9, 9), stride=(1, 1), padding=(4, 4), groups=48)
        (proj0): Conv2d(192, 384, kernel_size=(1, 1), stride=(1, 1), groups=48)
        (bn): BatchNorm2d(384, eps=1e-05, momentum=0.1, affine=True, track_running_stats=True)
        (proj1): Conv2d(384, 192, kernel_size=(1, 1), stride=(1, 1))
      )
      (drop_path): DropPath()
      (norm2): LayerNorm((192,), eps=1e-06, elementwise_affine=True)
      (mlp): Mlp(
        (fc1): Linear(in_features=192, out_features=1152, bias=True)
        (dwconv): DWConv(
          (dwconv): Conv2d(1152, 1152, kernel_size=(3, 3), stride=(1, 1), padding=(1, 1), groups=1152)
        )
        (act): GELU()
        (fc2): Linear(in_features=1152, out_features=192, bias=True)
        (drop): Dropout(p=0.0, inplace=False)
      )
    )
    (3): Block(
      (norm1): LayerNorm((192,), eps=1e-06, elementwise_affine=True)
      (attn): Attention(
        (act): GELU()
        (proj): Linear(in_features=192, out_features=192, bias=True)
        (proj_drop): Dropout(p=0.0, inplace=False)
        (v): Linear(in_features=192, out_features=192, bias=True)
        (s): Linear(in_features=192, out_features=192, bias=True)
        (local_conv_1): Conv2d(48, 48, kernel_size=(3, 3), stride=(1, 1), padding=(1, 1), groups=48)
        (local_conv_2): Conv2d(48, 48, kernel_size=(5, 5), stride=(1, 1), padding=(2, 2), groups=48)
        (local_conv_3): Conv2d(48, 48, kernel_size=(7, 7), stride=(1, 1), padding=(3, 3), groups=48)
        (local_conv_4): Conv2d(48, 48, kernel_size=(9, 9), stride=(1, 1), padding=(4, 4), groups=48)
        (proj0): Conv2d(192, 384, kernel_size=(1, 1), stride=(1, 1), groups=48)
        (bn): BatchNorm2d(384, eps=1e-05, momentum=0.1, affine=True, track_running_stats=True)
        (proj1): Conv2d(384, 192, kernel_size=(1, 1), stride=(1, 1))
      )
      (drop_path): DropPath()
      (norm2): LayerNorm((192,), eps=1e-06, elementwise_affine=True)
      (mlp): Mlp(
        (fc1): Linear(in_features=192, out_features=1152, bias=True)
        (dwconv): DWConv(
          (dwconv): Conv2d(1152, 1152, kernel_size=(3, 3), stride=(1, 1), padding=(1, 1), groups=1152)
        )
        (act): GELU()
        (fc2): Linear(in_features=1152, out_features=192, bias=True)
        (drop): Dropout(p=0.0, inplace=False)
      )
    )
    (4): Block(
      (norm1): LayerNorm((192,), eps=1e-06, elementwise_affine=True)
      (attn): Attention(
        (act): GELU()
        (proj): Linear(in_features=192, out_features=192, bias=True)
        (proj_drop): Dropout(p=0.0, inplace=False)
        (v): Linear(in_features=192, out_features=192, bias=True)
        (s): Linear(in_features=192, out_features=192, bias=True)
        (local_conv_1): Conv2d(48, 48, kernel_size=(3, 3), stride=(1, 1), padding=(1, 1), groups=48)
        (local_conv_2): Conv2d(48, 48, kernel_size=(5, 5), stride=(1, 1), padding=(2, 2), groups=48)
        (local_conv_3): Conv2d(48, 48, kernel_size=(7, 7), stride=(1, 1), padding=(3, 3), groups=48)
        (local_conv_4): Conv2d(48, 48, kernel_size=(9, 9), stride=(1, 1), padding=(4, 4), groups=48)
        (proj0): Conv2d(192, 384, kernel_size=(1, 1), stride=(1, 1), groups=48)
        (bn): BatchNorm2d(384, eps=1e-05, momentum=0.1, affine=True, track_running_stats=True)
        (proj1): Conv2d(384, 192, kernel_size=(1, 1), stride=(1, 1))
      )
      (drop_path): DropPath()
      (norm2): LayerNorm((192,), eps=1e-06, elementwise_affine=True)
      (mlp): Mlp(
        (fc1): Linear(in_features=192, out_features=1152, bias=True)
        (dwconv): DWConv(
          (dwconv): Conv2d(1152, 1152, kernel_size=(3, 3), stride=(1, 1), padding=(1, 1), groups=1152)
        )
        (act): GELU()
        (fc2): Linear(in_features=1152, out_features=192, bias=True)
        (drop): Dropout(p=0.0, inplace=False)
      )
    )
    (5): Block(
      (norm1): LayerNorm((192,), eps=1e-06, elementwise_affine=True)
      (attn): Attention(
        (act): GELU()
        (proj): Linear(in_features=192, out_features=192, bias=True)
        (proj_drop): Dropout(p=0.0, inplace=False)
        (v): Linear(in_features=192, out_features=192, bias=True)
        (s): Linear(in_features=192, out_features=192, bias=True)
        (local_conv_1): Conv2d(48, 48, kernel_size=(3, 3), stride=(1, 1), padding=(1, 1), groups=48)
        (local_conv_2): Conv2d(48, 48, kernel_size=(5, 5), stride=(1, 1), padding=(2, 2), groups=48)
        (local_conv_3): Conv2d(48, 48, kernel_size=(7, 7), stride=(1, 1), padding=(3, 3), groups=48)
        (local_conv_4): Conv2d(48, 48, kernel_size=(9, 9), stride=(1, 1), padding=(4, 4), groups=48)
        (proj0): Conv2d(192, 384, kernel_size=(1, 1), stride=(1, 1), groups=48)
        (bn): BatchNorm2d(384, eps=1e-05, momentum=0.1, affine=True, track_running_stats=True)
        (proj1): Conv2d(384, 192, kernel_size=(1, 1), stride=(1, 1))
      )
      (drop_path): DropPath()
      (norm2): LayerNorm((192,), eps=1e-06, elementwise_affine=True)
      (mlp): Mlp(
        (fc1): Linear(in_features=192, out_features=1152, bias=True)
        (dwconv): DWConv(
          (dwconv): Conv2d(1152, 1152, kernel_size=(3, 3), stride=(1, 1), padding=(1, 1), groups=1152)
        )
        (act): GELU()
        (fc2): Linear(in_features=1152, out_features=192, bias=True)
        (drop): Dropout(p=0.0, inplace=False)
      )
    )
  )
  (norm2): LayerNorm((192,), eps=1e-06, elementwise_affine=True)
  (patch_embed3): OverlapPatchEmbed(
    (proj): Conv2d(192, 384, kernel_size=(3, 3), stride=(2, 2), padding=(1, 1))
    (norm): LayerNorm((384,), eps=1e-05, elementwise_affine=True)
  )
  (block3): ModuleList(
    (0): Block(
      (norm1): LayerNorm((384,), eps=1e-06, elementwise_affine=True)
      (attn): Attention(
        (act): GELU()
        (proj): Linear(in_features=384, out_features=384, bias=True)
        (proj_drop): Dropout(p=0.0, inplace=False)
        (v): Linear(in_features=384, out_features=384, bias=True)
        (s): Linear(in_features=384, out_features=384, bias=True)
        (local_conv_1): Conv2d(96, 96, kernel_size=(3, 3), stride=(1, 1), padding=(1, 1), groups=96)
        (local_conv_2): Conv2d(96, 96, kernel_size=(5, 5), stride=(1, 1), padding=(2, 2), groups=96)
        (local_conv_3): Conv2d(96, 96, kernel_size=(7, 7), stride=(1, 1), padding=(3, 3), groups=96)
        (local_conv_4): Conv2d(96, 96, kernel_size=(9, 9), stride=(1, 1), padding=(4, 4), groups=96)
        (proj0): Conv2d(384, 768, kernel_size=(1, 1), stride=(1, 1), groups=96)
        (bn): BatchNorm2d(768, eps=1e-05, momentum=0.1, affine=True, track_running_stats=True)
        (proj1): Conv2d(768, 384, kernel_size=(1, 1), stride=(1, 1))
      )
      (drop_path): DropPath()
      (norm2): LayerNorm((384,), eps=1e-06, elementwise_affine=True)
      (mlp): Mlp(
        (fc1): Linear(in_features=384, out_features=1536, bias=True)
        (dwconv): DWConv(
          (dwconv): Conv2d(1536, 1536, kernel_size=(3, 3), stride=(1, 1), padding=(1, 1), groups=1536)
        )
        (act): GELU()
        (fc2): Linear(in_features=1536, out_features=384, bias=True)
        (drop): Dropout(p=0.0, inplace=False)
      )
    )
    (1): Block(
      (norm1): LayerNorm((384,), eps=1e-06, elementwise_affine=True)
      (attn): Attention(
        (act): GELU()
        (proj): Linear(in_features=384, out_features=384, bias=True)
        (proj_drop): Dropout(p=0.0, inplace=False)
        (q): Linear(in_features=384, out_features=384, bias=True)
        (attn_drop): Dropout(p=0.0, inplace=False)
        (kv): Linear(in_features=384, out_features=768, bias=True)
        (local_conv): Conv2d(384, 384, kernel_size=(3, 3), stride=(1, 1), padding=(1, 1), groups=384)
      )
      (drop_path): DropPath()
      (norm2): LayerNorm((384,), eps=1e-06, elementwise_affine=True)
      (mlp): Mlp(
        (fc1): Linear(in_features=384, out_features=1536, bias=True)
        (dwconv): DWConv(
          (dwconv): Conv2d(1536, 1536, kernel_size=(3, 3), stride=(1, 1), padding=(1, 1), groups=1536)
        )
        (act): GELU()
        (fc2): Linear(in_features=1536, out_features=384, bias=True)
        (drop): Dropout(p=0.0, inplace=False)
      )
    )
    (2): Block(
      (norm1): LayerNorm((384,), eps=1e-06, elementwise_affine=True)
      (attn): Attention(
        (act): GELU()
        (proj): Linear(in_features=384, out_features=384, bias=True)
        (proj_drop): Dropout(p=0.0, inplace=False)
        (v): Linear(in_features=384, out_features=384, bias=True)
        (s): Linear(in_features=384, out_features=384, bias=True)
        (local_conv_1): Conv2d(96, 96, kernel_size=(3, 3), stride=(1, 1), padding=(1, 1), groups=96)
        (local_conv_2): Conv2d(96, 96, kernel_size=(5, 5), stride=(1, 1), padding=(2, 2), groups=96)
        (local_conv_3): Conv2d(96, 96, kernel_size=(7, 7), stride=(1, 1), padding=(3, 3), groups=96)
        (local_conv_4): Conv2d(96, 96, kernel_size=(9, 9), stride=(1, 1), padding=(4, 4), groups=96)
        (proj0): Conv2d(384, 768, kernel_size=(1, 1), stride=(1, 1), groups=96)
        (bn): BatchNorm2d(768, eps=1e-05, momentum=0.1, affine=True, track_running_stats=True)
        (proj1): Conv2d(768, 384, kernel_size=(1, 1), stride=(1, 1))
      )
      (drop_path): DropPath()
      (norm2): LayerNorm((384,), eps=1e-06, elementwise_affine=True)
      (mlp): Mlp(
        (fc1): Linear(in_features=384, out_features=1536, bias=True)
        (dwconv): DWConv(
          (dwconv): Conv2d(1536, 1536, kernel_size=(3, 3), stride=(1, 1), padding=(1, 1), groups=1536)
        )
        (act): GELU()
        (fc2): Linear(in_features=1536, out_features=384, bias=True)
        (drop): Dropout(p=0.0, inplace=False)
      )
    )
    (3): Block(
      (norm1): LayerNorm((384,), eps=1e-06, elementwise_affine=True)
      (attn): Attention(
        (act): GELU()
        (proj): Linear(in_features=384, out_features=384, bias=True)
        (proj_drop): Dropout(p=0.0, inplace=False)
        (q): Linear(in_features=384, out_features=384, bias=True)
        (attn_drop): Dropout(p=0.0, inplace=False)
        (kv): Linear(in_features=384, out_features=768, bias=True)
        (local_conv): Conv2d(384, 384, kernel_size=(3, 3), stride=(1, 1), padding=(1, 1), groups=384)
      )
      (drop_path): DropPath()
      (norm2): LayerNorm((384,), eps=1e-06, elementwise_affine=True)
      (mlp): Mlp(
        (fc1): Linear(in_features=384, out_features=1536, bias=True)
        (dwconv): DWConv(
          (dwconv): Conv2d(1536, 1536, kernel_size=(3, 3), stride=(1, 1), padding=(1, 1), groups=1536)
        )
        (act): GELU()
        (fc2): Linear(in_features=1536, out_features=384, bias=True)
        (drop): Dropout(p=0.0, inplace=False)
      )
    )
    (4): Block(
      (norm1): LayerNorm((384,), eps=1e-06, elementwise_affine=True)
      (attn): Attention(
        (act): GELU()
        (proj): Linear(in_features=384, out_features=384, bias=True)
        (proj_drop): Dropout(p=0.0, inplace=False)
        (v): Linear(in_features=384, out_features=384, bias=True)
        (s): Linear(in_features=384, out_features=384, bias=True)
        (local_conv_1): Conv2d(96, 96, kernel_size=(3, 3), stride=(1, 1), padding=(1, 1), groups=96)
        (local_conv_2): Conv2d(96, 96, kernel_size=(5, 5), stride=(1, 1), padding=(2, 2), groups=96)
        (local_conv_3): Conv2d(96, 96, kernel_size=(7, 7), stride=(1, 1), padding=(3, 3), groups=96)
        (local_conv_4): Conv2d(96, 96, kernel_size=(9, 9), stride=(1, 1), padding=(4, 4), groups=96)
        (proj0): Conv2d(384, 768, kernel_size=(1, 1), stride=(1, 1), groups=96)
        (bn): BatchNorm2d(768, eps=1e-05, momentum=0.1, affine=True, track_running_stats=True)
        (proj1): Conv2d(768, 384, kernel_size=(1, 1), stride=(1, 1))
      )
      (drop_path): DropPath()
      (norm2): LayerNorm((384,), eps=1e-06, elementwise_affine=True)
      (mlp): Mlp(
        (fc1): Linear(in_features=384, out_features=1536, bias=True)
        (dwconv): DWConv(
          (dwconv): Conv2d(1536, 1536, kernel_size=(3, 3), stride=(1, 1), padding=(1, 1), groups=1536)
        )
        (act): GELU()
        (fc2): Linear(in_features=1536, out_features=384, bias=True)
        (drop): Dropout(p=0.0, inplace=False)
      )
    )
    (5): Block(
      (norm1): LayerNorm((384,), eps=1e-06, elementwise_affine=True)
      (attn): Attention(
        (act): GELU()
        (proj): Linear(in_features=384, out_features=384, bias=True)
        (proj_drop): Dropout(p=0.0, inplace=False)
        (q): Linear(in_features=384, out_features=384, bias=True)
        (attn_drop): Dropout(p=0.0, inplace=False)
        (kv): Linear(in_features=384, out_features=768, bias=True)
        (local_conv): Conv2d(384, 384, kernel_size=(3, 3), stride=(1, 1), padding=(1, 1), groups=384)
      )
      (drop_path): DropPath()
      (norm2): LayerNorm((384,), eps=1e-06, elementwise_affine=True)
      (mlp): Mlp(
        (fc1): Linear(in_features=384, out_features=1536, bias=True)
        (dwconv): DWConv(
          (dwconv): Conv2d(1536, 1536, kernel_size=(3, 3), stride=(1, 1), padding=(1, 1), groups=1536)
        )
        (act): GELU()
        (fc2): Linear(in_features=1536, out_features=384, bias=True)
        (drop): Dropout(p=0.0, inplace=False)
      )
    )
    (6): Block(
      (norm1): LayerNorm((384,), eps=1e-06, elementwise_affine=True)
      (attn): Attention(
        (act): GELU()
        (proj): Linear(in_features=384, out_features=384, bias=True)
        (proj_drop): Dropout(p=0.0, inplace=False)
        (v): Linear(in_features=384, out_features=384, bias=True)
        (s): Linear(in_features=384, out_features=384, bias=True)
        (local_conv_1): Conv2d(96, 96, kernel_size=(3, 3), stride=(1, 1), padding=(1, 1), groups=96)
        (local_conv_2): Conv2d(96, 96, kernel_size=(5, 5), stride=(1, 1), padding=(2, 2), groups=96)
        (local_conv_3): Conv2d(96, 96, kernel_size=(7, 7), stride=(1, 1), padding=(3, 3), groups=96)
        (local_conv_4): Conv2d(96, 96, kernel_size=(9, 9), stride=(1, 1), padding=(4, 4), groups=96)
        (proj0): Conv2d(384, 768, kernel_size=(1, 1), stride=(1, 1), groups=96)
        (bn): BatchNorm2d(768, eps=1e-05, momentum=0.1, affine=True, track_running_stats=True)
        (proj1): Conv2d(768, 384, kernel_size=(1, 1), stride=(1, 1))
      )
      (drop_path): DropPath()
      (norm2): LayerNorm((384,), eps=1e-06, elementwise_affine=True)
      (mlp): Mlp(
        (fc1): Linear(in_features=384, out_features=1536, bias=True)
        (dwconv): DWConv(
          (dwconv): Conv2d(1536, 1536, kernel_size=(3, 3), stride=(1, 1), padding=(1, 1), groups=1536)
        )
        (act): GELU()
        (fc2): Linear(in_features=1536, out_features=384, bias=True)
        (drop): Dropout(p=0.0, inplace=False)
      )
    )
    (7): Block(
      (norm1): LayerNorm((384,), eps=1e-06, elementwise_affine=True)
      (attn): Attention(
        (act): GELU()
        (proj): Linear(in_features=384, out_features=384, bias=True)
        (proj_drop): Dropout(p=0.0, inplace=False)
        (q): Linear(in_features=384, out_features=384, bias=True)
        (attn_drop): Dropout(p=0.0, inplace=False)
        (kv): Linear(in_features=384, out_features=768, bias=True)
        (local_conv): Conv2d(384, 384, kernel_size=(3, 3), stride=(1, 1), padding=(1, 1), groups=384)
      )
      (drop_path): DropPath()
      (norm2): LayerNorm((384,), eps=1e-06, elementwise_affine=True)
      (mlp): Mlp(
        (fc1): Linear(in_features=384, out_features=1536, bias=True)
        (dwconv): DWConv(
          (dwconv): Conv2d(1536, 1536, kernel_size=(3, 3), stride=(1, 1), padding=(1, 1), groups=1536)
        )
        (act): GELU()
        (fc2): Linear(in_features=1536, out_features=384, bias=True)
        (drop): Dropout(p=0.0, inplace=False)
      )
    )
    (8): Block(
      (norm1): LayerNorm((384,), eps=1e-06, elementwise_affine=True)
      (attn): Attention(
        (act): GELU()
        (proj): Linear(in_features=384, out_features=384, bias=True)
        (proj_drop): Dropout(p=0.0, inplace=False)
        (v): Linear(in_features=384, out_features=384, bias=True)
        (s): Linear(in_features=384, out_features=384, bias=True)
        (local_conv_1): Conv2d(96, 96, kernel_size=(3, 3), stride=(1, 1), padding=(1, 1), groups=96)
        (local_conv_2): Conv2d(96, 96, kernel_size=(5, 5), stride=(1, 1), padding=(2, 2), groups=96)
        (local_conv_3): Conv2d(96, 96, kernel_size=(7, 7), stride=(1, 1), padding=(3, 3), groups=96)
        (local_conv_4): Conv2d(96, 96, kernel_size=(9, 9), stride=(1, 1), padding=(4, 4), groups=96)
        (proj0): Conv2d(384, 768, kernel_size=(1, 1), stride=(1, 1), groups=96)
        (bn): BatchNorm2d(768, eps=1e-05, momentum=0.1, affine=True, track_running_stats=True)
        (proj1): Conv2d(768, 384, kernel_size=(1, 1), stride=(1, 1))
      )
      (drop_path): DropPath()
      (norm2): LayerNorm((384,), eps=1e-06, elementwise_affine=True)
      (mlp): Mlp(
        (fc1): Linear(in_features=384, out_features=1536, bias=True)
        (dwconv): DWConv(
          (dwconv): Conv2d(1536, 1536, kernel_size=(3, 3), stride=(1, 1), padding=(1, 1), groups=1536)
        )
        (act): GELU()
        (fc2): Linear(in_features=1536, out_features=384, bias=True)
        (drop): Dropout(p=0.0, inplace=False)
      )
    )
    (9): Block(
      (norm1): LayerNorm((384,), eps=1e-06, elementwise_affine=True)
      (attn): Attention(
        (act): GELU()
        (proj): Linear(in_features=384, out_features=384, bias=True)
        (proj_drop): Dropout(p=0.0, inplace=False)
        (q): Linear(in_features=384, out_features=384, bias=True)
        (attn_drop): Dropout(p=0.0, inplace=False)
        (kv): Linear(in_features=384, out_features=768, bias=True)
        (local_conv): Conv2d(384, 384, kernel_size=(3, 3), stride=(1, 1), padding=(1, 1), groups=384)
      )
      (drop_path): DropPath()
      (norm2): LayerNorm((384,), eps=1e-06, elementwise_affine=True)
      (mlp): Mlp(
        (fc1): Linear(in_features=384, out_features=1536, bias=True)
        (dwconv): DWConv(
          (dwconv): Conv2d(1536, 1536, kernel_size=(3, 3), stride=(1, 1), padding=(1, 1), groups=1536)
        )
        (act): GELU()
        (fc2): Linear(in_features=1536, out_features=384, bias=True)
        (drop): Dropout(p=0.0, inplace=False)
      )
    )
    (10): Block(
      (norm1): LayerNorm((384,), eps=1e-06, elementwise_affine=True)
      (attn): Attention(
        (act): GELU()
        (proj): Linear(in_features=384, out_features=384, bias=True)
        (proj_drop): Dropout(p=0.0, inplace=False)
        (v): Linear(in_features=384, out_features=384, bias=True)
        (s): Linear(in_features=384, out_features=384, bias=True)
        (local_conv_1): Conv2d(96, 96, kernel_size=(3, 3), stride=(1, 1), padding=(1, 1), groups=96)
        (local_conv_2): Conv2d(96, 96, kernel_size=(5, 5), stride=(1, 1), padding=(2, 2), groups=96)
        (local_conv_3): Conv2d(96, 96, kernel_size=(7, 7), stride=(1, 1), padding=(3, 3), groups=96)
        (local_conv_4): Conv2d(96, 96, kernel_size=(9, 9), stride=(1, 1), padding=(4, 4), groups=96)
        (proj0): Conv2d(384, 768, kernel_size=(1, 1), stride=(1, 1), groups=96)
        (bn): BatchNorm2d(768, eps=1e-05, momentum=0.1, affine=True, track_running_stats=True)
        (proj1): Conv2d(768, 384, kernel_size=(1, 1), stride=(1, 1))
      )
      (drop_path): DropPath()
      (norm2): LayerNorm((384,), eps=1e-06, elementwise_affine=True)
      (mlp): Mlp(
        (fc1): Linear(in_features=384, out_features=1536, bias=True)
        (dwconv): DWConv(
          (dwconv): Conv2d(1536, 1536, kernel_size=(3, 3), stride=(1, 1), padding=(1, 1), groups=1536)
        )
        (act): GELU()
        (fc2): Linear(in_features=1536, out_features=384, bias=True)
        (drop): Dropout(p=0.0, inplace=False)
      )
    )
    (11): Block(
      (norm1): LayerNorm((384,), eps=1e-06, elementwise_affine=True)
      (attn): Attention(
        (act): GELU()
        (proj): Linear(in_features=384, out_features=384, bias=True)
        (proj_drop): Dropout(p=0.0, inplace=False)
        (q): Linear(in_features=384, out_features=384, bias=True)
        (attn_drop): Dropout(p=0.0, inplace=False)
        (kv): Linear(in_features=384, out_features=768, bias=True)
        (local_conv): Conv2d(384, 384, kernel_size=(3, 3), stride=(1, 1), padding=(1, 1), groups=384)
      )
      (drop_path): DropPath()
      (norm2): LayerNorm((384,), eps=1e-06, elementwise_affine=True)
      (mlp): Mlp(
        (fc1): Linear(in_features=384, out_features=1536, bias=True)
        (dwconv): DWConv(
          (dwconv): Conv2d(1536, 1536, kernel_size=(3, 3), stride=(1, 1), padding=(1, 1), groups=1536)
        )
        (act): GELU()
        (fc2): Linear(in_features=1536, out_features=384, bias=True)
        (drop): Dropout(p=0.0, inplace=False)
      )
    )
    (12): Block(
      (norm1): LayerNorm((384,), eps=1e-06, elementwise_affine=True)
      (attn): Attention(
        (act): GELU()
        (proj): Linear(in_features=384, out_features=384, bias=True)
        (proj_drop): Dropout(p=0.0, inplace=False)
        (v): Linear(in_features=384, out_features=384, bias=True)
        (s): Linear(in_features=384, out_features=384, bias=True)
        (local_conv_1): Conv2d(96, 96, kernel_size=(3, 3), stride=(1, 1), padding=(1, 1), groups=96)
        (local_conv_2): Conv2d(96, 96, kernel_size=(5, 5), stride=(1, 1), padding=(2, 2), groups=96)
        (local_conv_3): Conv2d(96, 96, kernel_size=(7, 7), stride=(1, 1), padding=(3, 3), groups=96)
        (local_conv_4): Conv2d(96, 96, kernel_size=(9, 9), stride=(1, 1), padding=(4, 4), groups=96)
        (proj0): Conv2d(384, 768, kernel_size=(1, 1), stride=(1, 1), groups=96)
        (bn): BatchNorm2d(768, eps=1e-05, momentum=0.1, affine=True, track_running_stats=True)
        (proj1): Conv2d(768, 384, kernel_size=(1, 1), stride=(1, 1))
      )
      (drop_path): DropPath()
      (norm2): LayerNorm((384,), eps=1e-06, elementwise_affine=True)
      (mlp): Mlp(
        (fc1): Linear(in_features=384, out_features=1536, bias=True)
        (dwconv): DWConv(
          (dwconv): Conv2d(1536, 1536, kernel_size=(3, 3), stride=(1, 1), padding=(1, 1), groups=1536)
        )
        (act): GELU()
        (fc2): Linear(in_features=1536, out_features=384, bias=True)
        (drop): Dropout(p=0.0, inplace=False)
      )
    )
    (13): Block(
      (norm1): LayerNorm((384,), eps=1e-06, elementwise_affine=True)
      (attn): Attention(
        (act): GELU()
        (proj): Linear(in_features=384, out_features=384, bias=True)
        (proj_drop): Dropout(p=0.0, inplace=False)
        (q): Linear(in_features=384, out_features=384, bias=True)
        (attn_drop): Dropout(p=0.0, inplace=False)
        (kv): Linear(in_features=384, out_features=768, bias=True)
        (local_conv): Conv2d(384, 384, kernel_size=(3, 3), stride=(1, 1), padding=(1, 1), groups=384)
      )
      (drop_path): DropPath()
      (norm2): LayerNorm((384,), eps=1e-06, elementwise_affine=True)
      (mlp): Mlp(
        (fc1): Linear(in_features=384, out_features=1536, bias=True)
        (dwconv): DWConv(
          (dwconv): Conv2d(1536, 1536, kernel_size=(3, 3), stride=(1, 1), padding=(1, 1), groups=1536)
        )
        (act): GELU()
        (fc2): Linear(in_features=1536, out_features=384, bias=True)
        (drop): Dropout(p=0.0, inplace=False)
      )
    )
    (14): Block(
      (norm1): LayerNorm((384,), eps=1e-06, elementwise_affine=True)
      (attn): Attention(
        (act): GELU()
        (proj): Linear(in_features=384, out_features=384, bias=True)
        (proj_drop): Dropout(p=0.0, inplace=False)
        (v): Linear(in_features=384, out_features=384, bias=True)
        (s): Linear(in_features=384, out_features=384, bias=True)
        (local_conv_1): Conv2d(96, 96, kernel_size=(3, 3), stride=(1, 1), padding=(1, 1), groups=96)
        (local_conv_2): Conv2d(96, 96, kernel_size=(5, 5), stride=(1, 1), padding=(2, 2), groups=96)
        (local_conv_3): Conv2d(96, 96, kernel_size=(7, 7), stride=(1, 1), padding=(3, 3), groups=96)
        (local_conv_4): Conv2d(96, 96, kernel_size=(9, 9), stride=(1, 1), padding=(4, 4), groups=96)
        (proj0): Conv2d(384, 768, kernel_size=(1, 1), stride=(1, 1), groups=96)
        (bn): BatchNorm2d(768, eps=1e-05, momentum=0.1, affine=True, track_running_stats=True)
        (proj1): Conv2d(768, 384, kernel_size=(1, 1), stride=(1, 1))
      )
      (drop_path): DropPath()
      (norm2): LayerNorm((384,), eps=1e-06, elementwise_affine=True)
      (mlp): Mlp(
        (fc1): Linear(in_features=384, out_features=1536, bias=True)
        (dwconv): DWConv(
          (dwconv): Conv2d(1536, 1536, kernel_size=(3, 3), stride=(1, 1), padding=(1, 1), groups=1536)
        )
        (act): GELU()
        (fc2): Linear(in_features=1536, out_features=384, bias=True)
        (drop): Dropout(p=0.0, inplace=False)
      )
    )
    (15): Block(
      (norm1): LayerNorm((384,), eps=1e-06, elementwise_affine=True)
      (attn): Attention(
        (act): GELU()
        (proj): Linear(in_features=384, out_features=384, bias=True)
        (proj_drop): Dropout(p=0.0, inplace=False)
        (q): Linear(in_features=384, out_features=384, bias=True)
        (attn_drop): Dropout(p=0.0, inplace=False)
        (kv): Linear(in_features=384, out_features=768, bias=True)
        (local_conv): Conv2d(384, 384, kernel_size=(3, 3), stride=(1, 1), padding=(1, 1), groups=384)
      )
      (drop_path): DropPath()
      (norm2): LayerNorm((384,), eps=1e-06, elementwise_affine=True)
      (mlp): Mlp(
        (fc1): Linear(in_features=384, out_features=1536, bias=True)
        (dwconv): DWConv(
          (dwconv): Conv2d(1536, 1536, kernel_size=(3, 3), stride=(1, 1), padding=(1, 1), groups=1536)
        )
        (act): GELU()
        (fc2): Linear(in_features=1536, out_features=384, bias=True)
        (drop): Dropout(p=0.0, inplace=False)
      )
    )
    (16): Block(
      (norm1): LayerNorm((384,), eps=1e-06, elementwise_affine=True)
      (attn): Attention(
        (act): GELU()
        (proj): Linear(in_features=384, out_features=384, bias=True)
        (proj_drop): Dropout(p=0.0, inplace=False)
        (v): Linear(in_features=384, out_features=384, bias=True)
        (s): Linear(in_features=384, out_features=384, bias=True)
        (local_conv_1): Conv2d(96, 96, kernel_size=(3, 3), stride=(1, 1), padding=(1, 1), groups=96)
        (local_conv_2): Conv2d(96, 96, kernel_size=(5, 5), stride=(1, 1), padding=(2, 2), groups=96)
        (local_conv_3): Conv2d(96, 96, kernel_size=(7, 7), stride=(1, 1), padding=(3, 3), groups=96)
        (local_conv_4): Conv2d(96, 96, kernel_size=(9, 9), stride=(1, 1), padding=(4, 4), groups=96)
        (proj0): Conv2d(384, 768, kernel_size=(1, 1), stride=(1, 1), groups=96)
        (bn): BatchNorm2d(768, eps=1e-05, momentum=0.1, affine=True, track_running_stats=True)
        (proj1): Conv2d(768, 384, kernel_size=(1, 1), stride=(1, 1))
      )
      (drop_path): DropPath()
      (norm2): LayerNorm((384,), eps=1e-06, elementwise_affine=True)
      (mlp): Mlp(
        (fc1): Linear(in_features=384, out_features=1536, bias=True)
        (dwconv): DWConv(
          (dwconv): Conv2d(1536, 1536, kernel_size=(3, 3), stride=(1, 1), padding=(1, 1), groups=1536)
        )
        (act): GELU()
        (fc2): Linear(in_features=1536, out_features=384, bias=True)
        (drop): Dropout(p=0.0, inplace=False)
      )
    )
    (17): Block(
      (norm1): LayerNorm((384,), eps=1e-06, elementwise_affine=True)
      (attn): Attention(
        (act): GELU()
        (proj): Linear(in_features=384, out_features=384, bias=True)
        (proj_drop): Dropout(p=0.0, inplace=False)
        (q): Linear(in_features=384, out_features=384, bias=True)
        (attn_drop): Dropout(p=0.0, inplace=False)
        (kv): Linear(in_features=384, out_features=768, bias=True)
        (local_conv): Conv2d(384, 384, kernel_size=(3, 3), stride=(1, 1), padding=(1, 1), groups=384)
      )
      (drop_path): DropPath()
      (norm2): LayerNorm((384,), eps=1e-06, elementwise_affine=True)
      (mlp): Mlp(
        (fc1): Linear(in_features=384, out_features=1536, bias=True)
        (dwconv): DWConv(
          (dwconv): Conv2d(1536, 1536, kernel_size=(3, 3), stride=(1, 1), padding=(1, 1), groups=1536)
        )
        (act): GELU()
        (fc2): Linear(in_features=1536, out_features=384, bias=True)
        (drop): Dropout(p=0.0, inplace=False)
      )
    )
    (18): Block(
      (norm1): LayerNorm((384,), eps=1e-06, elementwise_affine=True)
      (attn): Attention(
        (act): GELU()
        (proj): Linear(in_features=384, out_features=384, bias=True)
        (proj_drop): Dropout(p=0.0, inplace=False)
        (v): Linear(in_features=384, out_features=384, bias=True)
        (s): Linear(in_features=384, out_features=384, bias=True)
        (local_conv_1): Conv2d(96, 96, kernel_size=(3, 3), stride=(1, 1), padding=(1, 1), groups=96)
        (local_conv_2): Conv2d(96, 96, kernel_size=(5, 5), stride=(1, 1), padding=(2, 2), groups=96)
        (local_conv_3): Conv2d(96, 96, kernel_size=(7, 7), stride=(1, 1), padding=(3, 3), groups=96)
        (local_conv_4): Conv2d(96, 96, kernel_size=(9, 9), stride=(1, 1), padding=(4, 4), groups=96)
        (proj0): Conv2d(384, 768, kernel_size=(1, 1), stride=(1, 1), groups=96)
        (bn): BatchNorm2d(768, eps=1e-05, momentum=0.1, affine=True, track_running_stats=True)
        (proj1): Conv2d(768, 384, kernel_size=(1, 1), stride=(1, 1))
      )
      (drop_path): DropPath()
      (norm2): LayerNorm((384,), eps=1e-06, elementwise_affine=True)
      (mlp): Mlp(
        (fc1): Linear(in_features=384, out_features=1536, bias=True)
        (dwconv): DWConv(
          (dwconv): Conv2d(1536, 1536, kernel_size=(3, 3), stride=(1, 1), padding=(1, 1), groups=1536)
        )
        (act): GELU()
        (fc2): Linear(in_features=1536, out_features=384, bias=True)
        (drop): Dropout(p=0.0, inplace=False)
      )
    )
    (19): Block(
      (norm1): LayerNorm((384,), eps=1e-06, elementwise_affine=True)
      (attn): Attention(
        (act): GELU()
        (proj): Linear(in_features=384, out_features=384, bias=True)
        (proj_drop): Dropout(p=0.0, inplace=False)
        (q): Linear(in_features=384, out_features=384, bias=True)
        (attn_drop): Dropout(p=0.0, inplace=False)
        (kv): Linear(in_features=384, out_features=768, bias=True)
        (local_conv): Conv2d(384, 384, kernel_size=(3, 3), stride=(1, 1), padding=(1, 1), groups=384)
      )
      (drop_path): DropPath()
      (norm2): LayerNorm((384,), eps=1e-06, elementwise_affine=True)
      (mlp): Mlp(
        (fc1): Linear(in_features=384, out_features=1536, bias=True)
        (dwconv): DWConv(
          (dwconv): Conv2d(1536, 1536, kernel_size=(3, 3), stride=(1, 1), padding=(1, 1), groups=1536)
        )
        (act): GELU()
        (fc2): Linear(in_features=1536, out_features=384, bias=True)
        (drop): Dropout(p=0.0, inplace=False)
      )
    )
    (20): Block(
      (norm1): LayerNorm((384,), eps=1e-06, elementwise_affine=True)
      (attn): Attention(
        (act): GELU()
        (proj): Linear(in_features=384, out_features=384, bias=True)
        (proj_drop): Dropout(p=0.0, inplace=False)
        (v): Linear(in_features=384, out_features=384, bias=True)
        (s): Linear(in_features=384, out_features=384, bias=True)
        (local_conv_1): Conv2d(96, 96, kernel_size=(3, 3), stride=(1, 1), padding=(1, 1), groups=96)
        (local_conv_2): Conv2d(96, 96, kernel_size=(5, 5), stride=(1, 1), padding=(2, 2), groups=96)
        (local_conv_3): Conv2d(96, 96, kernel_size=(7, 7), stride=(1, 1), padding=(3, 3), groups=96)
        (local_conv_4): Conv2d(96, 96, kernel_size=(9, 9), stride=(1, 1), padding=(4, 4), groups=96)
        (proj0): Conv2d(384, 768, kernel_size=(1, 1), stride=(1, 1), groups=96)
        (bn): BatchNorm2d(768, eps=1e-05, momentum=0.1, affine=True, track_running_stats=True)
        (proj1): Conv2d(768, 384, kernel_size=(1, 1), stride=(1, 1))
      )
      (drop_path): DropPath()
      (norm2): LayerNorm((384,), eps=1e-06, elementwise_affine=True)
      (mlp): Mlp(
        (fc1): Linear(in_features=384, out_features=1536, bias=True)
        (dwconv): DWConv(
          (dwconv): Conv2d(1536, 1536, kernel_size=(3, 3), stride=(1, 1), padding=(1, 1), groups=1536)
        )
        (act): GELU()
        (fc2): Linear(in_features=1536, out_features=384, bias=True)
        (drop): Dropout(p=0.0, inplace=False)
      )
    )
    (21): Block(
      (norm1): LayerNorm((384,), eps=1e-06, elementwise_affine=True)
      (attn): Attention(
        (act): GELU()
        (proj): Linear(in_features=384, out_features=384, bias=True)
        (proj_drop): Dropout(p=0.0, inplace=False)
        (q): Linear(in_features=384, out_features=384, bias=True)
        (attn_drop): Dropout(p=0.0, inplace=False)
        (kv): Linear(in_features=384, out_features=768, bias=True)
        (local_conv): Conv2d(384, 384, kernel_size=(3, 3), stride=(1, 1), padding=(1, 1), groups=384)
      )
      (drop_path): DropPath()
      (norm2): LayerNorm((384,), eps=1e-06, elementwise_affine=True)
      (mlp): Mlp(
        (fc1): Linear(in_features=384, out_features=1536, bias=True)
        (dwconv): DWConv(
          (dwconv): Conv2d(1536, 1536, kernel_size=(3, 3), stride=(1, 1), padding=(1, 1), groups=1536)
        )
        (act): GELU()
        (fc2): Linear(in_features=1536, out_features=384, bias=True)
        (drop): Dropout(p=0.0, inplace=False)
      )
    )
    (22): Block(
      (norm1): LayerNorm((384,), eps=1e-06, elementwise_affine=True)
      (attn): Attention(
        (act): GELU()
        (proj): Linear(in_features=384, out_features=384, bias=True)
        (proj_drop): Dropout(p=0.0, inplace=False)
        (v): Linear(in_features=384, out_features=384, bias=True)
        (s): Linear(in_features=384, out_features=384, bias=True)
        (local_conv_1): Conv2d(96, 96, kernel_size=(3, 3), stride=(1, 1), padding=(1, 1), groups=96)
        (local_conv_2): Conv2d(96, 96, kernel_size=(5, 5), stride=(1, 1), padding=(2, 2), groups=96)
        (local_conv_3): Conv2d(96, 96, kernel_size=(7, 7), stride=(1, 1), padding=(3, 3), groups=96)
        (local_conv_4): Conv2d(96, 96, kernel_size=(9, 9), stride=(1, 1), padding=(4, 4), groups=96)
        (proj0): Conv2d(384, 768, kernel_size=(1, 1), stride=(1, 1), groups=96)
        (bn): BatchNorm2d(768, eps=1e-05, momentum=0.1, affine=True, track_running_stats=True)
        (proj1): Conv2d(768, 384, kernel_size=(1, 1), stride=(1, 1))
      )
      (drop_path): DropPath()
      (norm2): LayerNorm((384,), eps=1e-06, elementwise_affine=True)
      (mlp): Mlp(
        (fc1): Linear(in_features=384, out_features=1536, bias=True)
        (dwconv): DWConv(
          (dwconv): Conv2d(1536, 1536, kernel_size=(3, 3), stride=(1, 1), padding=(1, 1), groups=1536)
        )
        (act): GELU()
        (fc2): Linear(in_features=1536, out_features=384, bias=True)
        (drop): Dropout(p=0.0, inplace=False)
      )
    )
    (23): Block(
      (norm1): LayerNorm((384,), eps=1e-06, elementwise_affine=True)
      (attn): Attention(
        (act): GELU()
        (proj): Linear(in_features=384, out_features=384, bias=True)
        (proj_drop): Dropout(p=0.0, inplace=False)
        (q): Linear(in_features=384, out_features=384, bias=True)
        (attn_drop): Dropout(p=0.0, inplace=False)
        (kv): Linear(in_features=384, out_features=768, bias=True)
        (local_conv): Conv2d(384, 384, kernel_size=(3, 3), stride=(1, 1), padding=(1, 1), groups=384)
      )
      (drop_path): DropPath()
      (norm2): LayerNorm((384,), eps=1e-06, elementwise_affine=True)
      (mlp): Mlp(
        (fc1): Linear(in_features=384, out_features=1536, bias=True)
        (dwconv): DWConv(
          (dwconv): Conv2d(1536, 1536, kernel_size=(3, 3), stride=(1, 1), padding=(1, 1), groups=1536)
        )
        (act): GELU()
        (fc2): Linear(in_features=1536, out_features=384, bias=True)
        (drop): Dropout(p=0.0, inplace=False)
      )
    )
    (24): Block(
      (norm1): LayerNorm((384,), eps=1e-06, elementwise_affine=True)
      (attn): Attention(
        (act): GELU()
        (proj): Linear(in_features=384, out_features=384, bias=True)
        (proj_drop): Dropout(p=0.0, inplace=False)
        (v): Linear(in_features=384, out_features=384, bias=True)
        (s): Linear(in_features=384, out_features=384, bias=True)
        (local_conv_1): Conv2d(96, 96, kernel_size=(3, 3), stride=(1, 1), padding=(1, 1), groups=96)
        (local_conv_2): Conv2d(96, 96, kernel_size=(5, 5), stride=(1, 1), padding=(2, 2), groups=96)
        (local_conv_3): Conv2d(96, 96, kernel_size=(7, 7), stride=(1, 1), padding=(3, 3), groups=96)
        (local_conv_4): Conv2d(96, 96, kernel_size=(9, 9), stride=(1, 1), padding=(4, 4), groups=96)
        (proj0): Conv2d(384, 768, kernel_size=(1, 1), stride=(1, 1), groups=96)
        (bn): BatchNorm2d(768, eps=1e-05, momentum=0.1, affine=True, track_running_stats=True)
        (proj1): Conv2d(768, 384, kernel_size=(1, 1), stride=(1, 1))
      )
      (drop_path): DropPath()
      (norm2): LayerNorm((384,), eps=1e-06, elementwise_affine=True)
      (mlp): Mlp(
        (fc1): Linear(in_features=384, out_features=1536, bias=True)
        (dwconv): DWConv(
          (dwconv): Conv2d(1536, 1536, kernel_size=(3, 3), stride=(1, 1), padding=(1, 1), groups=1536)
        )
        (act): GELU()
        (fc2): Linear(in_features=1536, out_features=384, bias=True)
        (drop): Dropout(p=0.0, inplace=False)
      )
    )
    (25): Block(
      (norm1): LayerNorm((384,), eps=1e-06, elementwise_affine=True)
      (attn): Attention(
        (act): GELU()
        (proj): Linear(in_features=384, out_features=384, bias=True)
        (proj_drop): Dropout(p=0.0, inplace=False)
        (q): Linear(in_features=384, out_features=384, bias=True)
        (attn_drop): Dropout(p=0.0, inplace=False)
        (kv): Linear(in_features=384, out_features=768, bias=True)
        (local_conv): Conv2d(384, 384, kernel_size=(3, 3), stride=(1, 1), padding=(1, 1), groups=384)
      )
      (drop_path): DropPath()
      (norm2): LayerNorm((384,), eps=1e-06, elementwise_affine=True)
      (mlp): Mlp(
        (fc1): Linear(in_features=384, out_features=1536, bias=True)
        (dwconv): DWConv(
          (dwconv): Conv2d(1536, 1536, kernel_size=(3, 3), stride=(1, 1), padding=(1, 1), groups=1536)
        )
        (act): GELU()
        (fc2): Linear(in_features=1536, out_features=384, bias=True)
        (drop): Dropout(p=0.0, inplace=False)
      )
    )
    (26): Block(
      (norm1): LayerNorm((384,), eps=1e-06, elementwise_affine=True)
      (attn): Attention(
        (act): GELU()
        (proj): Linear(in_features=384, out_features=384, bias=True)
        (proj_drop): Dropout(p=0.0, inplace=False)
        (v): Linear(in_features=384, out_features=384, bias=True)
        (s): Linear(in_features=384, out_features=384, bias=True)
        (local_conv_1): Conv2d(96, 96, kernel_size=(3, 3), stride=(1, 1), padding=(1, 1), groups=96)
        (local_conv_2): Conv2d(96, 96, kernel_size=(5, 5), stride=(1, 1), padding=(2, 2), groups=96)
        (local_conv_3): Conv2d(96, 96, kernel_size=(7, 7), stride=(1, 1), padding=(3, 3), groups=96)
        (local_conv_4): Conv2d(96, 96, kernel_size=(9, 9), stride=(1, 1), padding=(4, 4), groups=96)
        (proj0): Conv2d(384, 768, kernel_size=(1, 1), stride=(1, 1), groups=96)
        (bn): BatchNorm2d(768, eps=1e-05, momentum=0.1, affine=True, track_running_stats=True)
        (proj1): Conv2d(768, 384, kernel_size=(1, 1), stride=(1, 1))
      )
      (drop_path): DropPath()
      (norm2): LayerNorm((384,), eps=1e-06, elementwise_affine=True)
      (mlp): Mlp(
        (fc1): Linear(in_features=384, out_features=1536, bias=True)
        (dwconv): DWConv(
          (dwconv): Conv2d(1536, 1536, kernel_size=(3, 3), stride=(1, 1), padding=(1, 1), groups=1536)
        )
        (act): GELU()
        (fc2): Linear(in_features=1536, out_features=384, bias=True)
        (drop): Dropout(p=0.0, inplace=False)
      )
    )
    (27): Block(
      (norm1): LayerNorm((384,), eps=1e-06, elementwise_affine=True)
      (attn): Attention(
        (act): GELU()
        (proj): Linear(in_features=384, out_features=384, bias=True)
        (proj_drop): Dropout(p=0.0, inplace=False)
        (q): Linear(in_features=384, out_features=384, bias=True)
        (attn_drop): Dropout(p=0.0, inplace=False)
        (kv): Linear(in_features=384, out_features=768, bias=True)
        (local_conv): Conv2d(384, 384, kernel_size=(3, 3), stride=(1, 1), padding=(1, 1), groups=384)
      )
      (drop_path): DropPath()
      (norm2): LayerNorm((384,), eps=1e-06, elementwise_affine=True)
      (mlp): Mlp(
        (fc1): Linear(in_features=384, out_features=1536, bias=True)
        (dwconv): DWConv(
          (dwconv): Conv2d(1536, 1536, kernel_size=(3, 3), stride=(1, 1), padding=(1, 1), groups=1536)
        )
        (act): GELU()
        (fc2): Linear(in_features=1536, out_features=384, bias=True)
        (drop): Dropout(p=0.0, inplace=False)
      )
    )
  )
  (norm3): LayerNorm((384,), eps=1e-06, elementwise_affine=True)
  (patch_embed4): OverlapPatchEmbed(
    (proj): Conv2d(384, 768, kernel_size=(3, 3), stride=(2, 2), padding=(1, 1))
    (norm): LayerNorm((768,), eps=1e-05, elementwise_affine=True)
  )
  (block4): ModuleList(
    (0): Block(
      (norm1): LayerNorm((768,), eps=1e-06, elementwise_affine=True)
      (attn): Attention(
        (act): GELU()
        (proj): Linear(in_features=768, out_features=768, bias=True)
        (proj_drop): Dropout(p=0.0, inplace=False)
        (q): Linear(in_features=768, out_features=768, bias=True)
        (attn_drop): Dropout(p=0.0, inplace=False)
        (kv): Linear(in_features=768, out_features=1536, bias=True)
        (local_conv): Conv2d(768, 768, kernel_size=(3, 3), stride=(1, 1), padding=(1, 1), groups=768)
      )
      (drop_path): DropPath()
      (norm2): LayerNorm((768,), eps=1e-06, elementwise_affine=True)
      (mlp): Mlp(
        (fc1): Linear(in_features=768, out_features=1536, bias=True)
        (dwconv): DWConv(
          (dwconv): Conv2d(1536, 1536, kernel_size=(3, 3), stride=(1, 1), padding=(1, 1), groups=1536)
        )
        (act): GELU()
        (fc2): Linear(in_features=1536, out_features=768, bias=True)
        (drop): Dropout(p=0.0, inplace=False)
      )
    )
    (1): Block(
      (norm1): LayerNorm((768,), eps=1e-06, elementwise_affine=True)
      (attn): Attention(
        (act): GELU()
        (proj): Linear(in_features=768, out_features=768, bias=True)
        (proj_drop): Dropout(p=0.0, inplace=False)
        (q): Linear(in_features=768, out_features=768, bias=True)
        (attn_drop): Dropout(p=0.0, inplace=False)
        (kv): Linear(in_features=768, out_features=1536, bias=True)
        (local_conv): Conv2d(768, 768, kernel_size=(3, 3), stride=(1, 1), padding=(1, 1), groups=768)
      )
      (drop_path): DropPath()
      (norm2): LayerNorm((768,), eps=1e-06, elementwise_affine=True)
      (mlp): Mlp(
        (fc1): Linear(in_features=768, out_features=1536, bias=True)
        (dwconv): DWConv(
          (dwconv): Conv2d(1536, 1536, kernel_size=(3, 3), stride=(1, 1), padding=(1, 1), groups=1536)
        )
        (act): GELU()
        (fc2): Linear(in_features=1536, out_features=768, bias=True)
        (drop): Dropout(p=0.0, inplace=False)
      )
    )
    (2): Block(
      (norm1): LayerNorm((768,), eps=1e-06, elementwise_affine=True)
      (attn): Attention(
        (act): GELU()
        (proj): Linear(in_features=768, out_features=768, bias=True)
        (proj_drop): Dropout(p=0.0, inplace=False)
        (q): Linear(in_features=768, out_features=768, bias=True)
        (attn_drop): Dropout(p=0.0, inplace=False)
        (kv): Linear(in_features=768, out_features=1536, bias=True)
        (local_conv): Conv2d(768, 768, kernel_size=(3, 3), stride=(1, 1), padding=(1, 1), groups=768)
      )
      (drop_path): DropPath()
      (norm2): LayerNorm((768,), eps=1e-06, elementwise_affine=True)
      (mlp): Mlp(
        (fc1): Linear(in_features=768, out_features=1536, bias=True)
        (dwconv): DWConv(
          (dwconv): Conv2d(1536, 1536, kernel_size=(3, 3), stride=(1, 1), padding=(1, 1), groups=1536)
        )
        (act): GELU()
        (fc2): Linear(in_features=1536, out_features=768, bias=True)
        (drop): Dropout(p=0.0, inplace=False)
      )
    )
    (3): Block(
      (norm1): LayerNorm((768,), eps=1e-06, elementwise_affine=True)
      (attn): Attention(
        (act): GELU()
        (proj): Linear(in_features=768, out_features=768, bias=True)
        (proj_drop): Dropout(p=0.0, inplace=False)
        (q): Linear(in_features=768, out_features=768, bias=True)
        (attn_drop): Dropout(p=0.0, inplace=False)
        (kv): Linear(in_features=768, out_features=1536, bias=True)
        (local_conv): Conv2d(768, 768, kernel_size=(3, 3), stride=(1, 1), padding=(1, 1), groups=768)
      )
      (drop_path): DropPath()
      (norm2): LayerNorm((768,), eps=1e-06, elementwise_affine=True)
      (mlp): Mlp(
        (fc1): Linear(in_features=768, out_features=1536, bias=True)
        (dwconv): DWConv(
          (dwconv): Conv2d(1536, 1536, kernel_size=(3, 3), stride=(1, 1), padding=(1, 1), groups=1536)
        )
        (act): GELU()
        (fc2): Linear(in_features=1536, out_features=768, bias=True)
        (drop): Dropout(p=0.0, inplace=False)
      )
    )
  )
  (norm4): LayerNorm((768,), eps=1e-06, elementwise_affine=True)
  (head): Linear(in_features=768, out_features=1000, bias=True)
)
[2024-08-06 13:04:39 smt_diffusion_finetune_large_224_22kto1k_step_crosslayer2-full-ft] (main.py 113): INFO number of params: 80620264
[2024-08-06 13:04:40 smt_diffusion_finetune_large_224_22kto1k_step_crosslayer2-full-ft] (main.py 150): INFO no checkpoint found in pretrain/diffusion_ft/smt_diffusion_finetune_large_224_22kto1k_step_crosslayer2-full-ft/diffusion_ft_smt_l_step_cross2, ignoring auto resume
…
